matchmaking_model.pth (torch, 29095 bytes, 6 tensors)

fc1.weight f4 [64, 31]
0.09184391 -0.069177315 0.04430276 0.15889013 0.020110734 -0.043317378 -0.016897319 -0.037951935
-0.083060995 0.051558934 0.047507003 -0.012497488 -0.07229584 -0.14208692 -0.118651345 -0.05486114
-0.048301116 0.08937964 -0.08525611 -0.120881446 0.112458274 0.026357764 0.014666649 0.16196483
0.11650143 0.13961355 -0.0628143 0.19477455 0.18671791 0.108207405 -0.05285763 -0.060907554
-0.17457414 -0.12663192 0.12496672 -0.004641202 0.08728515 0.05534437 0.09015026 0.010475997
0.0070975884 0.10774526 0.019044524 -0.15678056 0.018851792 0.14488035 0.07421445 0.12065242
0.1329691 -0.14752221 -0.16861247 -0.0716231 -0.15872683 0.08519278 0.13584591 -0.0059416085
-0.08508296 -0.009810258 0.01568024 0.049720094 -0.19970076 -0.16526514 -0.11997221 0.09158757
-0.103700586 0.046007708 0.10196637 0.04971152 0.08650321 -0.066618256 0.10599466 -0.124374375
0.0935668 0.0695457 -0.0074172406 0.09623357 -0.030171039 -0.040772796 -0.045586653 0.07992629
-0.089175485 0.027463041 -0.025141465 0.12552549 -0.07194124 -0.130165 0.093452714 0.042923044
-0.15293919 0.11875211 -0.115978144 0.10847598 -0.018689118 0.033493005 -0.15169767 0.12022373
0.14757931 -0.04949332 -0.1502432 0.14505535 0.04206491 0.115661725 -0.03644756 0.02345299
0.107865795 -0.050128516 0.04138923 0.057784896 -0.037497938 -0.14233924 -0.05101284 0.19580159
0.0992231 0.06547783 -0.04555139 -0.0468919 0.169354 0.14939138 -0.022195945 0.13113417
0.055724524 -0.033601746 0.022434829 -0.08539469 0.077338815 0.12199333 0.04591914 -0.07619224
-0.17541157 0.0027936678 -0.0071360413 -0.04700773 0.0070030643 -0.003366977 0.005869765 -0.1544641
-0.03699984 0.0900831 -0.1164272 0.14762498 0.09936629 -0.105618626 0.023765236 -0.09115249
-0.008165767 0.024453579 -0.02157738 -0.14845315 -0.0756306 0.08138886 0.121563904 -0.05884229
-0.1896363 0.13413161 0.01388067 0.012203421 -0.09941662 -0.09774017 0.072633736 0.1579679
0.17617269 -0.0152819855 0.10744196 -0.04228514 0.15690069 0.17123322 0.01537341 -0.06815555
-0.12759598 0.16132417 -0.089538984 0.052692134 -0.03210665 -0.12754652 0.1628908 -0.13276893
0.20911102 -0.00875419 0.20147213 -0.07835334 0.07929704 -0.016028505 -0.016986068 -0.114105955
0.08725614 0.060519364 0.02832929 -0.008632209 -0.0633263 0.124200076 -0.13121621 0.026407229
-0.110187404 0.16325025 -0.010108253 0.098132044 0.083881296 0.002345643 -0.011272262 0.074054256
0.08973781 -0.08306869 -0.013939707 0.17276226 0.13830157 0.119818345 0.09302448 0.014861294
0.19175594 -0.107521266 0.012975742 0.010946027 0.16682161 0.1353981 0.01277865 0.0013294974
0.12680928 -0.13735859 0.023718454 -0.05629039 -0.08354383 0.006114173 -0.056481924 -0.032792553
-0.16050513 -0.078140296 -0.02092444 -0.023960987 0.07359179 0.10698079 -0.12161525 -0.044881552
0.045163646 -0.075391844 -0.15560535 -0.13931409 0.079740524 0.09609862 0.0019278063 -0.067644514
-0.05947792 0.040589336 0.04000067 0.1485484 -0.07732092 -0.012177468 0.14987434 0.15328804
0.07979169 0.20054609 0.16130154 -0.075522326 0.10515023 0.045991432 -0.14151469 0.04834977
00000000: a918 bc3d d6ac 8dbd d076 353d 18b4 223e
00000010: 44bf a43c 906d 31bd 3f6c 8abc 7d73 1bbd
00000020: e21b aabd 762f 533d b496 423d 44c2 4cbc
00000030: d70f 94bd 3c7f 11be 7aff f2bd 13b6 60bd
00000040: 64d7 45bd ac0c b73d c19a aebd b190 f7bd
00000050: 8650 e63d 3dec d73c 624c 703c 1cda 253e
00000060: 4d98 ee3d dbf6 0e3e c9a4 80bd fb72 473e
00000070: fb32 3f3e d89b dd3d 3e81 58bd 337a 79bd
00000080: 90c3 32be ccab 01be 8dee ff3d 3915 98bb
00000090: 8fc2 b23d c7b0 623d b3a0 b83d 84a3 2b3c
000000a0: e392 e83b 8ca9 dc3d 4303 9c3c 158b 20be
000000b0: 136f 9a3c 845b 143e bffd 973d 9e18 f73d
000000c0: 0d29 083e 1010 17be bfa8 2cbe 22af 92bd
000000d0: 4989 22be 8d79 ae3d 311b 0b3e d3b1 c2bb
000000e0: fa3f aebd 34bb 20bc d973 803c 4ca7 4b3d
000000f0: 5b7e 4cbe 443b 29be fdb3 f5bd 4492 bb3d
00000100: f960 d4bd 9472 3c3d bfd3 d03d 4f9e 4b3d
00000110: 9828 b13d 276f 88bd ba13 d93d feb7 febd
00000120: f39f bf3d fa6d 8e3d 530c f3bb 1b16 c53d
00000130: 4129 f7bc 6001 27bd 12b9 3abd 65b0 a33d
00000140: a3a1 b6bd 2cfa e03c 79f5 cdbc c189 003e
00000150: ee55 93bd f949 05be 2364 bf3d 13d0 2f3d
00000160: 179c 1cbe 4e34 f33d f385 edbd a828 de3d
00000170: ec19 99bc f62f 093d a256 1bbe dc37 f63d
00000180: 081f 173e 82b9 4abd 5ad9 19be 6489 143e
00000190: 414c 2c3d 0ee0 ec3d 094a 15bd 7c20 c03c
000001a0: bee8 dc3d 8f53 4dbd c187 293d dbaf 6c3d
000001b0: 7097 19bd 61c1 11be d7f2 50bd 3680 483e
000001c0: 7b35 cb3d 3e19 863d 1894 3abd b911 40bd
000001d0: 236b 2d3e 0efa 183e 45d4 b5bc 0948 063e
000001e0: 663f 643d fca1 09bd 3fc9 b73c 69e3 aebd
000001f0: d063 9e3d a4d7 f93d b515 3c3d ad0a 9cbd
00000200: 179f 33be f815 373b 74d5 e9bb 2d8b 40bd
00000210: f679 e53b 80a8 5cbb 2857 c03b d62b 1ebe
00000220: 258d 17bd 7d7d b83d 6271 eebd 012b 173e
00000230: 8e80 cb3d 944e d8bd 50af c23c 28ae babd
00000240: b6c9 05bc df52 c83c 0cc3 b0bc 1a04 18be
00000250: 37e4 9abd 34af a63d 7ff6 f83d 9d04 71bd
00000260: 0530 42be cc59 093e c06b 633c dcf0 473c
00000270: f19a cbbd 002c c8bd ffc0 943d 56c2 213e
00000280: 9d66 343e 4b61 7abc 880a dc3d 2f33 2dbd
00000290: 93aa 203e c357 2f3e c1e0 7b3c 2395 8bbd
000002a0: 85a8 02be 2a32 253e 3760 b7bd b5d3 573d
000002b0: 4382 03bd 8e9b 02be d9cc 263e 94f4 07be
000002c0: 3321 563e bc6d 0fbc b64e 4e3e b777 a0bd
000002d0: 7d66 a23d 364e 83bc 5e26 8bbc 62b0 e9bd
000002e0: 59b3 b23d 27e3 773d d412 e83c 1c6e 0dbc
000002f0: 38b1 81bd 9c5c fe3d 8b5d 06be f953 d83c
00000300: efa9 e1bd 132b 273e 169d 25bc 74f9 c83d
00000310: f5c9 ab3d 5cb9 193b 4baf 38bc c2a9 973d
00000320: 75c8 b73d eb1f aabd 5e63 64bc 97e8 303e
00000330: ed9e 0d3e 5263 f53d 9e83 be3d c97c 733c
00000340: ab5b 443e 1c34 dcbd 3598 543c f756 333c
00000350: 49d3 2a3e cda5 0a3e 8b5d 513c 8842 ae3a
00000360: 4bda 013e bba7 0cbe 344d c23c c190 66bd
00000370: 0719 abbd 6759 c83b 9759 67bd 7c51 06bd
00000380: 755b 24be 0508 a0bd bb69 abbc d549 c4bc
00000390: 4bb7 963d bf18 db3d 6b11 f9bd b8d5 37bd
000003a0: 84fd 383d 0a67 9abd 0257 1fbe 5aa8 0ebe
000003b0: 004f a33d 5acf c43d 72ae fc3a 3589 8abd
000003c0: 1f9f 73bd 0141 263d bed7 233d 121d 183e
000003d0: 6e5a 9ebd 0184 47bc a978 193e 8af7 1c3e
000003e0: d369 a33d f45b 4d3e 3b2c 253e 73ab 9abd
000003f0: 0159 d73d 8361 3c3d 3ae9 10be 690a 463d

fc1.bias f4 [64]
0.05142935 -0.14375891 0.15805823 -0.09234028 -0.14968361 0.18560307 0.07435516 0.0056044487
0.16995133 -0.13568987 -0.13206516 0.18785161 0.12789765 -0.012686572 -0.087512955 0.14639473
0.0017069944 0.111819714 -0.034043737 -0.012922844 -0.14946659 0.035743184 -0.12180633 0.15056969
-0.086344674 -0.12887417 -0.053501934 -0.034120794 -0.06011256 0.1151791 0.07548052 0.14646424
-0.026829502 0.06661469 0.14202797 0.060313772 -0.088090725 0.13860667 -0.046045434 0.08877586
-0.13959073 0.14627956 0.0267545 -0.0014753082 -0.090402335 0.14577171 -0.031077275 0.046701055
0.14602913 0.14577584 -0.031392448 0.0110262325 0.035477534 0.19489689 -0.07660978 -0.13322467
-0.015976472 -0.09822233 0.078456566 -0.07131576 -0.01280115 -0.1620813 -0.05614791 0.1401985
00000000: 95a7 523d 8935 13be 04da 213e e71c bdbd
00000010: a946 19be bb0e 3e3e 8547 983d 86a5 b73b
00000020: b907 2e3e 49f2 0abe 173c 07be 2c5c 403e
00000030: 9af7 023e 57db 4fbc fe39 b3bd 80e8 153e
00000040: 3abd df3a bc01 e53d 7271 0bbd 56ba 53bc
00000050: c50d 19be 7267 123d 9975 f9bd f12e 1a3e
00000060: 7ad5 b0bd 97f7 03be d824 5bbd 3fc2 0bbd
00000070: 9638 76bd 05e3 eb3d 8895 9a3d b9fa 153e
00000080: 8bc9 dbbc 486d 883d c86f 113e 930b 773d
00000090: e968 b4bd e8ee 0d3e 239a 3cbd 1ed0 b53d
000000a0: dff0 0ebe 4fca 153e 412c db3c 215f c1ba
000000b0: dc24 b9bd 2e45 153e c595 febc 9b49 3f3d
000000c0: a988 153e 4346 153e 5e95 00bd 5fa7 343c
000000d0: e450 113d 0d93 473e 97e5 9cbd 0c6c 08be
000000e0: 17e1 82bc ca28 c9bd d6ad a03d ff0d 92bd
000000f0: eabb 51bc a4f8 25be 5afb 65bd 3290 0f3e

fc2.weight f4 [64, 64]
-0.08378951 0.17140168 0.032024134 0.13984302 -0.021410234 0.12962487 0.075778015 0.036194663
-0.03559469 -0.09094095 0.10520017 -0.061072804 0.08680685 0.026457326 0.01720431 0.038080886
0.12501511 0.08143994 0.10342731 0.08484166 -0.040064294 -0.013005846 -0.06956118 0.11597851
0.011824708 0.08403038 -0.07529752 -0.12575255 0.11006529 0.0630648 0.07534881 0.074153446
-0.024125714 0.07264691 0.12113191 -0.014035175 -0.007984929 0.11237422 -0.06747411 0.14784533
-0.06290119 0.08817665 -0.020688223 0.019281697 0.05733469 0.04697594 0.007222751 0.110862404
0.033808246 -0.054067094 0.031559356 0.003376901 -0.026424106 -0.008511985 -0.03153504 0.097529165
-0.08637988 0.00094938325 -0.018044544 0.11599231 0.06589065 -0.07136168 -0.14657827 -0.045094777
-0.006366805 -0.015835425 -0.0667685 0.08606233 -0.054467686 0.065651946 0.14858735 0.029761441
-0.0019356306 0.013896976 -0.03152497 -0.06429195 -0.10350226 -0.029507127 -0.0040794495 0.0154227195
-0.120710656 0.08309513 0.14880402 0.02350203 -0.10026753 -0.047175765 0.11798081 0.037245568
-0.009225776 0.051460348 -0.0076346747 0.051205512 -0.071269795 -0.05528785 0.01639638 0.018247053
-0.1580388 -0.0064946357 0.12238329 0.10521228 0.11999834 -0.05671626 0.09207118 0.10028207
0.088702515 0.042505484 0.058426566 0.14424889 0.037838235 0.022396514 0.15542386 -0.07474056
-0.0004229165 0.06981398 -0.0601944 0.041594613 -0.01664171 0.12414883 0.1476208 0.072705105
0.06258229 0.059517104 0.08080813 0.11641417 0.021747248 -0.0109740095 0.07358584 -0.08951416
0.058310777 -0.0076025217 0.15065324 0.060375094 -0.16942067 0.014404476 0.053937405 0.13736919
0.14431313 -0.012672519 -0.08459764 -0.087385245 0.061196446 0.040638007 0.15564983 0.055185646
-0.13446644 -0.09333707 0.062466584 0.006786877 -0.105121166 0.1106299 0.0015060212 0.08580457
0.011255529 -0.040842526 0.060045924 0.0412177 0.07692216 0.14491627 0.1231516 -0.021335807
0.041715886 0.0028926213 -0.08303068 -0.090622075 -0.0869481 0.030954722 0.044057913 -0.11500953
0.073828645 -0.03865628 -0.029400636 0.0162093 -0.040016875 0.090478785 0.10940714 0.0923549
-0.04465891 -0.011037454 0.06836017 0.10691112 -0.08494324 -0.095895596 0.02176509 0.041228715
0.06247301 0.031585343 -0.07951341 0.064522184 0.060718812 -0.011039055 -0.05206925 -0.06657269
-0.03332941 0.019207409 0.09790065 -0.099391334 0.065533444 -0.06319826 -0.12469118 0.09252757
0.065794386 0.06729427 0.054731816 0.044186972 0.08840181 -0.09849387 -0.11573564 -0.005498339
0.09198874 -0.056181863 -0.0334944 -0.092962764 -0.10677866 0.052117147 0.09712257 -0.14992425
0.009893385 -0.012649497 0.06498377 0.05855636 0.019886013 -0.078787565 0.017698428 0.04934583
-0.07112647 -0.0065114633 -0.081229605 -0.13303874 -0.10410527 -0.055932466 -0.06339351 -0.08992811
-0.07374874 -0.023994602 -0.0052130744 -0.0023017866 -0.092379004 0.0055853175 -0.024870334 -0.012200701
-0.046075232 0.019069802 0.07576666 -0.13993205 0.00837376 -0.02731422 0.030234084 0.05004167
-0.13884169 -0.031232623 -0.028467262 -0.09645092 0.091729105 0.0027094095 0.0643387 0.08862394
00000000: d699 abbd ec83 2f3e bd2b 033d 0233 0f3e
00000010: 8464 afbc 62bc 043e 8131 9b3d db40 143d
00000020: bdcb 11bd 403f babd 3073 d73d 7a27 7abd
00000030: cac7 b13d 09bd d83c 0ef0 8c3c b4fa 1b3d
00000040: f603 003e fcc9 a63d b3d1 d33d 77c1 ad3d
00000050: 751a 24bd 7916 55bc 1876 8ebd 2486 ed3d
00000060: 6cbc 413c 1f18 ac3d 9635 9abd 47c5 00be
00000070: e969 e13d 1e28 813d 7a50 9a3d c3dd 973d
00000080: 4aa3 c5bc e7c7 943d 0214 f83d caf3 65bc
00000090: 38d3 02bc 7424 e63d de2f 8abd c464 173e
000000a0: 57d2 80bd f695 b43d 597a a9bc a6f4 9d3c
000000b0: c8d7 6a3d d869 403d d4ac ec3b d40b e33d
000000c0: 847a 0a3d 7575 5dbd 6244 013d ff4e 5d3b
000000d0: 5e77 d8bc da75 0bbc e32a 01bd 5fbd c73d
000000e0: efe7 b0bd 08e0 783a 27d2 93bc 608d ed3d
000000f0: adf1 863d 1326 92bd 9d18 16be 4db5 38bd
00000100: a2a0 d0bb 4bb9 81bc ecbd 88bd 7241 b03d
00000110: 8219 5fbd 8774 863d 4827 183e 44ce f33c
00000120: fcb4 fdba 24b0 633c 5420 01bd 7fab 83bd
00000130: fef8 d3bd eeb8 f1bc e7ac 85bb 93af 7c3c
00000140: 2637 f7bd c82d aa3d 1560 183e 5487 c03c
00000150: 1059 cdbd 603b 41bd ec9f f13d cf8e 183d
00000160: b627 17bc 16c8 523d 4b2c fabb dfbc 513d
00000170: e6f5 91bd 8375 62bd b351 863c d87a 953c
00000180: ecd4 21be f4d0 d4bb 17a4 fa3d 8979 d73d
00000190: b1c1 f53d 4f4f 68bd d18f bc3d b060 cd3d
000001a0: aaa9 b53d 3b1a 2e3d b250 6f3d fbb5 133e
000001b0: 44fc 1a3d e578 b73c 6f27 1f3e 9411 99bd
000001c0: e4ba ddb9 a2fa 8e3d 678e 76bd 1d5f 2a3d
000001d0: 3254 88bc be41 fe3d e829 173e 6ae6 943d
000001e0: 252b 803d 35c8 733d bc7e a53d 8d6a ee3d
000001f0: 4927 b23c 55cc 33bc 2cb4 963d 3353 b7bd
00000200: 48d7 6e3d 931e f9bb d844 1a3e e04b 773d
00000210: 9d7c 2dbe c000 6c3c 78ed 5c3d 82aa 0c3e
00000220: d2c6 133e 66a0 4fbc 8741 adbd 09f7 b2bd
00000230: 20a9 7a3d 0a74 263d ab62 1f3e 580a 623d
00000240: 92b1 09be 8127 bfbd f6dc 7f3d 7364 de3b
00000250: c449 d7bd ee91 e23d b065 c53a 4eba af3d
00000260: 1c69 383c 7e4a 27bd b7f2 753d e4d3 283d
00000270: 5e89 9d3d ee64 143e e836 fc3d 6ec8 aebc
00000280: 47de 2a3d 2292 3d3b fd0b aabd 1198 b9bd
00000290: d811 b2bd c294 fd3c 1276 343d 1e8a ebbd
000002a0: 7933 973d 0c56 1ebd 9ad9 f0bc 5ec9 843c
000002b0: bce8 23bd f14c b93d da10 e03d 9124 bd3d
000002c0: 43ec 36bd 70d6 34bc 6b00 8c3d 38f4 da3d
000002d0: b9f6 adbd e964 c4bd b44c b23c 71df 283d
000002e0: b3e3 7f3d a25f 013d edd7 a2bd 3524 843d
000002f0: 4ab4 783d 27dd 34bc 9146 55bd 4357 88bd
00000300: 6b84 08bd db58 9d3c 2380 c83d af8d cbbd
00000310: 6636 863d 176e 81bd 175e ffbd 187f bd3d
00000320: 35bf 863d 94d1 893d 782e 603d 66fd 343d
00000330: 020c b53d 27b7 c9bd cf06 edbd 692b b4bb
00000340: 9864 bc3d f41e 66bd 6d31 09bd 4363 bebd
00000350: c5ae dabd ca78 553d 33e8 c63d be85 19be
00000360: dd17 223c d63f 4fbc 3616 853d cbd8 6f3d
00000370: fee7 a23c 605b a1bd 4bfc 903c da1e 4a3d
00000380: c1aa 91bd 1d5e d5bb b55b a6bd 4f3b 08be
00000390: 2535 d5bd 7119 65bd 75d4 81bd 3b2c b8bd
000003a0: 9409 97bd 5490 c4bc 70d2 aabb 92d9 16bb
000003b0: 3431 bdbd 0a05 b73b dfbc cbbc 73e5 47bc
000003c0: 62b9 3cbd 4638 9c3c 8d2b 9b3d 594a 0fbe
000003d0: 1832 093c 12c2 dfbc 78ad f73c 7ff8 4c3d
000003e0: 842c 0ebe 8fdb ffbc 2d34 e9bc 0f88 c5bd
000003f0: 78dc bb3d 5990 313b 02c4 833d 7880 b53d

fc2.bias f4 [64]
0.026622802 0.083916746 0.1431325 0.02016045 -0.080332346 0.033081323 0.01563185 -0.08422423
0.10526349 -0.009902676 -0.004775094 -0.10950677 0.067398496 -0.011897014 -0.09311041 -0.057473123
-0.010557658 0.08049797 0.0031526457 -0.11223234 -0.13095924 -0.09797925 -0.08528787 0.023069363
0.08258663 0.022346586 -0.059971515 -0.03260544 0.021137442 0.106454276 0.08706846 0.1301647
0.099397995 -0.075619854 0.043069657 0.0861499 -0.06495767 -0.054720156 0.13070269 -0.07955801
-0.009800449 -0.043362293 -0.064287245 0.141841 0.07439854 0.014422144 -0.026631847 -0.007653372
0.046302818 -0.07133419 0.006282544 -0.018984227 -0.01857943 0.01165678 -0.028650686 -0.06654851
0.048312537 -0.109828286 0.112528294 -0.08840239 -0.043233603 0.09911125 -0.050032794 -0.116696134
00000000: 1018 da3c 8bdc ab3d 5391 123e 8727 a53c
00000010: 4985 a4bd 4880 073d 5e0e 803c c17d acbd
00000020: 6294 d73d d53e 22bc 6478 9cbb 1645 e0bd
00000030: 3908 8a3d b2eb 42bc acb0 bebd f068 6bbd
00000040: 07fa 2cbc 1fdc a43d 9e9c 4e3b 12da e5bd
00000050: 2e1a 06be 58a9 c8bd 68ab aebd f6fb bc3c
00000060: 2e23 a93d 3010 b73c b1a4 75bd 488d 05bd
00000070: 6e28 ad3c b304 da3d f350 b23d e549 053e
00000080: 2d91 cb3d 95de 9abd cf69 303d 5c6f b03d
00000090: 8708 85bd 3e22 60bd edd6 053e 4fef a2bd
000000a0: 1092 20bc a99c 31bd 08a9 83bd c43e 113e
000000b0: 435e 983d db4a 6c3c 082b dabc 23c9 fabb
000000c0: 06a8 3d3d a917 92bd cddd cd3b cf84 9bbc
000000d0: e433 98bc 14fc 3e3c d8b4 eabc 964a 88bd
000000e0: 5ee3 453d a7ed e0bd 3c75 e63d 500c b5bd
000000f0: b815 31bd d7fa ca3d 30ef 4cbd 62fe eebd

fc3.weight f4 [8, 64]
0.03592875 0.14421538 0.024301523 -0.0754749 0.050442137 0.055084802 -0.008281121 -0.011896771
0.06781455 0.13563758 0.020981697 -0.050112505 0.083874844 -0.09768187 -0.10494127 0.12215105
-0.098849036 -0.044981938 -0.07471161 -0.07993028 0.10722962 0.0041449107 0.024171326 0.14436704
0.07296524 -0.009023831 0.13250324 -0.024519807 0.03404273 0.010757841 0.15075064 0.042929195
0.15597148 0.06317184 0.06696804 0.038884636 -0.09769806 0.112538226 -0.064595774 -0.0875583
0.09965553 0.10075926 -0.117139794 0.14098842 0.07085362 0.018418234 0.016414342 0.13641998
0.05134221 -0.043510415 -0.0313276 -0.06770386 -0.122448914 0.13348906 0.0133611215 0.019076763
-0.032159712 -0.016890548 0.06273056 0.10773746 0.00437105 -0.010902547 -0.08472766 0.048525557
-0.16395032 0.06061066 -0.0045359824 -0.017005606 -0.06409256 0.07270832 0.13993615 0.023861315
-0.011920874 0.064661175 0.062248245 0.053894624 0.10726127 -0.016590599 -0.08603198 -0.0689118
0.09555812 -0.025745826 0.06675058 -0.06469245 -0.030148814 -0.007469954 -0.021791851 0.12055475
0.06614665 -0.07584067 0.115947224 0.12758112 0.13412799 0.084786266 0.050253216 0.069112435
0.03881391 0.012743323 0.09671378 0.08188822 0.028045472 0.01509128 0.11557953 -0.10955263
-0.09735758 -0.072092935 0.150715 0.025547614 0.09758815 -0.019847518 0.11595844 -0.05988849
0.080581754 0.012987228 -0.055811886 0.13411735 -0.07368034 -0.057269547 0.033563603 0.15454248
0.07804425 0.12922539 0.09032104 -0.051887456 0.1266784 -0.08715989 0.002183626 0.011296008
0.07598567 -0.057457987 0.0757724 0.051724292 -0.0625778 -0.057354905 -0.086988844 0.04712302
-0.015625462 0.08637416 -0.030580256 -0.046722062 -0.075565554 -0.10254031 0.13473645 0.093110226
-0.13461381 -0.12126574 -0.06295533 0.12689261 -0.010746426 0.036150895 0.07844266 0.15783358
-0.02386511 0.033936683 0.06581721 0.1282685 0.12471627 -0.08000363 -0.046461057 0.12762395
0.03174221 0.10958778 0.10202586 0.1320033 -0.035396766 0.011422811 -0.07197949 -0.0959173
0.00942754 -0.08276007 -0.054523773 0.07900286 0.14094536 0.09859045 0.06836439 0.112864524
0.14184378 -0.100658685 -0.046216145 0.10149552 0.10408459 0.10947699 -0.03699689 0.1322718
0.034012668 -0.04534347 0.0910579 0.14167657 -0.0680051 -0.009700859 0.11220435 -0.054333236
-0.0860682 -0.026305472 0.027566766 0.0015104504 -0.0036134915 0.087721065 -0.0040221605 -0.049624823
-0.07313522 -0.07132965 -0.06751662 -0.077079505 0.11470072 0.0745484 0.09071964 0.028291652
0.06606676 -0.12295788 -0.099061474 -0.072549745 -0.10235338 0.025786834 0.16471557 -0.015852125
0.09317697 0.13052559 0.0025423248 0.029795669 -0.08548981 0.14325725 0.12107037 0.06912817
0.01389018 0.08419654 -0.030629057 0.1004796 0.032866113 0.058255278 -0.0018334517 0.11157476
-0.046453893 -0.05775732 -0.049351376 0.11316413 0.13327493 0.124647014 -0.075595506 -0.054333672
-0.06447136 -0.054996803 0.08584464 0.065624095 0.01759097 0.10535846 0.113174535 -0.0419468
0.13614935 -0.027179046 0.042209968 0.09132912 -0.09730318 0.0065935235 0.16197544 -0.04218668
00000000: 062a 133d 32ad 133e fd13 c73c 9692 9abd
00000010: 6a9c 4e3d 9aa0 613d 8aad 07bc adea 42bc
00000020: 5be2 8a3d 94e4 0a3e cfe1 ab3c c542 4dbd
00000030: 93c6 ab3d 6f0d c8bd 73eb d6bd 542a fa3d
00000040: 5d71 cabd fb3e 38bd 6702 99bd 7db2 a3bd
00000050: 349b db3d 08d2 873b f202 c63c f4d4 133e
00000060: cd6e 953d b1d8 13bc eeae 073e c3dd c8bc
00000070: 6470 0b3d a841 303c 605e 1a3e 86d6 2f3d
00000080: fdb6 1f3e 3d60 813d 8a26 893d 7f45 1f3d
00000090: ec15 c8bd 717a e63d ca4a 84bd c451 b3bd
000000a0: 3318 cc3d df5a ce3d fde6 efbd 455f 103e
000000b0: b41b 913d d6e1 963c 5f77 863c aeb1 0b3e
000000c0: 364c 523d fa37 32bd 5f51 00bd 52a8 8abd
000000d0: 7fc6 fabd 5bb1 083e 9be8 5a3c df46 9c3c
000000e0: e7b9 03bd 0c5e 8abc e178 803d 75a5 dc3d
000000f0: 063b 8f3b 99a0 32bc b285 adbd bcc2 463d
00000100: 98e2 27be e242 783d 94a2 94bb 574f 8bbc
00000110: f642 83bd 1ae8 943d 6c4b 0f3e ce78 c33c
00000120: c54f 43bc 146d 843d 04f8 7e3d 9cc0 5c3d
00000130: ccab db3d 02e9 87bc 8931 b0bd a121 8dbd
00000140: fab3 c33d e9e8 d2bc 87b4 883d 7a7d 84bd
00000150: a5fa f6bc 84c6 f4bb d384 b2bc 69e5 f63d
00000160: e577 873d 5a52 9bbd bd75 ed3d a0a4 023e
00000170: d958 093e 6ca4 ad3d 51d6 4d3d d28a 8d3d
00000180: 56fb 1e3d 5fc9 503c e011 c63d 03b5 a73d
00000190: 9ebf e53c 6b41 773c f6b4 ec3d 215d e0bd
000001a0: 6963 c7bd 76a5 93bd 0855 1a3e 3b49 d13c
000001b0: 4cdc c73d 4397 a2bc 9e7b ed3d a24d 75bd
000001c0: 0c08 a53d 62c8 543c 019b 64bd 0f56 093e
000001d0: b8e5 96bd 7993 6abd fd79 093d 6240 1e3e
000001e0: aad5 9f3d a953 043e 3dfa b83d f187 54bd
000001f0: fcb7 013e e280 b2bd 2a1b 0f3b e412 393c
00000200: 609e 9b3d 1159 6bbd 8f2e 9b3d dadc 533d
00000210: ca28 80bd faec 6abd 3527 b2bd 1104 413d
00000220: f800 80bc f0e4 b03d 7283 fabc a25f 3fbd
00000230: 1dc2 9abd a700 d2bd 5af8 093e 93b0 be3d
00000240: 34d8 09be 2c5a f8bd b9ee 80bd 23f0 013e
00000250: c711 30bc f612 143d 8ca6 a03d 209f 213e
00000260: c380 c3bc 3101 0b3d 2ccb 863d d158 033e
00000270: 3e6b ff3d f1d8 a3bd f34d 3ebd daaf 023e
00000280: 1f04 023d 8f6f e03d eff2 d03d e02b 073e
00000290: 33fc 10bd be26 3b3c fc69 93bd 4a70 c4bd
000002a0: f875 1a3c 1d7e a9bd 5254 5fbd 40cc a13d
000002b0: fb53 103e cae9 c93d a102 8c3d 8425 e73d
000002c0: 7f3f 113e 2426 cebd 244d 3dbd e2dc cf3d
000002d0: 4d2a d53d 7935 e03d 0d8a 17bd 4272 073e
000002e0: de50 0b3d 13ba 39bd 907c ba3d aa13 113e
000002f0: 4246 8bbd 5af0 1ebc 65cb e53d 878c 5ebd
00000300: 8644 b0bd 937e d7bc b3d3 e13c 4efa c53a
00000310: 54d0 6cbb 1aa7 b33d 54cc 83bb 6643 4bbd
00000320: ebc7 95bd 4815 92bd 2746 8abd dcdb 9dbd
00000330: 36e8 ea3d d5ac 983d 38cb b93d e5c3 e73c
00000340: 024e 873d 57d1 fbbd bee0 cabd f694 94bd
00000350: a69e d1bd e93e d33c 33ab 283e 51dc 81bc
00000360: 91d3 be3d 80a8 053e 229d 263b 0c16 f43c
00000370: 4815 afbd 07b2 123e bef3 f73d 1293 8d3d
00000380: a393 633c 3c6f ac3d cae9 fabc 40c8 cd3d
00000390: 9e9e 063d 169d 6e3d 6e50 f0ba 4f81 e43d
000003a0: 7046 3ebd f192 6cbd ab24 4abd 98c2 e73d
000003b0: 3979 083e ef46 ff3d d1d1 9abd fc8c 5ebd
000003c0: 8f09 84bd 5444 61bd 51cf af3d ed65 863d
000003d0: f01a 903c 2dc6 d73d 0dc8 e73d 68d0 2bbd
000003e0: bc6a 0b3e 97a6 debc 5ce4 2c3d c30a bb3d
000003f0: e446 c7bd 7c0e d83b e4dc 253e f1cb 2cbd

fc3.bias f4 [8]
0.04837021 0.10604453 -0.031832602 -0.015558041 -0.026664207 -0.049808268 0.13027042 0.008541569
00000000: d71f 463d e02d d93d e762 02bd 27e7 7ebc
00000010: e56e dabc c103 4cbd 9c65 053e f0f1 0b3c
