matchmaking_model.pth (torch, 29095 bytes, 6 tensors)

fc1.weight f4 [64, 31]
000000 5f 77 90 bd 42 eb 5d 3d 5c 29 7f bd 68 c4 86 3d
       -0.07054018 0.054179437 -0.062295303 0.0658043
000010 b7 b8 02 be 8d 52 25 be 98 a3 88 bd 32 db 0c be
       -0.12765776 -0.16144772 -0.06671828 -0.13755491
000020 40 ac f9 bd a5 56 bc 3d 50 68 2e 3d 13 44 08 3e
       -0.12191057 0.09196214 0.04257995 0.13307218
000030 46 7d 89 bb 84 be fc bd d0 3e 08 3c 5b 0a bd bc
       -0.004195842 -0.123410255 0.008315757 -0.023076227
000040 33 0a 6c b9 4d d7 24 bd ed c1 1e 3e f6 d3 19 3e
       -0.00022510513 -0.04024439 0.15503664 0.15022263
000050 44 53 57 bd ef 36 eb 3d 59 02 0f 3e 7a da 2d be
       -0.052569643 0.11485087 0.1396574 -0.16977873
000060 83 a1 dc bd db a8 c4 3d 63 fd 1c be 58 e8 40 3d
       -0.107729934 0.09602519 -0.15331034 0.04709658
000070 1e 7a 39 be fa d4 c9 bd 39 f1 b1 3d 99 e9 8c bd
       -0.1811299 -0.09855075 0.08688588 -0.06880493
000080 5a d9 ac 3d b1 55 bb bd ec 08 29 bc 0f 1e 05 be
       0.08439894 -0.09147204 -0.010317069 -0.12999748
000090 c4 75 37 3d 5a 07 10 be 42 97 e1 bc ba 8d 31 3d
       0.044790044 -0.14065304 -0.027537946 0.04334805
0000a0 40 28 9a bc 31 63 09 3e d5 d5 a8 bd 0b 51 cd bd
       -0.01881802 0.13416745 -0.0824391 -0.10025223
0000b0 c0 f4 2a bd 19 22 87 bd 85 24 0f be 66 19 64 3d
       -0.041737318 -0.065983005 -0.13978775 0.055688284
0000c0 1c 8f 22 3c 52 78 d5 3d 50 36 96 3c 3d d6 9c bd
       0.009921815 0.1042334 0.018336445 -0.0765805
0000d0 eb a5 e8 3d ef 7f 14 3e 1f 08 c6 bb 0d fa 56 bc
       0.11359771 0.14501928 -0.0060434486 -0.01312114
0000e0 21 60 0f be 5a 69 c3 bc a1 eb d3 bd cf 67 e8 3d
       -0.14001514 -0.023853946 -0.10347677 0.11347925
0000f0 7a 40 3e be 7d 9e 30 3d fe b0 70 3c 8c 53 54 bd
       -0.18579283 0.043119896 0.014690636 -0.05183749
000100 90 82 f2 3c 25 6b 05 3e a9 8f 97 bc 14 05 8a bd
       0.029603273 0.13029154 -0.01850112 -0.0673925
000110 a4 3f b4 3c b0 c1 d9 bd f1 a2 f9 bc 0d f1 74 bc
       0.022003002 -0.10632646 -0.030473204 -0.014950049
000120 b1 67 93 bd 14 cc 5a 3d 8b 9f 56 3e b3 c2 c2 3d
       -0.07197512 0.05341728 0.20959298 0.09509792
000130 67 ec aa bc b1 2f 1b 3e 38 cf c7 3c 17 85 61 bc
       -0.020864679 0.15154912 0.024390802 -0.013764641
000140 2e 67 f3 bd 96 3b b8 bd 62 66 03 3c 7e 6a 6f bd
       -0.11884914 -0.0899574 0.008020015 -0.05845117
000150 5a bc 05 3e 3c 19 45 bd 0b 61 57 3e a4 4a e6 bd
       0.13060132 -0.04811977 0.21033113 -0.11244705
000160 39 7a bd bd 6d 2c de 3d 51 a1 bf 3d 9f 15 2e 3e
       -0.09251828 0.10848317 0.093569405 0.17000435
000170 3f 9f 16 3e 35 44 db bd 78 41 92 3d 30 91 c3 bd
       0.14709185 -0.10706369 0.071413934 -0.09549177
000180 ae 8b 49 3e 57 65 47 bd 1a 60 20 be 01 a2 bd bd
       0.1968219 -0.04868063 -0.1566166 -0.092594154
000190 63 13 c5 bd c2 63 ab bc 0d 03 9a 3c 7b 4a a7 bc
       -0.09622838 -0.020921592 0.018800283 -0.020421257
0001a0 35 14 22 3e 87 3c fc 3d 96 56 e3 3d bf c4 13 3e
       0.15828021 0.12316232 0.11100499 0.14430521
0001b0 06 a0 14 be b4 6f 02 bb 53 a5 b4 bd 9a b1 48 bd
       -0.14514169 -0.0019903006 -0.088205956 -0.0489975
0001c0 3c 30 a4 bd 2e 4f aa bc 45 01 cc bd a2 44 2c 3d
       -0.080170125 -0.020789709 -0.0996118 0.04205764
0001d0 d9 b5 70 bd d4 8b 12 be b4 9a 1c 3e e7 50 80 3d
       -0.058767173 -0.14311153 0.1529339 0.06265431
0001e0 31 7b b3 3d 24 05 05 be be 32 f3 bd fc e2 98 3d
       0.08763731 -0.12990242 -0.11874913 0.07465169
0001f0 5e 22 15 bd 32 b2 26 bc 99 dc 11 be ef f8 c6 3d
       -0.03640973 -0.010174321 -0.14244308 0.09715449
000200 e7 a0 cf 3c c1 00 88 bd e0 45 b6 3d 49 33 a0 bd
       0.025345279 -0.06640769 0.08900046 -0.07822282
000210 44 7e a9 bd 09 c5 14 3e f5 54 fd 3d c9 5d 38 3e
       -0.082760364 0.14528288 0.1236972 0.18004526
000220 f4 aa 84 bd d7 6b a7 3c ef ab c8 bd 30 1f 6e bd
       -0.06477919 0.020437164 -0.09798419 -0.05813521
000230 5a 8d 51 3d 3c 98 04 3e 7d df ea bd 97 51 2d 3d
       0.051160194 0.12948698 -0.11468408 0.04231414
000240 62 4c d0 3d dc 6c 81 3d 15 1d 63 3e 10 4f 5f 3e
       0.10170819 0.063195914 0.22179063 0.21807504
000250 c0 5e d8 bc bb c3 dd 3d 0d 74 b1 3d 80 98 29 bc
       -0.026412368 0.10828348 0.08664713 -0.0103513
000260 bd ef 8b bd 56 c9 33 3d 7d 14 ed bd 48 4d 57 3e
       -0.06832836 0.04389318 -0.115761735 0.21025574
000270 1d 16 46 3c e2 fc c7 3d e1 2e 82 bc da 9a 25 3e
       0.012090233 0.097650304 -0.015891494 0.16172352
000280 b6 a5 83 3d 77 d4 ee 3c fd ae 39 3e c1 5b 13 3b
       0.06428091 0.029154046 0.18133159 0.002248511
000290 64 b0 32 bd 99 da 0d 3e d6 2c 54 3e 08 87 04 3e
       -0.04362525 0.1385292 0.20720229 0.12942135
0002a0 0d a9 1e 3e 4f 44 9d 3c 84 2b 61 3e 3a 1a 98 bb
       0.15494175 0.019197611 0.21989256 -0.0046417983
0002b0 8b 0c ea 3d d2 30 c8 bd 16 ce 37 3e 92 9b 8b 3d
       0.11428174 -0.09774937 0.1794971 0.06816782
0002c0 d1 80 1a 3d d0 35 9d bd c5 3c d5 bd d3 b6 17 bd
       0.037720505 -0.076762795 -0.104119815 -0.03703959
0002d0 00 6a 6f bd b0 0a 45 3e bb fe 89 bd 98 54 e4 3d
       -0.0584507 0.19242358 -0.06738039 0.111489475
0002e0 56 a2 10 3e 0b 4f b0 bc f7 d5 1d 3e 21 8b ac 3d
       0.14124426 -0.021522066 0.15413652 0.08424974
0002f0 62 af 3d 3e 0c c4 a4 3d a1 e9 95 3d e2 f7 45 3e
       0.18523934 0.080452055 0.07319952 0.19332841
000300 08 e8 5b 3d 2d 26 93 3d 10 6f ed 3d 39 19 ae bd
       0.05368808 0.07185016 0.11593449 -0.085009046
000310 df d6 8a 3d c0 99 1e 3e b2 3d e3 3d 01 98 02 3e
       0.06779265 0.15488338 0.11095752 0.12753297
000320 dc a3 d6 bd 37 77 4d 3e 0b d3 01 be 2e 2e 2e 3e
       -0.104804724 0.20065008 -0.12678163 0.17009804
000330 45 64 d5 3d 54 40 48 bd 00 92 c1 3d 39 a1 ed bd
       0.104195155 -0.048889473 0.094516754 -0.116030164
000340 91 44 b1 bd 65 d2 fc bc ec d5 13 3e 92 a9 c0 3d
       -0.08655656 -0.030862043 0.14437073 0.09407343
000350 ce 5c 1a be e0 9d 00 3e 7f 13 23 bd 03 49 89 bd
       -0.15074465 0.12560225 -0.039813515 -0.06703379
000360 cf eb 78 3d 85 ad b3 3d 06 51 f2 bd 44 5d 4a 3e
       0.06077176 0.087733306 -0.1183186 0.1976214
000370 78 b3 c4 ba 59 b6 d6 bd 40 e4 17 3e fa dd 49 3e
       -0.0015007099 -0.10483999 0.14833164 0.19713584
000380 80 af 04 3e 75 9d 7d 3d 42 ed 40 3d 10 29 24 3e
       0.12957573 0.06191774 0.047101267 0.16031289
000390 c8 d7 9d bd c6 8d c6 3d 51 10 b9 bd bd 75 e8 bd
       -0.07707173 0.0969501 -0.09036315 -0.11350582
0003a0 4a 26 06 be a1 ce db 3b b7 36 1f 3c 68 21 ee 3d
       -0.13100544 0.0067079817 0.009717635 0.116274655
0003b0 18 d2 02 be 84 f3 01 be ff 92 92 bc d9 d2 82 bc
       -0.12775457 -0.1269055 -0.017892359 -0.01596968
0003c0 4c 0e 47 3e f2 d9 42 3e c9 c8 d5 bd b9 43 e5 bd
       0.19439048 0.19028452 -0.10438687 -0.11194558
0003d0 7d 49 98 bd 84 72 0f 3e 2d 4e 60 3e 7a 73 5b bd
       -0.07435892 0.14008528 0.21904822 -0.053576924
0003e0 b4 dc 0a 3e 2b 92 e7 bd 14 c8 b2 bd 94 db 0d be
       0.13560754 -0.11307176 -0.08729568 -0.13853294
0003f0 08 6b a8 3d 49 35 07 3e 6d bc 1f be ad 75 16 3e
       0.082235396 0.1320392 -0.15599222 0.14693327

fc1.bias f4 [64]
000000 b8 48 98 3d b8 1b 3b be 7c 53 1b 3e 3e 56 45 bd
       0.07435745 -0.18272293 0.15168566 -0.04817795
000010 12 ff 9f 3d 62 17 a2 3c b7 e1 27 bd 89 67 36 3d
       0.07812323 0.01978654 -0.040986743 0.044532333
000020 56 61 ce 3d f1 61 87 bd 3f ae d6 bd aa 63 cf bd
       0.10077159 -0.06610478 -0.104824536 -0.10126431
000030 e8 aa 82 3d 9d 0a 0c 3e 8c 16 f6 3d 3e 03 4e 3e
       0.06380254 0.13675924 0.12016019 0.20118424
000040 68 bf 2d bd f0 5b 94 bd bd 5e 0b be 52 eb 14 3e
       -0.042418867 -0.07244098 -0.13610359 0.14542893
000050 d8 18 47 3e 60 f8 e6 bd fe 07 52 3e 2c 6a 60 bd
       0.19443071 -0.112778425 0.20510861 -0.054788753
000060 f6 09 ad bd bb 85 2e 3d 10 91 66 bd 21 d0 09 be
       -0.084491655 0.042608004 -0.056290686 -0.13458301
000070 98 d2 ea bd e8 3b db bd ca 0a 3a bd 7f 24 c8 3d
       -0.11465949 -0.107047856 -0.045420446 0.09772586
000080 01 38 44 bc 08 fd f4 bc f5 49 da bc d0 2c 14 3d
       -0.011976243 -0.029905811 -0.026646594 0.03617555
000090 87 23 5b 3d 23 47 d6 3d 05 6e c4 bd 19 41 5a bd
       0.05350068 0.10462787 -0.09591297 -0.05328474
0000a0 d7 dc ce bd 71 26 4d 3d 5f 0e e4 bc f3 78 87 3d
       -0.101007156 0.05008549 -0.027838884 0.06614866
0000b0 ba c6 4e 3e 9f 93 b5 3c a5 f1 11 be c1 ca 3e 3e
       0.20192996 0.022165118 -0.14252336 0.18632032
0000c0 2b 2e 47 bd e1 48 2a bb b4 9b 17 bd 70 e3 11 3e
       -0.048628014 -0.002598338 -0.037013724 0.14246917
0000d0 50 c9 f5 3d c7 fb 37 3e 83 1d fb bd 82 f4 e7 bd
       0.12001288 0.17967139 -0.12261488 -0.11325933
0000e0 14 a8 52 3d c1 f4 1a 3e d2 f6 1a be 14 bd b1 bd
       0.051429823 0.15132429 -0.15133217 -0.08678642
0000f0 13 d9 e5 3d de a4 6f bd 98 07 0c 3e 39 76 15 3e
       0.11223044 -0.05850684 0.13674772 0.1459588

fc2.weight f4 [64, 64]
000000 c2 fd 4e 3d 9b 76 8e 3d 82 82 48 bc 15 b6 47 bc
       0.05053497 0.06956216 -0.012238147 -0.012189408
000010 06 4a 82 3d d6 d5 48 bb 30 8c 0a 3e 53 f3 5e bd
       0.06361775 -0.0030645034 0.1353004 -0.05443127
000020 f2 b3 28 bc 25 d3 cf 3d e8 67 f9 3c ae 23 08 3c
       -0.010296809 0.101476945 0.030445054 0.008309288
000030 16 2d 82 3c 80 e7 63 3d 61 37 ed bd 86 32 1e 3e
       0.01589064 0.055640697 -0.11582828 0.1544896
000040 1f 71 5a bd 16 dc f7 3d b6 9d 24 3d 45 2a 78 bc
       -0.053330537 0.12102525 0.040189467 -0.015146797
000050 b9 5f e7 3d bb f4 2f 3b 2b be 4c bd 44 31 e6 3d
       0.112975545 0.0026848752 -0.049986046 0.112398654
000060 95 ac 13 3e e6 70 0c bc 84 bd 16 bd 00 8f f9 3d
       0.14421304 -0.008571839 -0.03680183 0.12185478
000070 14 35 4f 3d 58 a4 ba bd 8f df 88 3c ff a4 bc bd
       0.05058773 -0.09113377 0.016708164 -0.09211158
000080 3c 33 0b 3d 92 e0 6c bd df 57 ec 3d bb 4a ba bd
       0.033984408 -0.057831354 0.115401976 -0.09096285
000090 22 72 60 bd e0 79 1a 3e de ee 93 bd 26 7e f8 3d
       -0.054796346 0.15085554 -0.07223295 0.12133436
0000a0 b2 36 11 3c f3 c1 fe 3c 66 79 18 3c a9 1b 35 bd
       0.008863138 0.031098342 0.009306287 -0.044215832
0000b0 99 a7 08 3e 3d ef f6 3d f9 66 0d 3e c1 81 ec 3d
       0.13345183 0.1205735 0.13808812 0.11548186
0000c0 35 79 0a bd a0 8b 7d bd e7 79 86 bc ff 5a 12 bd
       -0.033807 -0.061900735 -0.01641555 -0.035731312
0000d0 4d 4f 3d bd e9 70 0e 3e b7 cc 9b bd 2f a1 7a bd
       -0.046218205 0.1391026 -0.07607406 -0.061188873
0000e0 70 2b e0 bc ae 79 12 3e e3 1d 34 3d a4 f9 2e 3d
       -0.027364463 0.1430423 0.043973815 0.042718545
0000f0 4c 93 07 3d c0 8f e9 3d 65 66 94 bd 7e 80 99 3d
       0.033099458 0.11404371 -0.07246093 0.07495211
000100 5a c7 06 3d 04 23 20 bd 51 96 cb 3c f1 da 58 3d
       0.03290496 -0.039095894 0.02485195 0.052943174
000110 35 c7 b5 3d de f7 81 3c b5 86 ad bd 2d ac 9a 3d
       0.08875886 0.015865263 -0.08472959 0.07552371
000120 66 d9 02 3e d2 17 3f bd e1 cf 22 3e 65 34 e3 bc
       0.12778243 -0.046653576 0.15899612 -0.027734945
000130 7b cf 96 ba 71 b7 dd 3d 9e 7a 32 be 31 c1 e0 3d
       -0.0011505926 0.10826004 -0.17429587 0.10974348
000140 7f 14 01 3b 99 23 0e 3e a2 1a ad bb db 29 88 bc
       0.0019696055 0.13880767 -0.005282716 -0.01662152
000150 02 69 7b bd 08 51 b6 bd 6b 90 9d 3c 54 58 0b 3e
       -0.06137944 -0.08902174 0.019233903 0.13607913
000160 48 5a cb bd e7 e1 07 bc 47 66 6d bd d0 13 34 3d
       -0.09929329 -0.008293605 -0.057958867 0.043964207
000170 79 6e 4e bd eb eb b4 3d c2 86 00 3e f2 a7 58 3d
       -0.050398324 0.0883406 0.12551406 0.05289454
000180 3c 17 e7 3d 66 6f 65 bd 8b 7d 02 3d 4a 80 6f 3d
       0.112837285 -0.05601444 0.03185801 0.058471955
000190 33 c9 d4 3d c6 54 20 3e c8 62 a3 bd 45 fc 2a 3d
       0.10389938 0.15657339 -0.079778254 0.04174449
0001a0 23 6d 85 bd f6 2f 1f bd 8a ef 02 bb 35 68 20 3d
       -0.06514957 -0.0388641 -0.0019979202 0.03916188
0001b0 b9 e8 3d 3d c4 91 bc 3d a4 1a 4f 3d 45 27 9b 3d
       0.04636452 0.0920749 0.050562516 0.075758494
0001c0 ff e7 8f 3d 6b c0 90 3d 1a 8e 10 3d 78 ef 13 3e
       0.070266716 0.07067951 0.03529177 0.14446819
0001d0 b0 77 77 3d fb ae cf 3d c7 55 98 bd f1 f2 17 3d
       0.060416877 0.10140797 -0.07438236 0.03709692
0001e0 90 10 26 3e b0 0b 83 3a 1c c4 c9 3d 1f a6 97 3d
       0.16217256 0.000999799 0.09851858 0.07404732
0001f0 2d 56 96 bb 0c 11 0f be 17 5f 05 3e d2 c7 06 3e
       -0.0045879097 -0.13971347 0.13024555 0.13162163
000200 de ab ca bd 26 a4 5b bd 49 88 02 3e e5 29 3a 3d
       -0.09896062 -0.05362334 0.12747301 0.04545011
000210 02 29 cf 3d 15 47 01 bd 8c 81 29 bd 31 c0 ef 3d
       0.101152435 -0.03156193 -0.04138331 0.117065795
000220 80 df dc 3d 1d 70 14 3d 78 66 20 bc 43 5e 5c bd
       0.10784817 0.036239732 -0.009790055 -0.053800832
000230 17 51 ed 3d 4b 5f bf bc 10 3c 24 be 5e 05 3e bd
       0.11587732 -0.023360869 -0.16038537 -0.046391837
000240 52 fd 16 3e 9a 69 d1 3d 60 68 ab 3d 9b a0 6d bd
       0.14745072 0.1022522 0.08369517 -0.058014493
000250 b7 8a b1 bc 21 0d a1 bd d5 fe e0 3d 33 38 9c bc
       -0.02167259 -0.07863832 0.10986105 -0.019069767
000260 22 13 ef bc 92 e3 fc 3d 05 69 91 bc c1 d1 cb bc
       -0.029183928 0.12348093 -0.017750273 -0.024880292
000270 42 b8 e8 bd 31 6a 43 bd c2 e8 10 bd eb 54 19 be
       -0.113632694 -0.047708694 -0.035378225 -0.149738
000280 25 5c c5 3c 2d f6 f8 bc f8 a5 da 3d e0 be 16 3e
       0.02409179 -0.030390823 0.10676187 0.1472125
000290 c7 22 ec bc 88 ef 6b bd d2 77 dd 3c 4b 9c c3 bd
       -0.028825177 -0.05760148 0.027034674 -0.09551295
0002a0 4f 7d 80 bd 76 42 a7 3d 78 35 c0 3c f1 9c bd 3d
       -0.06273901 0.08166973 0.023462996 0.0925845
0002b0 a8 83 9f bd 35 c2 8c bd 12 c5 87 bd 4b 32 ce bd
       -0.07788783 -0.068729796 -0.06629385 -0.10068186
0002c0 5f 86 6e 3c f1 71 5e 3d 9a 97 8e 3a 1c 98 7a 3d
       0.014558404 0.05430788 0.0010878921 0.06118022
0002d0 21 7f b7 bd 53 43 20 3d 1b 1a 34 bc 5e 0d 01 bd
       -0.08959795 0.039126705 -0.010992552 -0.03150689
0002e0 bf 71 cf bd 78 9c a8 bd a0 00 c3 3d 41 80 4d 3d
       -0.10129117 -0.08232969 0.095216036 0.05017114
0002f0 da 4a 30 3d a9 c2 21 be 6d 5d 45 bc 99 da a1 bd
       0.043040134 -0.15796913 -0.0120462 -0.07903022
000300 80 61 23 3e 69 56 f4 bb 96 e5 1f 3e 4c 6a c7 bd
       0.15955162 -0.00745659 0.15614924 -0.097370714
000310 48 a5 03 3e 68 51 8e 3c 71 9c 86 3d 9a 58 0c 3e
       0.12856019 0.017372802 0.065728076 0.13705674
000320 76 ae 0e bd 96 65 a7 3d 39 c3 ba bd 8a 7a 19 3e
       -0.034834348 0.08173673 -0.09119267 0.14988151
000330 e1 72 b2 bb c3 25 42 bd 19 76 5b bd 6c 8e d9 3d
       -0.0054458235 -0.047399294 -0.053579424 0.10622868
000340 56 f0 18 3e 82 31 28 3e d7 f5 cd bc 4d 96 1d 3d
       0.14935431 0.16425136 -0.02514164 0.038473416
000350 6b e1 56 3d 0f ad 0c 3e 62 98 01 3d 78 db 2a 3e
       0.05246107 0.13737892 0.031639464 0.16685283
000360 07 78 47 3d d2 2e d5 3d 9c a5 f6 3d e9 40 05 3d
       0.04869845 0.10409321 0.12043306 0.032532606
000370 3e 73 18 be 6f 1c 5b 3c bf 5a b3 bc ae b6 1e bd
       -0.14887711 0.013373478 -0.021893857 -0.038748436
000380 a4 3a 62 3d 47 b3 2e 3d 0b b9 c4 3c 02 9d 22 3e
       0.055231705 0.04265144 0.024014017 0.15880206
000390 c1 98 53 3d e1 91 f5 bc b9 7e 71 bc 74 5b 29 3e
       0.05165935 -0.029976787 -0.014739686 0.16538793
0003a0 29 a7 66 3d d1 36 cf bc e3 2b a2 bc d6 6c ac bc
       0.05631176 -0.025294693 -0.019796317 -0.02104799
0003b0 17 18 df 3d 17 08 4f bd 51 6d a1 3d 6b 02 5b 3c
       0.10893267 -0.050544824 0.078821786 0.013367276
0003c0 a2 f0 cd 3d 5a ee 20 3e 0e 82 17 3d 47 af 19 be
       0.10055663 0.15715924 0.036989264 -0.15008269
0003d0 54 1c 9f bd c3 d8 87 3d 41 cb ed 3c 59 86 0a 3d
       -0.07769075 0.06633141 0.029027583 0.03381953
0003e0 4f 3c 65 3d 9a 92 f9 3d 42 f4 00 3d a0 4e ac 3c
       0.055965718 0.12186165 0.031482942 0.021033585
0003f0 08 a3 9d bc b0 0b 4e 3d 01 7a 91 3d 51 56 94 bd
       -0.019242778 0.050304115 0.071033485 -0.07243026

fc2.bias f4 [64]
000000 ab de c6 3c ef 88 a7 bd 7b 01 db 3d 2a 83 c2 3d
       0.024276098 -0.08180415 0.10693642 0.09497674
000010 b6 3f ae 3d 66 8b 4b bc 3b e2 d5 3d de be 53 bd
       0.08508246 -0.012423372 0.10443541 -0.051695697
000020 a1 17 84 bd 64 ce 66 3c ec 84 c6 3d 3c d8 54 bd
       -0.06449819 0.014087293 0.096933216 -0.05196403
000030 f4 2c 09 3e 86 9b cf 3d cc ba d1 3d 78 f6 6f 3d
       0.13396055 0.101370856 0.10240707 0.05858466
000040 7e 60 83 3d 0b d4 f0 3c 9a d5 25 3d df 79 e5 3d
       0.06414889 0.029397985 0.04048691 0.11204886
000050 fc 17 64 bd 9f 8d a0 3c 1b c0 c3 bd 0c 40 3c bd
       -0.055686936 0.01959878 -0.095581256 -0.045959517
000060 0f 3b 96 bd 09 09 a1 bc 69 11 64 bd 61 d5 a5 bd
       -0.07335483 -0.019657629 -0.055680666 -0.080973394
000070 dc 54 f6 bc b1 fa 69 3d 19 43 a7 bd 79 e8 ed bc
       -0.030069761 0.057123844 -0.08167095 -0.029041516
000080 be 95 90 3d 97 a2 f7 3c 0c 62 ca bd 1a eb 58 3d
       0.07059811 0.030228896 -0.09881982 0.052958585
000090 f1 a1 2f bc 55 b0 36 bc 0e c0 ea bd ff f5 d9 bd
       -0.010719762 -0.011150439 -0.11462413 -0.10642623
0000a0 df 0d 06 3e 55 39 71 bd 23 4a d4 bd 76 d4 14 be
       0.13091229 -0.058892567 -0.10365703 -0.14534172
0000b0 f8 9c e1 3d d5 75 1a 3e 2e b4 5e 3d e8 b2 d1 bc
       0.110162675 0.15084012 0.05437105 -0.025598004
0000c0 32 08 fb 3d 0a 17 b8 bc b0 29 12 3e e3 af 12 bd
       0.122574225 -0.022471923 0.14273715 -0.03581227
0000d0 d8 14 a5 bc 60 76 0c 3e ad 34 a2 3d 7d 65 07 be
       -0.02015154 0.13717031 0.07920203 -0.13222308
0000e0 1f 41 9f bc bf 3c f1 3b 3a 46 cb 3c 94 97 98 bd
       -0.019440232 0.007361978 0.02481376 -0.07450786
0000f0 94 02 8e 3d ff c0 e3 bd 1b eb b7 bc e2 6a 1f 3e
       0.069340855 -0.111207955 -0.022450974 0.15568116

fc3.weight f4 [8, 64]
000000 60 b5 8c bb 5e 49 42 3d 70 0e 84 3d e1 a9 d6 bc
       -0.0042940825 0.04743325 0.06448066 -0.026204051
000010 ea ae 87 bd 39 73 88 3d c0 c3 c0 3d 84 43 e9 3d
       -0.06625159 0.06662602 0.09412336 0.11389831
000020 dc b9 1b 3d d0 03 48 3d 3e b6 c5 3d 53 c0 85 3d
       0.038019046 0.04883176 0.096539006 0.065308236
000030 89 ad 62 3d a2 5d c5 bd fd d8 c8 bd e7 34 da 3c
       0.055341277 -0.09637 -0.09807012 0.026636554
000040 08 82 75 bd 19 e0 71 3c 0b 63 12 3c d1 bf c1 3d
       -0.05993846 0.014762902 0.0089347465 0.09460414
000050 d4 99 6b 3d a7 2e 0f 3e be ab c9 bd 28 be 33 3d
       0.05751975 0.1398264 -0.0984721 0.04388252
000060 45 78 3e 3d 3f ea b2 3d f1 ee a1 bb 73 37 a7 bd
       0.046501417 0.08736085 -0.004941814 -0.08164873
000070 0a 8c fe 3d c7 15 4b bc c9 74 09 3e 08 4f 22 3e
       0.12429054 -0.012395329 0.13423456 0.1585046
000080 36 f5 d1 3d e0 f4 c7 bd a5 0f bf bd 46 9e 9c bc
       0.102518484 -0.09763503 -0.09329156 -0.01911844
000090 a5 94 47 bd 2c cd 6b bd 86 21 2b bd af c2 a1 3d
       -0.048725743 -0.057568714 -0.041780017 0.07898461
0000a0 b3 d6 16 bc 81 d0 74 bb a4 2f de 3d 4e af 6a bd
       -0.009206462 -0.0037355723 0.108489305 -0.05729609
0000b0 d8 d4 6b 3c 33 2d c6 3c 4e a3 fe bb db 98 20 bd
       0.014394008 0.024191475 -0.0077709323 -0.039208274
0000c0 9a 43 85 bd d0 16 d4 3d 46 11 1f 3e 71 2a 83 bb
       -0.065070346 0.10355914 0.15533933 -0.004002862
0000d0 6d c0 88 bb 18 83 21 3e d3 51 a0 3d ff 9d 86 3d
       -0.0041733296 0.15772665 0.07828107 0.06573104
0000e0 19 29 4b 3d 39 f5 60 3d 31 54 1f 3e e3 8b 4b ba
       0.04959974 0.054921363 0.1555946 -0.000776468
0000f0 ad eb b6 ba 94 15 b2 3d a7 82 20 3e 07 5a 75 3c
       -0.0013955735 0.08695522 0.1567484 0.0149750775
000100 75 b7 11 3e 54 2f 19 3e 37 f4 a0 3d 3d f5 15 3e
       0.1423014 0.1495946 0.0785908 0.14644332
000110 d1 2f a1 bd a5 55 23 3e 59 a1 ac 3d e8 34 bd bb
       -0.078704484 0.1595064 0.08429212 -0.005774129
000120 ff ef 0c bd d8 f4 04 3e e1 49 9d 3d e4 1f c1 bc
       -0.034408566 0.12984025 0.07680107 -0.023574777
000130 30 70 12 3b 7a 6f 2f bd 05 23 a9 bd b2 31 7c bd
       0.00223447 -0.04283092 -0.082586326 -0.06157083
000140 36 dc 3a be 45 d6 d5 3d f0 b4 c3 3d 29 63 a2 bc
       -0.18248066 0.10441259 0.095559955 -0.019822674
000150 6f 75 ad bd 66 cb a3 bd 94 a7 15 bd cf 71 90 3d
       -0.08469664 -0.079977795 -0.036536768 0.07052957
000160 17 06 a4 3d 2c cd b8 bc 35 5b 02 bd c0 f5 aa 3c
       0.08008974 -0.022558771 -0.031825263 0.020869136
000170 e6 e0 21 3e 03 f2 c9 3d 9f 60 18 bd f0 69 7c 3d
       0.15808448 0.09860613 -0.03720152 0.061624467
000180 48 9b 86 bd fd fb ba 3d b9 05 98 bd e9 db 6b bc
       -0.06572586 0.09130094 -0.074229665 -0.014395692
000190 61 a9 c2 ba b0 6b 30 bd 1b 31 0f 3e b0 b8 71 bd
       -0.0014851504 -0.04307145 0.13983576 -0.059014022
0001a0 a7 12 e5 3c aa 6c 69 3d b1 b0 2f bc 31 d0 15 bd
       0.027962996 0.056988396 -0.010723279 -0.0365755
0001b0 39 11 9e bd 95 6b 42 3c 5b f3 f0 3b 19 8f 9a 3d
       -0.07718129 0.01186647 0.007353229 0.07546825
0001c0 5e ad 44 bd f5 62 61 3d ee 66 d9 3c 80 fd 64 3c
       -0.0480169 0.055026013 0.026538339 0.013976455
0001d0 e9 6b 7f 3d ee 3a 0a 3e be 3b 02 3e 62 ad 93 bd
       0.06235877 0.13499042 0.12718102 -0.072108045
0001e0 90 de 8d bd 15 4e 6b 3c a9 6b 0d 3e 5a 23 0b bc
       -0.06927216 0.014361878 0.138106 -0.008492315
0001f0 c9 bd aa 3d 8c c6 ac bd 87 48 80 3d 0b 35 40 3d
       0.0833698 -0.08436307 0.062638335 0.046925586
000200 76 34 a7 3c a7 c7 0c 3e 82 af 3a 3d 2f 8a 5b bd
       0.020410758 0.13748036 0.045577534 -0.05359858
000210 22 ad a3 3d 4d 1f 53 3d e8 75 f3 bc 08 bc 00 bd
       0.07992007 0.051543523 -0.029719308 -0.03142932
000220 2a 6b dc bc 4f 29 1d 3e e6 76 da 3a 4a e9 cf 3d
       -0.026906569 0.15347789 0.0016667515 0.10151918
000230 8d 42 1d 3e 69 18 17 3e 46 b0 bd 3d ab a5 2c 3d
       0.15357418 0.14755405 0.09262137 0.04215018
000240 6b 4a 1d bd db ee 29 bd 27 62 ba bd bf 45 c9 bc
       -0.03840105 -0.041487556 -0.09100752 -0.02456939
000250 9c 81 02 3e 15 50 16 bd ce 9c 26 bd f0 a9 d8 ba
       0.12744755 -0.036697466 -0.040676884 -0.0016530138
000260 53 d6 0a 3d 5f 44 a1 bd 92 43 1b 3e 28 99 f7 3d
       0.0338958 -0.07874369 0.15162495 0.12089759
000270 7b bb f9 3d 0b 53 0a 3e 9b dd 0e 3e d0 41 b2 3c
       0.12193962 0.13508241 0.13951723 0.021759897
000280 dc e1 25 bc 30 45 68 bd 2b 63 3b bd 00 29 0b 3e
       -0.01012465 -0.056706607 -0.04574887 0.13589859
000290 e6 1a 9a bd 66 68 07 3e ed b3 4b 3d 0f 05 b4 3d
       -0.07524662 0.13223419 0.049732137 0.08790027
0002a0 c9 4f 94 3d ef fe a4 3d b8 2d b9 3d 82 7f bc 3d
       0.0724178 0.08056437 0.09041923 0.09204008
0002b0 4d 78 ea bc a9 e0 80 3d 6f 1c 22 3d 7c a0 35 bd
       -0.028621817 0.062928505 0.039577898 -0.044342503
0002c0 46 1b 05 be 39 b0 00 3e 44 be 21 3e 50 18 03 3e
       -0.12998685 0.12567224 0.15795237 0.12802243
0002d0 a3 c9 8a 3d 84 47 17 3d 85 4f fa bc 39 3f 90 bc
       0.067767404 0.036933437 -0.030555496 -0.017608272
0002e0 d9 b1 98 3c 5b a2 17 3d e1 f9 bc 3d 7c 6f 2c 3d
       0.018639492 0.03702007 0.09227348 0.042098507
0002f0 0d 2f b8 bd 5c 8c a3 bd 7d 17 10 3e 2a 6f e8 3c
       -0.08993349 -0.07985756 0.1407146 0.02837332
000300 16 84 19 3e 01 08 28 3a 52 c7 c3 bd b4 cf 63 bd
       0.14991793 0.0006409884 -0.09559502 -0.055618003
000310 1c 59 05 3d 01 0e ed bd 36 cb 5c bb c2 15 1b bd
       0.032555684 -0.11574937 -0.003369046 -0.037862547
000320 94 51 d9 bc c5 97 ea 3d 2d 2f e4 3d d7 a2 fe 3d
       -0.026528157 0.11454729 0.111418106 0.12433403
000330 4f 5b 31 3d 52 81 12 bd 8c 6d d3 3c df fa a9 3d
       0.04329997 -0.03576786 0.025809072 0.08299803
000340 56 81 a0 bd 66 4b 95 3d 5a 4b 0a 3e 01 29 eb 3c
       -0.07837169 0.07289772 0.13505307 0.028706076
000350 cb ee 88 3d 99 b4 a8 bc 7b 51 b7 bd c2 ab 9e 3d
       0.06686171 -0.020593928 -0.08951088 0.07747604
000360 46 fb fc bc 10 45 ad 3d 20 6c 8a bd d7 e8 09 3e
       -0.030881535 0.08460438 -0.067589045 0.13467728
000370 10 13 11 3e b8 9a c4 3d c8 d3 aa 3d 9c d5 19 3e
       0.14167428 0.09599823 0.08341175 0.15022892
000380 6c 5e 99 bd bc 07 c1 bd 8d cf 88 3d 62 fe a5 3d
       -0.07488713 -0.09425303 0.06680212 0.0810516
000390 11 bf 99 3b 8d cd 1a 3c 73 98 ae bd 82 98 c0 bd
       0.0046919663 0.009448421 -0.08525171 -0.094040886
0003a0 34 5c bb 3d 7f 5d cd bc 85 fb a7 bd ab eb 72 bd
       0.09148446 -0.025068996 -0.082022704 -0.05930678
0003b0 a5 f0 c4 bd 55 70 60 3d ff db 96 bb 69 b2 46 3d
       -0.09616212 0.05479463 -0.0046038623 0.04850999
0003c0 5d fc 92 bd 55 d3 9c 3d d8 d2 14 3e 0c bc 45 bd
       -0.07177041 0.07657496 0.14533556 -0.04827504
0003d0 4f f9 cf 3d 33 61 fc bc 41 30 2c bd 06 bf 3e 3d
       0.10154974 -0.030808067 -0.042038206 0.046568893
0003e0 b6 2d a7 bd 30 dd 03 bd 55 1f 8c 3d ca 35 1a 3e
       -0.081630155 -0.032193363 0.068419136 0.15059581
0003f0 57 f1 71 3d 62 7b 42 3d c4 38 12 3e b9 7d 99 bd
       0.05906805 0.04748095 0.14279467 -0.07494683

fc3.bias f4 [8]
000000 28 6d 81 3d ef 42 0c bc 08 fd 04 3e df 68 e8 3d
       0.06319648 -0.00856088 0.12987149 0.113481276
000010 0f a1 95 3c a0 b5 20 bd f6 9a 20 bd ac 63 3c bd
       0.018265275 -0.03923571 -0.039210282 -0.045993492
