matchmaking_model.pth (torch, 29095 bytes, 6 tensors)

fc1.weight f4 [64, 31]
000000 3f 7a 9d bc 81 72 0d 3d 18 7d 1e 3e 29 a4 20 be
       -0.01922333 0.034533028 0.15477407 -0.15687622
000010 d7 d1 36 3e 02 72 11 be 06 9d 6b bd 42 30 d9 3d
       0.17853485 -0.14203647 -0.057522796 0.106049076
000020 f6 20 84 bd f6 54 1e bd 57 ac 0a bd 8c 0a 13 ba
       -0.06451599 -0.038655244 -0.033855762 -0.00056091766
000030 dc 90 71 bd 71 52 24 bd c4 98 e2 bd c5 97 d9 3d
       -0.05897604 -0.040117685 -0.11064294 0.10624651
000040 d6 0f 02 be e6 07 1b 3d ee 6d 33 bd 68 8e e9 bc
       -0.12701353 0.03784933 -0.04380601 -0.028510287
000050 db 58 76 bd 42 2d d0 3d e6 06 08 be e7 ea d7 3d
       -0.060143333 0.10164882 -0.13283882 0.10542851
000060 ad d7 06 3e 1e 9e f3 bd f8 06 99 3d 93 c4 88 bc
       0.13168211 -0.11895393 0.07472032 -0.016695296
000070 60 7a b8 3d c5 ac 1e 3e 6c 00 c3 bd 2a 62 07 3d
       0.09007716 0.15495594 -0.09521565 0.0330526
000080 cf 91 5b bd 48 ce fa bd a0 e4 1b 3e ac 57 f0 3d
       -0.05360585 -0.12246376 0.15223932 0.11735472
000090 6c a2 86 bd 35 da c4 3d 30 aa fd 3c c9 24 34 be
       -0.06573948 0.09611932 0.03096494 -0.17592157
0000a0 c5 fb 0d 3e 5a c3 fc bd b4 0f 00 be 41 da ca 3d
       0.13865574 -0.12341948 -0.1250599 0.0990491
0000b0 23 06 f2 3d 84 38 ca bd bb 10 eb 3d f8 b3 d6 3d
       0.11817577 -0.09874061 0.114778005 0.10483545
0000c0 f7 12 5f 3c 33 d0 0e 3e d3 cf f3 bd 04 2b c6 bd
       0.013615361 0.13946609 -0.11904874 -0.09676173
0000d0 a3 8b f8 bd a5 b5 7c bd 60 92 a7 3d d1 53 33 3d
       -0.121360086 -0.061696667 0.08182216 0.043781105
0000e0 62 08 23 3e 24 f1 ad 3d 9b 6a 9f 3d e8 c0 14 3e
       0.15921167 0.084932595 0.07784005 0.14526713
0000f0 ae 46 17 bd 5f 33 9c 3d 61 d5 84 3c 5e 03 0c 3e
       -0.03693264 0.07626986 0.016215028 0.1367316
000100 c3 3f 2d 3e 2b ab 29 3e f0 5b b6 3d 23 f0 1b bc
       0.16918854 0.16569202 0.089042544 -0.009517702
000110 64 46 c0 3d 2e fb 32 3c 21 70 d6 3d 4a 76 43 3b
       0.09388426 0.010924144 0.10470606 0.0029825144
000120 e0 b2 c0 bd b0 36 a1 3d 6d 28 ff bd d8 ea 47 3d
       -0.09409118 0.07871759 -0.124588825 0.04880795
000130 1a c2 62 bd 74 ba 26 3e 59 86 fd bd f0 9e 13 3c
       -0.05536089 0.16282064 -0.123791404 0.009010062
000140 59 b6 83 bc eb 59 ac bd 0c 72 34 3e 7d 9c f8 3d
       -0.016078161 -0.08415588 0.1762163 0.12139223
000150 99 d5 b9 bb 62 4e 11 bd ba 98 9a 3d c1 7b 9a bd
       -0.005671215 -0.035475142 0.075486615 -0.075431354
000160 ce a3 8d 3d 02 a7 4d 3b 3f b7 84 bc df 3a eb bc
       0.06916009 0.0031380062 -0.01620066 -0.028714595
000170 ea b1 f6 3d cd 2f bb bd 18 62 5d 3e f5 86 49 3e
       0.12045653 -0.09139977 0.21619451 0.19680388
000180 bc 12 00 3e 98 85 55 3e d6 b7 8a bd 72 00 e0 3d
       0.12507147 0.20851743 -0.06773345 0.10937585
000190 ef 1d 3c 3e 37 f9 ac bd aa f7 25 3e 1a ad 5b 3e
       0.18370794 -0.084459715 0.16207758 0.21452752
0001a0 2e 1f 01 3e fe 79 36 3e e6 1e e7 3d 76 b3 ae bd
       0.1260955 0.17819974 0.1128519 -0.08530323
0001b0 6f 1f d6 3d 30 a5 08 bc 8b f0 03 3e 40 e0 bb bd
       0.10455214 -0.008340165 0.12884729 -0.09173632
0001c0 3f d9 9e 3d 92 a9 9e bd 7c 59 8d bd d2 49 81 3d
       0.0775628 -0.07747187 -0.069018334 0.06312908
0001d0 54 27 47 3d c3 44 82 bd 31 c2 09 be ac 2d 13 3e
       0.04862149 -0.063607715 -0.13452984 0.14372891
0001e0 60 53 57 3e 27 00 05 bd 63 9c d8 bd df af 1c 3e
       0.21027899 -0.03247085 -0.105767034 0.15301464
0001f0 23 7d 44 3e 83 7f c8 3d 3a b9 c4 bd da 92 f1 bd
       0.19188361 0.09789946 -0.09605642 -0.11795588
000200 3a 84 88 3d 9c 20 85 bd 58 49 46 3c b7 9e 40 3e
       0.06665845 -0.0650036 0.012102447 0.18810545
000210 87 fe 1f 3e ca ff 33 3e a1 40 44 3e 87 d2 ac bd
       0.15624438 0.17578045 0.19165279 -0.084385924
000220 1f 6c 01 be 91 b3 43 3d 3a 49 b9 3d a4 43 69 bd
       -0.12638901 0.04777867 0.0904717 -0.056949273
000230 d2 ce a5 3d 23 0a 38 be bc ea 90 bd 76 da c8 3d
       0.080960885 -0.17972617 -0.07076022 0.09807293
000240 38 be 4c 39 a8 a9 d1 3d e8 59 dd bd 52 20 8c bd
       0.00019525818 0.102374375 -0.10808164 -0.06842102
000250 e2 98 ea bd 46 74 2c be 43 93 08 3e 01 ce 6d bd
       -0.11454941 -0.1684123 0.13337426 -0.05805779
000260 d4 b7 79 bd bc 1d 87 3d 4e 8c 91 bb 8d fc 3c 3e
       -0.060966328 0.06597468 -0.0044417745 0.18455715
000270 d8 98 7b 3d 96 4b 48 bd 3f 74 78 bd ef 03 80 3d
       0.06142506 -0.04890021 -0.060657736 0.0625075
000280 69 ba e8 3c 87 08 66 3d 45 d8 cf bd 97 76 e3 bd
       0.0284092 0.056160476 -0.10148672 -0.111066036
000290 5f d2 57 bd c7 3d 54 3e 0d aa 5d 3e 8b 60 60 3e
       -0.05269086 0.20726691 0.216469 0.21911828
0002a0 58 9e ec 3d 88 2f 1a 3e b8 88 15 3c c7 d6 0b bd
       0.11553639 0.15057194 0.009126835 -0.034140375
0002b0 c1 46 9a 3d 4d 9e a6 3a 58 af 46 3e fa b0 42 bd
       0.075330265 0.0012711972 0.19402826 -0.04753206
0002c0 4e 88 3f 3e 73 7a 0c 3d 39 ac 0e 3d e6 73 13 3e
       0.1870434 0.034296464 0.034832213 0.1439968
0002d0 e6 f9 d1 3b f1 81 66 3e bb 2f ec 3d 0e 1a 75 bd
       0.006407964 0.22510506 0.11532541 -0.0598393
0002e0 3a 28 cf bc 9d 00 09 3d f8 e1 06 3e 03 63 5c 3d
       -0.025287736 0.03344785 0.13172138 0.053805362
0002f0 f4 ad 10 3e b3 33 23 3d c3 5f ef 3d 93 98 37 3e
       0.14128858 0.039844226 0.11688187 0.17929296
000300 13 f4 14 3d 1f 6b fc bd 63 99 0f 3e 16 ae 47 3e
       0.03636558 -0.12325119 0.14023356 0.19500002
000310 b2 08 fc 3d 89 0e c7 bd d4 d3 41 3d f9 d4 22 bc
       0.12306346 -0.09719569 0.047321156 -0.009938472
000320 dd 5b b5 3d af d7 20 3e 64 85 8a bb 20 41 83 3c
       0.08855412 0.15707277 -0.004227327 0.016022265
000330 a3 0c 52 3e 60 7d ec 3d a9 b4 eb bd 8f ff 46 3e
       0.20512633 0.11547351 -0.115090676 0.19433425
000340 e9 e5 21 bd 5b 36 ba bd bd 4e 9b bc 1a 70 2b 3e
       -0.0395259 -0.09092399 -0.018958444 0.16741982
000350 8f 5d 28 3e 87 c2 bc 3d 38 e6 2b 3e 0d 9f 91 3d
       0.1644194 0.09216791 0.1678704 0.07110415
000360 50 bd 37 3e 1a 57 b6 3b eb 56 19 3d 3c 0c da 3d
       0.1794331 0.0055645825 0.037436407 0.10646865
000370 18 84 4d 3e 5e 7f d0 3c cb 5a 72 3c cf 4a c7 3d
       0.20069921 0.025451358 0.014792155 0.097310655
000380 88 0c 82 3d f9 34 aa bd 87 62 1e bd b5 7f 07 3e
       0.063500464 -0.08310885 -0.03866818 0.1323231
000390 a2 b6 03 3e 5e f2 96 3d f6 ee 89 3d c7 83 8c bd
       0.12862638 0.073704466 0.06735031 -0.06861072
0003a0 7b b4 c4 bb 3f 86 49 3e 3f 83 bc bd 1d 55 27 3d
       -0.0060029603 0.19680117 -0.09204721 0.040852655
0003b0 3b cd 25 3e 27 a4 b5 bc 46 52 d1 bb 14 03 5e 3e
       0.1619157 -0.022173 -0.0063879816 0.21680862
0003c0 17 50 58 3d d4 5d 5e 3e d3 ca da 3d f0 59 25 bd
       0.052810755 0.2171548 0.10683217 -0.040368974
0003d0 7f e8 14 3d a4 96 b8 bd 6a 1c 95 3c e4 71 91 bd
       0.036354538 -0.090131074 0.018202025 -0.07101801
0003e0 2f 4b 2f 3d 53 e1 d2 bd ca da 0e 3e c0 f8 d0 bd
       0.04279631 -0.102968834 0.13950649 -0.10203695
0003f0 52 48 0b 3d 4c 75 a7 3d 89 0c de 3d f7 64 49 3e
       0.034004517 0.081766695 0.10842235 0.19667421

fc1.bias f4 [64]
000000 2c 17 11 bd b7 29 62 3d d1 cf 83 3d 38 98 19 3d
       -0.03542249 0.055215564 0.06436122 0.037498683
000010 dd 9b 14 be d7 46 ca bd 62 21 d4 bd f5 4d 84 bd
       -0.14512582 -0.09876793 -0.1035793 -0.064601816
000020 3a 9c 43 3e 1f ac 9d bd 2f ca f8 bd f4 a9 0f 3e
       0.19102564 -0.07698845 -0.121479385 0.14029676
000030 91 bd c7 3d 74 20 38 3e ea 66 02 3e 3e 60 90 bd
       0.09752954 0.1798113 0.12734571 -0.07049607
000040 30 0c c5 3d 7b 34 fb 3d a6 bf 07 3e 4a 04 34 3e
       0.09621465 0.12265869 0.13256702 0.17579761
000050 33 3b d5 bd e9 6d c2 bd 38 34 c1 bc 73 46 83 bd
       -0.10411682 -0.0949362 -0.02358447 -0.064099215
000060 f2 61 a5 bc 0c c9 06 be 03 ee 67 3d 61 a3 fa 3c
       -0.020188306 -0.13162631 0.05662347 0.030595483
000070 48 09 a8 bd 36 16 c5 bd 22 a6 21 3d 9c 50 69 3c
       -0.08204895 -0.09623377 0.039465077 0.01424041
000080 b5 3e fc 3d bf a0 38 3d 12 4c 07 bc be db 7a 3d
       0.12316648 0.045075174 -0.008257883 0.06124472
000090 8c 22 e2 bc 03 4f bb 3d 58 db 5e bd 31 0f a1 bd
       -0.027604364 0.0914593 -0.0544084 -0.07864226
0000a0 54 99 2c 3e 56 6b e2 bd e0 53 e5 3d 3b 9a f8 3d
       0.16855365 -0.11055629 0.111976385 0.12138792
0000b0 cc f8 f7 bd 63 06 28 bc 2a bf aa 3d 8d 58 47 3e
       -0.12108001 -0.010255429 0.08337243 0.19467373
0000c0 52 cf 16 be 28 19 55 3e 66 8c 22 3e d2 52 8b bd
       -0.14727524 0.20810378 0.1587387 -0.06802906
0000d0 47 3d 64 bd fa fa b2 bd c5 ea b1 bd f4 18 2d 3e
       -0.0557225 -0.08739276 -0.08687357 0.1690405
0000e0 45 e8 28 bd b1 af cd 3d 78 b1 ee 3d 5c 27 9d 3d
       -0.041237134 0.10043276 0.11654943 0.07673523
0000f0 4d 5c 3f be dc 99 01 3e 52 88 08 be aa 75 5c bd
       -0.18687554 0.12656349 -0.13333252 -0.05382315

fc2.weight f4 [64, 64]
000000 49 07 b4 3d ad 8e 8e 3d 01 ba 45 3d 3f 7f 57 bc
       0.08790452 0.06960807 0.04827309 -0.013152896
000010 7c 17 af bd e4 24 84 bc 6c 71 9d 3d d4 c6 94 3d
       -0.08549401 -0.016130872 0.07687649 0.07264486
000020 b7 8e 43 3c bb d6 35 bd 2b 2d ac 3d 80 84 23 3e
       0.011935881 -0.044394236 0.084070526 0.15968513
000030 a7 23 fc 3c 77 24 06 bd a9 9b 1d 3c f3 fb a0 bc
       0.03077872 -0.03274962 0.009619632 -0.019651389
000040 43 09 85 bd 97 ce 62 bd 3d a8 f2 3d 06 e5 21 3e
       -0.06495907 -0.0553728 0.11848495 0.15810022
000050 24 7d fd 3c 12 46 ae 3d ba 04 26 3d 3e a2 8f bd
       0.03094346 0.085094586 0.04053185 -0.07013367
000060 f0 87 3f bd 36 c8 22 bd 77 95 ba bd 66 a7 33 3c
       -0.0467605 -0.039741717 -0.091105394 0.010965204
000070 ef 59 58 bd af 1a b6 3d fc e4 3f bd 7b ce d3 3d
       -0.052820142 0.08891808 -0.046849236 0.103421174
000080 87 84 46 bd 35 af 9d bd e1 e7 b9 3d 5f 48 87 bd
       -0.04846623 -0.07699434 0.090774305 -0.066056006
000090 19 48 0e 3e f7 d3 2a bd ee 8c 8f bd 81 c9 9e bd
       0.1389469 -0.04170605 -0.07009302 -0.077532776
0000a0 e8 e8 24 3e 8a e7 86 bc 12 fb 2b 3d ca c9 60 bd
       0.16104472 -0.016467828 0.041987486 -0.05487994
0000b0 87 2f c1 3d c6 c4 ae 3c 76 41 d9 3d 85 0c 00 3c
       0.09432893 0.021334063 0.10608189 0.007815485
0000c0 c9 ba a7 bb 31 19 09 3e d8 22 06 3e 36 35 22 3d
       -0.005118702 0.13388516 0.1309923 0.039601527
0000d0 03 df e0 bc a4 13 bc bd 1a 27 38 bd a7 03 58 3d
       -0.02745009 -0.09183434 -0.044959165 0.05273786
0000e0 21 ca 03 3e d7 91 da 3d 6b eb 83 3c 24 6e 9c bd
       0.12870075 0.10672348 0.016103467 -0.07638195
0000f0 82 78 af bc 78 41 00 3e a2 06 b5 3d fa b7 f0 3d
       -0.021419767 0.12524974 0.08839156 0.11753841
000100 0d be 5e 3d 36 2e 0e 3d b6 c6 cc 3d 3b 7e c4 bc
       0.054380465 0.03471204 0.099988386 -0.023985973
000110 20 97 38 3e 0d 78 24 bd ec 6d 05 3d 0f 30 1f 3e
       0.180264 -0.04015355 0.032575533 0.15545677
000120 bc 90 70 bd 50 ed 70 bc 2e e5 0b 3e 32 62 a5 3d
       -0.05873178 -0.014705017 0.13661644 0.0807537
000130 69 e1 b6 bb 67 bc 21 3e 58 9b 53 3d 92 27 a8 3d
       -0.00558107 0.15794526 0.05166182 0.082106724
000140 54 31 1e 3e 2a fc 1d 3e e3 d3 ee 3c 2c ba 3a 3d
       0.15448505 0.15428224 0.02915377 0.045587704
000150 de 1a 8d bd af 85 5c bc 8d 82 e5 3d da 19 8c 3d
       -0.0688989 -0.013459607 0.11206541 0.06840868
000160 61 16 55 bd 75 53 8f 3d 6b 68 83 bd c3 1b 4a bd
       -0.052023295 0.0699834 -0.064164005 -0.049342882
000170 e8 64 1e 3e 05 3a 27 bc b6 56 e1 3c c2 d1 96 bc
       0.1546818 -0.010206704 0.027507167 -0.018410567
000180 3f 23 e6 3d 27 e8 ba 3d 17 da 2a 3e ae 86 98 bd
       0.112371914 0.09126311 0.16684757 -0.07447563
000190 eb f1 0f 3e ff 05 25 3e 90 51 50 bd 63 14 b0 3d
       0.14057128 0.16115569 -0.050859034 0.085976385
0001a0 41 f9 b2 3c 0b 69 02 3e 22 ac 1b 3e aa 26 d4 bc
       0.02184737 0.12735383 0.15202382 -0.025897343
0001b0 7f 5f 42 3d db 62 3c 3d 67 19 56 3d 5f 46 70 bd
       0.047454353 0.045992713 0.05227032 -0.05866086
0001c0 1c 20 8b bd be 69 a4 3c 49 c0 07 3e b0 ec 83 bd
       -0.06793234 0.020069953 0.13256945 -0.06441629
0001d0 d5 ba de 3d 7a cb a6 3d 86 bf a7 3d 2d df 63 bd
       0.10875479 0.08144279 0.08190827 -0.05563276
0001e0 16 07 79 bd a1 74 9a 3c 7e 23 ff 3d 6f 5d 09 3e
       -0.060797773 0.018854441 0.124579415 0.13414548
0001f0 fe d8 99 3d aa 2a 92 3d ac 71 65 3d 61 91 3f 3d
       0.07512091 0.07137044 0.05601661 0.046769504
000200 be 31 36 bd 6c 7b b7 3c 08 4a 24 3e 54 7d 89 3d
       -0.04448103 0.02239772 0.16043866 0.067133576
000210 2b 42 8b bd 3a 63 85 3d 8a 13 66 bd d9 67 14 3d
       -0.0679973 0.065130666 -0.056170978 0.03623185
000220 18 8f 38 3d 5e 7a ff 3d 2a 86 00 3d 49 b6 25 bd
       0.04505834 0.124745116 0.03137795 -0.040457044
000230 c4 d1 64 3d 40 95 c3 bc dc 5e 96 3d 80 31 39 bd
       0.05586411 -0.023874879 0.07342312 -0.045213223
000240 9d 8d 25 3c 8b 8b f2 3d b6 c4 c0 3c f0 63 da 3d
       0.010104564 0.11843022 0.0235313 0.10663593
000250 a5 af 61 bd 40 6e 05 3c 54 dd 59 3d b1 c5 cb 3d
       -0.05509915 0.008143961 0.05318959 0.09949816
000260 29 ce 2e 3e 72 43 29 3e f0 bb 96 bd 56 07 3c bd
       0.17070831 0.16529635 -0.07360065 -0.045905434
000270 cc ba e6 bc c7 9d 17 bd e2 ce 8c bd 37 0f 5e bc
       -0.028165244 -0.037015703 -0.06875397 -0.013553432
000280 6a 0f 1a 3e 71 83 9c bd 8e 2e c9 bd 1a ea 41 bd
       0.15044942 -0.07642258 -0.09823333 -0.047342397
000290 49 d1 b0 3d 14 a9 6d bd 3e 57 24 bd 01 41 e0 ba
       0.08633668 -0.058022574 -0.040122263 -0.0017109216
0002a0 b7 36 7e 3d 30 df 16 bb f5 aa 97 3d c8 3a 89 bd
       0.0620639 -0.0023021214 0.07405654 -0.06700665
0002b0 f3 c9 43 bd 21 41 18 3e b1 dc 2d 3e d2 c3 96 bd
       -0.047800016 0.14868595 0.16978718 -0.073615685
0002c0 ea 5b 25 3d 8e bf 83 3d 84 d2 1e 3d b1 ec 83 bd
       0.04037086 0.064330205 0.038774982 -0.0644163
0002d0 ac 16 90 3a 2d 0d 80 bd bb c0 ab 3c 64 57 a9 bd
       0.0010993085 -0.06252513 0.020965924 -0.082686216
0002e0 c3 ef aa 3d 39 c0 ec bc 4a 40 69 3d f7 12 af 3d
       0.08346512 -0.028900253 0.056946076 0.08548539
0002f0 0d 92 24 bd 33 aa 5c bd 5a f7 e9 bc 49 d3 c9 bc
       -0.040178347 -0.053873252 -0.02856033 -0.024636881
000300 6d e7 b7 3c af c3 ce bd 4e 82 f7 bd 62 ab ce 3d
       0.02244922 -0.100959174 -0.120854005 0.100912824
000310 d1 52 f5 bd b0 77 89 3d 89 4e b3 3d e6 53 a6 bd
       -0.119786866 0.06712282 0.08755214 -0.08121471
000320 86 50 9e 3d d2 50 10 3d 1b 59 da bc 98 2b 52 3c
       0.077302024 0.035233326 -0.026653817 0.012827776
000330 a6 eb 54 bd f8 13 ed bd 7f b0 bf 3c d2 5e c4 3d
       -0.051982544 -0.11576074 0.02339959 0.09588398
000340 f0 0f b9 3d b7 15 a2 3b 84 9e c2 bd db 61 f3 bd
       0.09036243 0.0049464363 -0.09502891 -0.11883899
000350 5a 80 f2 bd a2 da 06 be 24 1d c6 bd 89 ed ac bd
       -0.11840887 -0.1316934 -0.09673527 -0.08443744
000360 e4 c9 bd 3d fa bd 17 3c 41 00 81 3d 70 fa 11 bd
       0.09267023 0.009261603 0.062988766 -0.035639226
000370 c0 ce e5 bd fb c9 3e 3d e1 bf ad bc dd 78 58 3d
       -0.11221075 0.046579342 -0.021209659 0.05284964
000380 fb 71 cf 3d d7 8b f9 bd 27 89 11 bd 26 91 a8 bd
       0.10129162 -0.121848755 -0.03553119 -0.0823081
000390 82 f1 0b be 9a aa 2a 3d e4 93 29 3d 1a 95 b0 3d
       -0.13666347 0.041666605 0.041400805 0.08622189
0003a0 74 d2 f1 bd 55 4c ca 3c 21 30 98 bd 6c 8f a3 bd
       -0.11807719 0.024694601 -0.07431055 -0.0798634
0003b0 be 05 cb bb 93 ac 82 3c 94 69 c9 bc dc 49 72 bd
       -0.006195753 0.01595143 -0.024586476 -0.05915247
0003c0 7c 01 8c 3c 6f 01 fb bd 40 9b 5c bc af 67 6a bc
       0.017090552 -0.12256133 -0.013464749 -0.014306947
0003d0 29 a2 89 bd 6c b7 c8 3d 68 e1 19 bc 30 93 6f 3c
       -0.06720383 0.0980061 -0.00939212 0.014622495
0003e0 8b ef e7 bd df 1a e5 bd 5d a0 c0 3c 04 2f 64 3d
       -0.11324986 -0.11186766 0.023513967 0.0557089
0003f0 3d b7 e9 bd 34 d3 02 bd 71 3f a6 3d ee 60 f5 bd
       -0.11411903 -0.0319397 0.08117569 -0.119813785

fc2.bias f4 [64]
000000 83 d6 29 bd ee 22 7f bd f8 2c 33 bd c6 d7 b2 bd
       -0.04146434 -0.06228917 -0.043744057 -0.08732562
000010 d6 95 c7 3c 1a c6 9c bd 06 d5 35 bd 6f f6 9f bc
       0.02436344 -0.076549724 -0.044392608 -0.019526688
000020 80 36 64 bd 78 82 78 3d 55 d4 e1 ba 11 a5 87 bb
       -0.055716038 0.0606713 -0.0017229418 -0.0041395505
000030 01 2c a9 3c 89 74 3d 3d 19 82 15 3c c6 4c a1 bd
       0.020650866 0.046253715 0.009125256 -0.078759715
000040 d5 8f 07 3e bf 3f 22 bc 8b 6c 55 bd 61 c3 45 bb
       0.13238461 -0.009902894 -0.052105468 -0.003017627
000050 24 46 1c 3e 75 57 0f be 2c 70 09 bd 21 cf 96 3d
       0.15261132 -0.13998206 -0.03355424 0.073637255
000060 37 cd f2 bc 85 e3 c4 3c c2 05 82 bc da 00 86 3d
       -0.02963887 0.024034271 -0.015871886 0.06543131
000070 60 0b 31 3b df 7e 89 bc 8f 28 97 3d 8b cc 9e 3a
       0.0027014837 -0.01678413 0.07380783 0.0012115402
000080 71 94 03 3e 6f 0d 17 bc 60 05 02 bd d9 72 ca 3d
       0.12849595 -0.009219511 -0.031743407 0.09885187
000090 11 29 a2 3d 03 bc 80 bd 07 82 bc 3d d6 36 f2 bd
       0.07917989 -0.062858604 0.09204488 -0.118268654
0000a0 f6 ec cf 3d 83 41 af bb 86 57 7f 3c c0 19 3a bd
       0.101526186 -0.005348386 0.015584832 -0.045434713
0000b0 87 30 92 bd ca d5 f3 3d c6 27 c2 3d a1 33 9f bd
       -0.07138162 0.119060114 0.094802424 -0.07773519
0000c0 b9 78 94 3d c9 a8 16 ba f2 fb 86 bd 51 56 41 3c
       0.072495885 -0.0005747197 -0.065910235 0.011800365
0000d0 63 ed 08 be 77 84 b0 3d c7 cd 0e bc 03 b8 cc bd
       -0.13371806 0.08619016 -0.008716053 -0.09996035
0000e0 cb d8 31 bc 4e ca 2f bd 68 6c 64 3d e7 88 8a bd
       -0.01085491 -0.042917542 0.055767447 -0.06764393
0000f0 6f 51 3c bb 6e 5f e4 bc 2f 6d 1e bd ac b5 a8 3d
       -0.0028735062 -0.027877536 -0.038678344 0.08237776

fc3.weight f4 [8, 64]
000000 44 25 79 3d 7f 84 1a 3d 8c 50 21 3e ee 60 b6 3d
       0.060826555 0.037724014 0.15753382 0.089052066
000010 56 b7 a6 3d fe 2b e6 3d 20 b4 b5 3c 5a fc c7 3c
       0.08140437 0.112388596 0.022180617 0.024412323
000020 96 88 1b 3e 18 92 5c 3c e0 96 23 3e aa a7 66 3d
       0.15188822 0.013462566 0.15975523 0.05631224
000030 ad 54 fa 3d b6 ff a0 bd 54 ac 3b 3c c8 79 03 3e
       0.12223182 -0.07861273 0.01145466 0.12839425
000040 af fb b3 3d e6 cd 1d be 71 6d 9d bd 1a f2 a2 3d
       0.08788239 -0.15410575 -0.0768689 0.079563335
000050 1d 32 cd 3c 92 d8 bc 3d 57 6c b2 3d a2 8c 2a 3d
       0.02504831 0.09220995 0.087120704 0.041638024
000060 47 0d 19 be d2 10 66 3d d5 16 3d bc 61 49 d5 3d
       -0.14946471 0.056168385 -0.011541088 0.104143865
000070 d1 f5 86 bc 53 a0 d1 bc d1 25 76 3d 5a dd 95 3d
       -0.016474636 -0.025589144 0.06009466 0.0731761
000080 f1 32 03 bc 7b 88 14 3c d7 b6 18 3c 72 6d 52 3d
       -0.008007751 0.009065743 0.009320936 0.051373906
000090 b9 12 a2 3d f3 15 ca bb 88 16 9c bc 22 82 10 3d
       0.07913727 -0.0061671673 -0.019053712 0.035280354
0000a0 03 6e 18 bd e6 19 73 3d a5 3f 9f bd ac 6e 17 3d
       -0.03721429 0.05935087 -0.07775811 0.03697078
0000b0 47 60 f1 bc c6 41 8f bd 3d 77 53 3c 4f 6e 91 bd
       -0.029464854 -0.06994967 0.012906847 -0.07101118
0000c0 80 f1 fb 3d 5c a5 a0 bd 56 3b 88 bd 14 a1 03 3e
       0.12301922 -0.0784404 -0.066519424 0.12854415
0000d0 b2 d0 8d 3d 85 01 ed 3d 43 5f b0 3c ef cb 48 3d
       0.06924571 0.115725555 0.0215298 0.04902261
0000e0 f2 c4 30 bd a4 50 1b 3d e7 1c d1 bc a0 05 06 bd
       -0.04315657 0.0379187 -0.025526477 -0.03272021
0000f0 0a 0c b5 3c 90 73 ec 3d cb cb ff 3d 06 ce bd bc
       0.022100467 0.11545479 0.12490042 -0.023169529
000100 f2 4c e1 3d e3 98 f7 bc c7 fb 43 3d 9f 70 63 bd
       0.11001004 -0.03022427 0.047847535 -0.055527326
000110 71 fc 0b 3d c2 b4 b5 bb 48 9d c7 bd 77 eb 64 bd
       0.034176294 -0.0055452297 -0.09746796 -0.05588862
000120 c0 86 aa 3d 3f 61 be bd 56 4e 6a 3c b3 1b fa 3d
       0.08326483 -0.09295892 0.014300903 0.122123145
000130 fc d3 c2 3d 6a 70 12 3b 2f 8a d6 bd 55 9a 29 bd
       0.09513089 0.0022344836 -0.10475575 -0.041406948
000140 fd 49 0d 3e 94 da c4 bd fc ae 6c bd 26 da 65 bd
       0.13797756 -0.09612003 -0.057784066 -0.056116246
000150 ed 1d f4 3c 73 43 7a bd 46 c6 fb 3d 61 76 62 bd
       0.029799426 -0.06109948 0.12293677 -0.055288676
000160 71 4d fc 3d d0 c3 fc 3d 65 43 25 3e 2d 26 d0 3b
       0.12319458 0.12342036 0.1613899 0.006352207
000170 67 54 f5 3c 26 86 ef 3d bc 8a 9d bc 10 a9 d7 bd
       0.029947473 0.11695509 -0.019231193 -0.10530293
000180 e4 19 6e 3c fe 76 17 3b 0f f0 b9 3d f3 e9 77 bd
       0.01453254 0.0023111696 0.09078991 -0.060525846
000190 02 ec f1 3c d0 ae 23 bc 25 96 0f 3e c2 91 8a bd
       0.029531483 -0.009990409 0.1402212 -0.06766082
0001a0 99 08 90 bd 5b 25 b0 3c f1 78 04 3d 99 af f1 3c
       -0.0703289 0.021502187 0.0323419 0.029502677
0001b0 76 1a a2 bd a1 4a 07 3e 9c 61 06 3e 22 f6 69 bd
       -0.07915203 0.13212062 0.13123173 -0.057119496
0001c0 2b 41 1c 3b 6f 8a 38 3d 85 9b 86 bc e2 b1 15 3e
       0.0023842554 0.045053896 -0.01643158 0.14618638
0001d0 fd e3 cc 3c f0 22 65 bd f8 aa 16 3e 4d f9 fc bc
       0.025011057 -0.055941522 0.14713657 -0.030880595
0001e0 a3 8e 3d bc 08 58 06 bd 30 34 dd 3d 39 7f 84 3d
       -0.011569652 -0.032798797 0.108009696 0.06469578
0001f0 92 8e 1d 3e 1d 46 8c bd 85 d9 d8 3d 8b f6 2f bd
       0.15386418 -0.068493105 0.105883636 -0.04295973
000200 b4 08 0b bc 19 6d 65 3d 2d 6b aa 3c db f5 87 3b
       -0.008485962 0.056012247 0.020803059 0.0041491813
000210 95 20 8f bd 39 bb 30 3e 64 23 bf 3d f4 25 ad 3c
       -0.069886364 0.1725892 0.09332922 0.021136262
000220 5e d3 5e bd 91 c8 6f bd 42 ac 19 3e 64 df d1 3d
       -0.054400794 -0.058540884 0.15007117 0.102476865
000230 92 26 9c 3b 51 07 4b bd 5c a5 10 3e fc d6 70 bb
       0.00476534 -0.049567524 0.1412558 -0.0036749234
000240 44 b4 85 3c 46 13 ad 3c f1 cb 88 bd 29 48 ea bc
       0.016321309 0.021127354 -0.06679524 -0.028598862
000250 80 c8 16 3e 5f 55 ae bc 58 7c 4d bc b1 d3 b3 3d
       0.14724922 -0.021280942 -0.012541853 0.08780611
000260 f3 02 72 3d 96 1a bb 3d 0a 0f 54 3d e0 2a 77 bc
       0.059084844 0.0913593 0.051772155 -0.015085906
000270 ac 73 5b 3d d0 78 a0 bd ff e0 f8 3d 48 96 c6 3d
       0.05357711 -0.07835543 0.121522896 0.096966326
000280 1c e0 62 3c de 99 0a bd 52 2d 95 bd f9 f4 9a bd
       0.013847377 -0.033838145 -0.07284035 -0.07566256
000290 ce 69 ec 3c d1 33 e5 bd a5 f4 34 bd dd dc cf 3c
       0.028859045 -0.11191524 -0.044178624 0.02537387
0002a0 c9 9f 3a 3c 47 7b b1 bd c5 a1 ce bc 7f c2 a6 3d
       0.011390635 -0.086660914 -0.025223622 0.08142566
0002b0 8d 2f 9c bd bd 49 09 bd b8 43 92 3b 33 b3 29 3e
       -0.07626257 -0.033517588 0.004463639 0.16572265
0002c0 82 19 f3 3d 20 70 33 bc 26 37 cd 3d 61 d0 8a bd
       0.118700996 -0.010952026 0.10020284 -0.06778026
0002d0 01 ea d0 bd 1e bd a8 bd d6 86 3a bd be f2 b8 bd
       -0.10200883 -0.08239196 -0.045538746 -0.090306744
0002e0 0d 41 8a bd 92 24 e9 3d cb d4 16 bd 43 60 b8 bd
       -0.06750689 0.11383928 -0.03682403 -0.090027355
0002f0 1e cf 0a 3e c4 de fa 3c 0e 9e 60 3d 9c 9d 23 bd
       0.13555571 0.030623801 0.054838233 -0.03994523
000300 53 93 a9 bd 85 12 e1 bd b0 b5 01 3d c1 0e c3 bd
       -0.08280053 -0.109898604 0.03166741 -0.095242985
000310 67 61 02 3e 71 50 11 3e fb d4 69 3d 94 ae 6a bd
       0.12732469 0.14190842 0.05708788 -0.057295397
000320 a2 01 7d bc 18 82 77 3d e9 da cc 3d 52 27 25 3c
       -0.015442284 0.0604268 0.10002691 0.0100801755
000330 47 20 97 3d 23 e2 ad bd 3b dd 8e bd e6 b9 e2 bc
       0.07379203 -0.08490398 -0.0697579 -0.027676534
000340 6b c7 e6 bd 47 49 aa bd b3 77 8c 3d 99 ea 90 bd
       -0.11268505 -0.08314758 0.06858768 -0.07075996
000350 bb f0 a6 3d 61 b7 81 3d ce d1 b9 3b 33 f2 b6 3d
       0.081513844 0.06333805 0.0056707626 0.089329146
000360 f8 c7 cd bd b8 97 42 3d 83 37 02 3e ff c9 df bb
       -0.10047907 0.04750797 0.12716489 -0.0068294997
000370 1d 4c 00 3e 20 8e 0a bd db d0 27 3e ad b6 6e bd
       0.12529035 -0.033826947 0.16388266 -0.058279682
000380 ed be 8a bd 85 5d c2 bd 5c f2 03 bd 7a fb a2 3d
       -0.067746975 -0.09490494 -0.032213554 0.079581216
000390 e9 62 4d 3d c8 57 86 3d 43 72 f0 3d d6 92 29 3e
       0.050143156 0.06559712 0.11740544 0.1655992
0003a0 c9 3f a2 bc 4e 3f c6 bd 1b 2f 02 bd 5d e9 cb 3d
       -0.019805806 -0.09680043 -0.031783205 0.0995662
0003b0 6e 1f bf bb 98 5b 97 3d 4e b1 a2 3d 4f bd 73 3d
       -0.005832604 0.07390517 0.079439744 0.05950671
0003c0 51 ac 29 3e 74 90 ef 3d 01 6e 05 3d 99 f7 45 bd
       0.1656964 0.11697474 0.03257561 -0.04833183
0003d0 f9 77 4b bd b0 03 d2 3c 19 46 a7 3d 56 5d 80 3c
       -0.04967496 0.025636524 0.08167667 0.015669506
0003e0 54 f2 1a bd 15 cf 11 be fc 86 15 3e b8 33 5c 3c
       -0.03782876 -0.14239152 0.14602274 0.013440065
0003f0 d4 6a 9f 3c a4 a5 d1 bd d2 da d8 3d 48 1d 63 bd
       0.01946012 -0.102366716 0.10588612 -0.055447847

fc3.bias f4 [8]
000000 93 0b 5d 3c fd fe d4 3d 6d 0b ce 3d 0b 27 0b 3e
       0.013491529 0.10400198 0.10060773 0.13589112
000010 ac 88 aa bd ec 46 a2 bd e7 14 11 3b 20 60 c4 3c
       -0.08326849 -0.079236835 0.0022137703 0.023971617
