matchmaking_model.pth (torch, 29095 bytes, 6 tensors)

fc1.weight f4 [64, 31]
-0.05571408 -0.051277358 -0.0035128728 -0.05002262 -0.10577114 0.06207313 0.03812201 -0.014405244
-0.13118565 0.062148176 0.13733813 0.13162339 0.06939935 0.0062779896 -0.12998047 0.15995973
-0.08073466 -0.14100337 0.21093848 -0.04021968 0.06104228 0.20393714 0.019363927 -0.0006276198
0.021824632 -0.13577348 -0.078910604 -0.11232441 0.04942077 -0.0311558 0.04159877 -0.090775825
0.062055532 -0.1552492 0.10962236 -0.081391685 -0.06620581 -0.14738433 -0.15890181 -0.07055337
-0.11469407 0.07354927 -0.12213388 0.06172725 0.108737215 0.035547387 0.083767585 0.044249166
0.02788145 0.07469071 -0.10048218 -0.088409916 -0.0050190566 -0.073359355 -0.05363829 -0.16155374
0.032873675 -0.14278562 0.03539027 0.09448248 -0.1108 0.14300697 0.011801942 0.03377833
0.112800725 -0.10113937 0.13451687 0.16991064 0.028637143 -0.09624931 -0.16731136 -0.13389222
0.07269976 -0.044131804 0.17160659 -0.0053712954 0.18196733 0.033844873 0.16543728 0.19120762
0.080556974 -0.0017870488 -0.123704374 0.069403596 0.13815272 0.05066992 -0.05939187 -0.06483457
-0.009812611 0.14529385 0.12190188 -0.029063864 0.06266574 -0.16490023 0.06870412 0.0055269757
-0.18252963 0.09352343 -0.09466666 -0.035327155 0.06769285 -0.022949446 0.16014801 -0.0797636
-0.03048788 0.12126169 0.027998377 -0.077142745 -0.08241554 -0.14904085 0.08859112 0.06125528
0.13365941 0.10087953 -0.06348002 -0.13933274 0.11419825 -0.12044535 0.18048058 -0.10949972
0.17813262 0.15693866 -0.14390622 0.13690524 0.06641972 -0.11837885 -0.08212988 -0.036740296
-0.062418107 0.08230874 -0.032941762 -0.0021457495 -0.019583473 0.0849512 0.105500266 0.045424506
-0.13454859 0.006410828 -0.04426755 0.04663627 -0.1033514 -0.09862875 0.07133867 0.18485324
0.020249411 0.06965845 0.141589 -0.009303224 0.059923653 0.12025006 0.065869324 -0.11952053
0.052936565 -0.05881504 0.1785556 -0.07140393 0.11809203 0.18555628 0.18946132 0.02107958
0.022964949 -0.033889566 0.1088142 0.0067993114 0.061659295 0.057675272 -0.032498218 0.17114815
0.15651377 -0.08735116 0.08233847 -0.049776006 0.042983457 -0.12192227 -0.0602156 0.049556404
0.04673492 -0.09003419 0.19525963 -0.009183938 0.058553886 0.07119396 0.14279939 0.038724754
0.17515773 0.17358029 -0.13081543 0.076895945 0.08672407 0.15014018 -0.0117761195 0.07197437
0.015224094 -0.031554803 0.100763276 -0.060392555 -0.09907809 0.17608169 -0.05475815 -0.14227651
-0.086172864 -0.11926486 0.21291985 0.08612242 0.09624011 0.08793531 -0.08281374 -0.11969501
0.15053152 -0.115914814 -0.01225159 0.0559504 0.13170673 -0.004598812 0.17386247 -0.10527339
0.0096075935 0.09885539 0.12260817 0.03426414 -0.01039868 -0.19952486 -0.029230226 -0.13757902
-0.049645387 -0.06520592 -0.10893823 0.03156427 0.06554403 0.056553002 0.011084909 0.008631377
0.17954761 0.13575141 0.039517306 -0.057165384 0.08454141 -0.12213416 0.14034823 -0.065850995
-0.03851772 -0.17519224 -0.15943004 0.07385977 0.05078863 0.06794776 -0.08656839 -0.08983299
0.099602275 0.15977213 0.0521647 0.13025281 -0.050874468 0.013972083 0.18275326 0.07643767
00000000: 7234 64bd 3508 52bd 3a38 66bb 85e4 4cbd
00000010: 8a9e d8bd 6540 7e3d d325 1c3d f903 6cbc
00000020: 8855 06be 168f 7e3d 5ea2 0c3e 48c8 063e
00000030: 3f21 8e3d 98b7 cd3b 9a19 05be 7ccc 233e
00000040: 3758 a5bd 3063 10be 4200 583e 64bd 24bd
00000050: 7807 7a3d e6d4 503e 19a1 9e3c da86 24ba
00000060: 92c9 b23c 3408 0bbe e29b a1bd 570a e6bd
00000070: 6f6d 4a3d 733a ffbc 7963 2a3d ade8 b9bd
00000080: f12d 7e3d a5f9 1ebe b081 e03d afb0 a6bd
00000090: e996 87bd ebeb 16be 28b7 22be 497e 90bd
000000a0: b9e4 eabd 00a1 963d 5421 fabd b7d5 7c3d
000000b0: 9eb1 de3d 239a 113d 578e ab3d 9d3e 353d
000000c0: a367 e43c 71f7 983d 9ac9 cdbd 4210 b5bd
000000d0: e676 a4bb 6e3d 96bd d3b3 5bbd 586e 25be
000000e0: 8ca6 063d 6536 12be 63f5 103d 0880 c13d
000000f0: 1ceb e2bd 6b70 123e ef5c 413c 255b 0a3d
00000100: 1104 e73d 2822 cfbd cabe 093e 0efd 2d3e
00000110: 7198 ea3c 5c1e c5bd ab53 2bbe 0b1b 09be
00000120: 9de3 943d 8dc3 34bd a3b9 2f3e b101 b0bb
00000130: a555 3a3e eca0 0a3d 6468 293e eecb 433e
00000140: 0efb a43d 683b eaba b858 fdbd 7923 8e3d
00000150: e877 0d3e 438b 4f3d e444 73bd fdc7 84bd
00000160: 13c5 20bc e9c7 143e b1a7 f93d 5717 eebc
00000170: e556 803d 9bdb 28be bfb4 8c3d a21b b53b
00000180: 0ce9 3abe 3689 bf3d 98e0 c1bd 35b3 10bd
00000190: 8da2 8a3d 7a00 bcbc d7fd 233e 195b a3bd
000001a0: b8c1 f9bc 0d58 f83d da5c e53c 04fd 9dbd
000001b0: 7bc9 a8bd 2a9e 18be 436f b53d d1e6 7a3d
000001c0: 03de 083e ed99 ce3d d001 82bd 3ead 0ebe
000001d0: c6e0 e93d 0dac f6bd e7cf 383e 6441 e0bd
000001e0: 6668 363e 87b4 203e 275c 13be e330 0c3e
000001f0: 1007 883d 9c70 f2bd b633 a8bd fe7c 16bd
00000200: 21aa 7fbd 7c91 a83d f1ed 06bd b49f 0cbb
00000210: 856d a0bc e5fa ad3d 8610 d83d 0c0f 3a3d
00000220: 1bc7 09be ec11 d23b e451 35bd ac05 3f3d
00000230: e6a9 d3bd dffd c9bd 021a 923d 2b4a 3d3e
00000240: 18e2 a53c 17a9 8e3d b5fc 103e 8d6c 18bc
00000250: 8172 753d aa45 f63d 7fe6 863d 2ec7 f4bd
00000260: 03d4 583d 0ae8 70bd 47d7 363e 393c 92bd
00000270: 3cda f13d 7702 3e3e 2602 423e 15af ac3c
00000280: fd20 bc3c c9cf 0abd fbd9 de3d c2cc de3b
00000290: 758e 7c3d e83c 6c3d da1c 05bd 7641 2f3e
000002a0: 2545 203e 2ae5 b2bd 12a1 a83d ede1 4bbd
000002b0: 6c0f 303d 62b2 f9bd a2a4 76bd a8fb 4a3d
000002c0: 1e6d 3f3d d863 b8bd 24f2 473e 3a78 16bc
000002d0: 33d6 6f3d 24ce 913d 013a 123e d99d 1e3d
000002e0: 8c5c 333e 08bf 313e 7bf4 05be 9f7b 9d3d
000002f0: 649c b13d 59be 193e a0f0 40bc 4c67 933d
00000300: 7a6e 793c 9c3f 01bd fa5c ce3d 2f5e 77bd
00000310: 74e9 cabd c24e 343e 154a 60bd efb0 11be
00000320: 667b b0bd 2341 f4bd a907 5a3e f460 b03d
00000330: 8919 c53d 6e17 b43d 409a a9bd a822 f5bd
00000340: ef24 1a3e bf64 edbd e5ba 48bc 3f2c 653d
00000350: 21de 063e a2b1 96bb 0109 323e 9399 d7bd
00000360: 2b69 1d3c b274 ca3d fe19 fb3d 8e58 0c3d
00000370: 3a5f 2abc 3f50 4cbe 3a74 efbc 84e1 0cbe
00000380: f658 4bbd ae8a 85bd 021b dfbd 8949 013d
00000390: f33b 863d 1fa4 673d 7a9d 353c 9e6a 0d3c
000003a0: 54db 373e 6b02 0b3e e6dc 213d 4026 6abd
000003b0: 0c24 ad3d 7921 fabd 72b7 0f3e e3dc 86bd
000003c0: c2c4 1dbd 9865 33be a141 23be cb43 973d
000003d0: bd07 503d 3228 8b3d c54a b1bd 5cfa b7bd
000003e0: 47fc cb3d 4e9b 233e a7aa 553d fe60 053e
000003f0: bf61 50bd 2aeb 643c ac23 3b3e 5a8b 9c3d

fc1.bias f4 [64]
0.1897854 0.018856576 0.030068466 -0.12670399 0.12778507 -0.08534733 0.109629475 -0.0832524
-0.04607457 0.005057769 0.1937061 -0.13862836 -0.14722896 -0.0010751369 -0.029427353 -0.028403895
-0.114415154 0.056771938 0.13646811 0.11199411 -0.0038314161 -0.050893676 -0.07392225 0.15111604
-0.10934799 0.05565517 0.1287046 -0.018553171 0.066218175 -0.15719718 -0.042444296 0.010830146
0.06131431 -0.094880104 0.116884254 0.14185679 0.032523032 0.1047015 -0.117627054 -0.058073662
0.13785274 -0.08109808 -0.025110086 0.1103143 -0.027773777 -0.04256376 -0.15938975 -0.15344164
0.13720809 0.037762385 -0.032136306 0.095361464 0.2063729 -0.15932024 0.0778325 -0.03794095
0.12694924 -0.09147585 -0.06567681 0.07942318 -0.07711028 0.10876428 -0.13373213 0.032096896
00000000: 1b57 423e 1b79 9a3c 2552 f63c b1be 01be
00000010: 17da 023e 95ca aebd 6b85 e03d 3c80 aabd
00000020: b0b8 3cbd a4bb a53b e45a 463e 98f4 0dbe
00000030: 30c3 16be 9ceb 8cba a211 f1bc 49af e8bc
00000040: 7e52 eabd b189 683d 4cbe 0b3e 2b5d e53d
00000050: 7f18 7bbb e375 50bd 8c64 97bd 2abe 1a3e
00000060: d7f1 dfbd adf6 633d 23cb 033e d2fc 97bc
00000070: 659d 873d 4cf8 20be 12da 2dbd ed70 313c
00000080: b724 7b3d 8050 c2bd 0361 ef3d e842 113e
00000090: df36 053d bd6d d63d 74e6 f0bd a6de 6dbd
000000a0: 4529 0d3e c016 a6bd abb3 cdbc 77ec e13d
000000b0: d585 e3bc 5657 2ebd 1137 23be ce1f 1dbe
000000c0: 4780 0c3e bbac 1a3d 5ca1 03bd df4c c33d
000000d0: 6b53 533e d824 23be a566 9f3d f867 1bbd
000000e0: fbfe 013e b157 bbbd 9081 86bd 9fa8 a23d
000000f0: ffeb 9dbd cfbf de3d 13f1 08be 0978 033d

fc2.weight f4 [64, 64]
0.051818494 -0.09510341 0.09161276 -0.037625834 0.07554774 0.10387517 0.1363272 -0.022543626
-0.08456138 -0.028871607 -0.004299193 0.0765469 -0.008877909 -0.018170774 0.1083777 0.12423772
0.12777074 0.062413674 -0.062355865 -0.042487074 0.11851186 -0.05636583 -0.09172053 -0.03088853
0.08357043 0.012193484 0.057987675 -0.036525287 0.03577387 0.0623917 0.100777954 0.071997166
-0.020301636 -0.058951642 0.022326367 0.13965821 -0.017424544 0.10341545 0.13159794 0.029136173
0.055252958 -0.041126996 0.06528609 0.112272374 -0.07275231 -0.08192929 0.026486648 -0.0041592577
-0.07969793 0.13111155 -0.045829523 0.017658398 0.1480431 -0.02131873 0.053952232 0.114053756
-0.08899467 -0.07257647 0.10481951 0.11298893 0.022380583 0.15204348 0.057253815 -0.0064439215
-0.15174463 -0.02658067 0.08277058 -0.095018 -0.035718407 -0.08003499 0.14681354 -0.013914529
-0.09299851 -0.043330915 0.05527954 0.062125254 0.04617588 -0.0815238 0.015739918 -0.061288014
0.033549458 -0.0033555236 0.13575317 -0.024142189 0.010425847 0.07774054 -0.042846497 0.023790654
0.051053256 -0.10863912 0.02499683 -0.020251872 0.102970235 0.052643236 0.059484515 0.040524524
0.0965894 0.061312586 0.018255359 0.025256302 -0.022673788 0.04033187 0.017923255 0.021143707
0.15568922 -0.060929563 0.055981174 -0.001156835 -0.069450065 0.12349934 0.10227642 0.11443609
-0.05944964 -0.02785845 0.12288105 -0.026681121 -0.027025117 0.0003897212 0.061825328 -0.011638786
0.005817445 -0.05884654 0.12105509 0.059974696 -0.055433873 0.09409188 -0.023059737 -0.054504085
0.06318823 0.13290022 0.07628237 -0.06968451 0.09152813 -0.021911621 0.10341943 0.1190719
0.061939955 -0.10372993 -0.09681264 0.07399181 0.018489087 -0.021843322 0.07776113 0.065025724
-0.0019990944 0.051652525 0.037336126 0.06089193 0.08642054 -0.008751712 -0.0463171 0.1402328
0.12393014 0.08809964 0.110293604 0.0035016555 -0.017092837 0.028060613 -0.07673789 0.006289419
0.04844207 0.07839554 -0.0036831147 -0.034379836 0.022963792 0.047699343 0.12711531 -0.106070906
-0.08300708 -0.057430886 -0.09404271 -0.004754909 0.10664336 -0.049496185 -0.11980154 0.07300951
-0.024641512 -0.013357575 -0.11412196 0.012434671 -0.0724841 0.033007782 -0.048058152 0.011575049
0.04340627 -0.07688697 -0.09113318 0.023435038 -0.11418776 -0.054418128 -0.051801145 -0.03252833
-0.01061332 -0.119261295 0.11873828 -0.12553744 0.026978401 -0.06830769 0.05025543 0.088560276
-0.110077664 0.11811638 0.030651955 0.09457859 0.044049595 -0.090023406 -0.010176914 -0.022406954
0.12796858 0.047067348 0.030100804 0.05885615 0.11986137 -0.063222095 -0.06607394 0.041065183
0.1381235 -0.07880902 0.13437934 0.09157798 0.13945593 -0.014968005 -0.011352316 0.060923245
-0.011914417 0.008230823 -0.06520333 0.028495522 0.12940228 0.116075896 -0.03679593 0.008651463
0.10485739 0.13213268 0.06488328 0.03913468 0.11963254 0.017091343 0.03089378 -0.021750858
0.09633502 -0.020594034 0.038756453 -0.14075252 0.12273865 0.14162692 -0.05204126 0.07138785
0.10594033 0.053805634 -0.019530486 -0.022267614 -0.10211852 0.14338952 0.11737128 0.13978383
00000000: a13f 543d 94c5 c2bd 799f bb3d 8c1d 1abd
00000010: c6b8 9a3d 81bc d43d 5c99 0b3e 69ad b8bc
00000020: 842e adbd 2684 ecbc 3fe0 8cbb 9fc4 9c3d
00000030: a674 11bc e0da 94bc 21f5 dd3d 5970 fe3d
00000040: 55d6 023e 7ba5 7f3d dd68 7fbd ed06 2ebd
00000050: 59b6 f23d dbdf 66bd f9d7 bbbd f109 fdbc
00000060: f926 ab3d 2ec7 473c 7c84 6d3d 8a9b 15bd
00000070: 9f87 123d 708e 7f3d ac64 ce3d 4073 933d
00000080: 9e4f a6bc 4777 71bd c9e5 b63c 9002 0f3e
00000090: ebbd 8ebc 7bcb d33d 9cc1 063e fcae ee3c
000000a0: ed50 623d c874 28bd b7b4 853d 0fef e53d
000000b0: 2aff 94bd 8bca a7bd 87fa d83c 624a 88bb
000000c0: ab38 a3bd 1b42 063e bdb7 3bbd 58a8 903c
000000d0: 9c98 173e 9ea4 aebc 04fd 5c3d 0495 e93d
000000e0: d642 b6bd f9a2 94bd 9cab d63d bd66 e73d
000000f0: 7c57 b73c 49b1 1b3e fa82 6a3d 8827 d3bb
00000100: f262 1bbe b5bf d9bc 9f83 a93d cc98 c2bd
00000110: 774d 12bd 63e9 a3bd 4a56 163e c4f9 63bc
00000120: 0176 bebd c27b 31bd cd6c 623d 0d77 7e3d
00000130: eb22 3d3d f3f5 a6bd 00f1 803c 2409 7bbd
00000140: 286b 093d 58e8 5bbb e102 0b3e d7c5 c5bc
00000150: 2cd1 2a3c 6f36 9f3d cf7f 2fbd 9ee4 c23c
00000160: 381d 513d 307e debd 27c6 cc3c 41e7 a5bc
00000170: 0fe2 d23d 6fa0 573d 09a6 733d 0bfd 253d
00000180: aad0 c53d e822 7b3d 438c 953c 4ee6 ce3c
00000190: 61be b9bc 0833 253d cad3 923c 9135 ad3c
000001a0: ff6c 1f3e 4791 79bd 844c 653d f1a0 97ba
000001b0: d63b 8ebd 39ed fc3d 4d76 d13d 785d ea3d
000001c0: 7781 73bd 6737 e4bc 0fa9 fb3d 5e92 dabc
000001d0: c763 ddbc 7e53 cc39 8e3c 7d3d 9bb0 3ebc
000001e0: 44a0 be3b 1209 71bd bbeb f73d 07a8 753d
000001f0: a10e 63bd 3eb3 c03d c6e7 bcbc ad3f 5fbd
00000200: d568 813d ff16 083e ee39 9c3d c1b6 8ebd
00000210: 1a73 bb3d 0080 b3bc 91cd d33d f8db f33d
00000220: c0b4 7d3d 5c70 d4bd b545 c6bd 0589 973d
00000230: 6d76 973c c4f0 b2bc 3a41 9f3d 352c 853d
00000240: 3d03 03bb 9991 533d c4ed 183d d169 793d
00000250: 41fd b03d 5763 0fbc 00b7 3dbd 3099 0f3e
00000260: 16cf fd3d 966d b43d 9de1 e13d 087c 653b
00000270: 4706 8cbc 5fdf e53c c128 9dbd 7817 ce3b
00000280: 316b 463d d78d a03d 6960 71bb dfd1 0cbd
00000290: 901e bc3c 6360 433d 842a 023e b43b d9bd
000002a0: 9eff a9bd a63c 6bbd 7799 c0bd 11cf 9bbb
000002b0: d567 da3d 83bc 4abd 835a f5bd 0386 953d
000002c0: ffdc c9bc bbd9 5abc c6b8 e9bd caba 4b3c
000002d0: 8b72 94bd 2b33 073d a0d8 44bd 46a5 3d3c
000002e0: c6ca 313d ea76 9dbd 08a4 babd d6fa bf3c
000002f0: 46db e9bd 8be5 5ebd 702d 54bd 6d3c 05bd
00000300: 7ee3 2dbc 443f f4bd 0e2d f33d e38c 00be
00000310: cf01 dd3c e7e4 8bbd a3d8 4d3d 175f b53d
00000320: 6670 e1bd 00e7 f13d cf19 fb3c 6bb2 c13d
00000330: 596d 343d 315e b8bd 12bd 26bc ca8e b7bc
00000340: 320a 033e b1c9 403d f695 f63c 2513 713d
00000350: e179 f53d 967a 81bd c651 87bd f733 283d
00000360: 3f70 0d3e a066 a1bd bd9a 093e 3c8d bb3d
00000370: 89cd 0e3e 5d3c 75bc 10ff 39bc a78a 793d
00000380: b034 43bc 93da 063c 5389 85bd 716f e93c
00000390: 0882 043e 33b9 ed3d 54b7 16bd debe 0d3c
000003a0: 79bf d63d ca4d 073e 86e1 843d b04b 203d
000003b0: e801 f53d 2503 8c3c f414 fd3c db2e b2bc
000003c0: 4c4b c53d d2b4 a8bc 16bf 1e3d 6e21 10be
000003d0: 675e fb3d a606 113e 3729 55bd cb33 923d
000003e0: 3ef7 d83d 4c63 5c3d 66fe 9fbc 926a b6bc
000003f0: 8423 d1bd b4d4 123e 5b60 f03d 7e23 0f3e

fc2.bias f4 [64]
0.05514565 0.15456173 0.040441293 -0.0594368 -0.052822024 -0.11006823 -0.034726504 0.08687511
0.12437271 0.08650542 0.1300017 -0.09713949 0.12650345 0.08580848 0.07102528 0.14630714
-0.07435861 -0.027776252 0.082084745 0.07630223 0.060568422 -0.13150673 0.09286499 0.019877205
-0.024480345 0.000621955 0.09612511 -0.041754037 -0.029097592 1.03075e-05 0.077556744 0.05535776
-0.01409482 0.12463767 -0.0163663 0.1040483 -0.078665406 -0.07732824 0.08020056 0.12212247
-0.0834155 -0.11406065 -0.093694195 -0.07980112 -0.04612256 0.055878114 -0.07958272 -0.07817005
-0.094116114 -0.08867064 0.10046941 0.02053685 0.06763079 0.05209137 0.065721534 -0.04696257
-0.09185645 -0.07311746 -0.03027145 -0.01650771 0.13324207 0.07021073 0.1393093 0.10094742
00000000: 68e0 613d 6e45 1e3e c5a5 253d 0174 73bd
00000010: e85b 58bd 746b e1bd 613d 0ebd 94eb b13d
00000020: 1fb7 fe3d c129 b13d 2a1f 053e 12f1 c6bd
00000030: 1f8a 013e 5bbc af3d b475 913d 8ad1 153e
00000040: 5449 98bd 068b e3bc 0c1c a83d 5844 9c3d
00000050: 9816 783d b3a9 06be 0030 be3d 85d5 a23c
00000060: 018b c8bc b20a 233a 3edd c43d 4806 2bbd
00000070: 135e eebc 60ee 2c37 12d6 9e3d d2be 623d
00000080: f6ed 66bc 0942 ff3d 9e12 86bc 4617 d53d
00000090: 541b a1bd 455e 9ebd 3140 a43d 581b fa3d
000000a0: bfd5 aabd a198 e9bd bee2 bfbd c56e a3bd
000000b0: 02eb 3cbd 73e0 643d 44fc a2bd 9f17 a0bd
000000c0: f3bf c0bd f498 b5bd e8c2 cd3d e53c a83c
000000d0: 0382 8a3d c35d 553d 0399 863d d35b 40bd
000000e0: 3c1f bcbd 9bbe 95bd d5fb f7bc 2d3b 87bc
000000f0: 9c70 083e a5ca 8f3d 19a7 0e3e 85bd ce3d

fc3.weight f4 [8, 64]
0.09818142 0.10388764 0.015258721 -0.010548164 0.070925936 0.04117954 -0.033214513 0.122039594
0.09769741 -0.10054861 0.06234344 0.06141106 0.07970199 0.13946597 0.07838751 0.08148689
-0.020962501 0.03284124 0.14572348 -0.025931371 0.12147273 0.03349174 -0.0405491 0.035417717
-0.04824414 0.105197795 0.021599017 0.09653989 0.09692628 0.011968097 0.07647254 -0.036925588
0.1061881 0.04979457 0.020514911 -0.09944554 -0.0016285618 -0.017936552 0.1272815 0.022650728
0.11534073 -0.13347538 -0.003637567 -0.015490213 0.13254184 -0.10832992 0.12610085 -0.049882185
0.018681224 0.014105603 0.034983966 0.012091326 -0.09470987 0.10722026 -0.013185621 0.02204658
-0.109543 0.0019364259 -0.08452685 0.095344745 0.068983115 0.105590224 0.071605586 -0.052441455
-0.027617363 -0.042141374 -0.046742257 0.03618608 0.1330058 0.05945027 0.12449954 0.08165544
0.10168394 0.0069299024 -0.048009496 0.12484391 0.03556747 -0.019625248 0.0067522447 -0.05007229
0.011227112 -0.08946139 0.0472187 0.11035622 0.1120317 0.039794747 -0.09860706 -0.08544421
0.042776667 0.06677371 0.067977905 0.1294522 -0.003661234 0.07575784 -0.08494285 0.055290565
-0.082328044 -0.049340475 0.09865259 -0.08810978 -0.058174137 0.07068464 0.044531465 -0.0066656326
0.1266671 -0.07698943 0.11666259 0.006365785 -0.043296766 -0.0024070765 0.05270655 0.059906535
0.08829889 0.07629515 -0.12062618 0.012327591 -0.008762678 -0.03197683 0.0020685096 0.059781343
0.0054565542 -0.025447417 0.09069995 0.13168335 0.14384472 0.088882074 0.04929766 0.14401852
0.11208404 0.0030144912 0.05658496 0.1534859 0.13086967 -0.10757313 0.04453009 0.03979862
-0.02702703 -0.03300889 -0.09350203 -0.012171665 -0.07089131 -0.05765374 0.12730141 0.020520663
0.036593396 0.05788716 0.040293857 0.05066443 0.037956133 -0.10065994 -0.03864884 0.034766
0.10416703 -0.054148495 0.045674656 -0.09447452 0.04436822 -0.057147577 -0.083879046 -0.0021746985
-0.01104164 0.15145084 0.10771411 0.043826316 -0.071566425 -0.08864929 0.11354394 0.15466197
-0.070490375 0.054055914 0.067602016 0.044382837 -0.09301338 -0.048432287 0.10149482 0.08299291
-0.051725462 -0.1409655 0.14284334 -0.073866144 -0.07543718 0.07669293 0.04510524 0.025837284
0.07851688 0.11923557 0.12323643 0.1028251 0.025268745 0.07807473 0.026234835 -0.01235488
0.003526162 0.145412 0.16564779 0.023717077 0.11695693 -0.08613829 0.06604589 0.06600316
0.07821324 0.110082656 -0.09574484 0.1590172 -0.0045185345 -0.0315475 -0.030668177 0.07841727
0.070629336 0.051228043 -0.07013064 0.034994487 0.051949896 -0.059054457 -0.07121978 -0.087496184
-0.07864335 0.09373565 0.023774864 0.11041402 -0.08345321 0.15485016 -0.10891701 0.0008934757
-0.041928396 0.057891462 0.16135596 -0.109425135 0.14669318 -0.11173928 -0.068180524 -0.07586515
0.05404303 -0.08394847 0.01024377 -0.07857508 0.038970906 -0.059570268 -0.0064148568 0.01698744
0.06752244 0.033689816 -0.025796771 0.08766371 -0.004643516 0.11628538 -0.0612535 0.009122235
0.0072953836 -0.05407492 0.15541603 0.031451084 0.06018929 -0.007316059 0.085985124 0.10374403
00000000: 5713 c93d 0bc3 d43d b7ff 793c 35d2 2cbc
00000010: 9e41 913d e1ab 283d f10b 08bd e5ef f93d
00000020: 9415 c83d 6eec cdbd d65b 7f3d 2a8a 7b3d
00000030: cc3a a33d 2bd0 0e3e a189 a03d 99e2 a63d
00000040: 8db9 abbc 8984 063d 8938 153e 076e d4bc
00000050: b2c6 f83d a22e 093d d016 26bd 2b12 113d
00000060: a69b 45bd f171 d73d 6cf0 b03c b5b6 c53d
00000070: 4981 c63d d615 443c a39d 9c3d 493f 17bd
00000080: 2679 d93d 64f5 4b3d e30e a83c 1aaa cbbd
00000090: 7775 d5ba adef 92bc 1556 023e 058e b93c
000000a0: c337 ec3d c5ad 08be 3f64 6ebb aaca 7dbc
000000b0: 0cb9 073e 14dc ddbd 9520 013e 4351 4cbd
000000c0: 5e09 993c 301b 673c 594b 0f3d b21a 463c
000000d0: 40f7 c1bd 4c96 db3d 8108 58bc 089b b43c
000000e0: 1558 e0bd accf fd3a 6a1c adbd 1b44 c33d
000000f0: 0547 8d3d b03f d83d f3a5 923d dacc 56bd
00000100: cf3d e2bc 6f9c 2cbd cf74 3fbd db37 143d
00000110: ac32 083e 2082 733d 9df9 fe3d f83a a73d
00000120: ab3f d03d 3c14 e33b 9ba5 44bd 2aae ff3d
00000130: 32af 113d 21c5 a0bc ef41 dd3b 9a18 4dbd
00000140: ecf1 373c 8937 b7bd 6568 413d 7102 e23d
00000150: e070 e53d d1ff 223d 80f2 c9bd 60fd aebd
00000160: 9636 2f3d a8c0 883d 0038 8b3d 1e8f 043e
00000170: 50f1 6fbb ed26 9b3d 84f6 adbd 5c78 623d
00000180: 9b9b a8bd 3d19 4abd 5e0a ca3d e672 b4bd
00000190: 0148 6ebd 1cc3 903d a066 363d 616b dabb
000001a0: 05b5 013e a2ac 9dbd ccec ee3d 1398 d03b
000001b0: f357 31bd 0bc0 1dbb d3e2 573d 8e60 753d
000001c0: 0cd6 b43d a240 9c3d dc0a f7bd aaf9 493c
000001d0: 5691 0fbc 23fa 02bd d58f 073b 48dd 743d
000001e0: e5cc b23b 1a77 d0bc e5c0 b93d 00d8 063e
000001f0: 084c 133e ce07 b63d 58ec 493d 9779 133e
00000200: 518c e53d c58e 453b a2c5 673d 682b 1d3e
00000210: b302 063e 4d4f dcbd 2f65 363d e103 233d
00000220: ca67 ddbc 5434 07bd fe7d bfbd aa6b 47bc
00000230: 772f 91bd 5426 6cbd 4d5b 023e f31a a83c
00000240: f5e2 153d 161b 6d3d 2c0b 253d 8185 4f3d
00000250: e477 1b3d cc26 cebd 3f4e 1ebd cb66 0e3d
00000260: 8655 d53d d0ca 5dbd 5915 3b3d db7b c1bd
00000270: 73bb 353d 9413 6abd c7c8 abbd 6385 0ebb
00000280: ffe7 34bc ee15 1b3e 3799 dc3d 3983 333d
00000290: 6b91 92bd c28d b5bd ba89 e83d b55f 1e3e
000002a0: 425d 90bd bc69 5d3d ed72 8a3d c7ca 353d
000002b0: cd7d bebd ef60 46bd 84dc cf3d 30f8 a93d
000002c0: 14de 53bd 4359 10be 8645 123e 2247 97bd
000002d0: cf7e 9abd 2f11 9d3d 46c0 383d b6a8 d33c
000002e0: 75cd a03d c731 f43d 6263 fc3d f795 d23d
000002f0: 6600 cf3c a5e5 9f3d 70ea d63c 1f6c 4abc
00000300: 2e17 673b e2e6 143e 939f 293e 514a c23c
00000310: 1d87 ef3d 4669 b0bd 1143 873d aa2c 873d
00000320: 432e a03d 0473 e13d df15 c4bd 68d5 223e
00000330: 3710 94bb f437 01bd d43b fbbc 3c99 a03d
00000340: 1da6 903d 7fd4 513d a7a0 8fbd 6156 0f3d
00000350: 6ac9 543d 16e3 71bd addb 91bd 3331 b3bd
00000360: c40f a1bd 7af8 bf3d 81c3 c23c bf20 e23d
00000370: 84e9 aabd 0a91 1e3e e20f dfbd 2438 6a3a
00000380: 1cbd 2bbd 991f 6d3d 7f3a 253e 491a e0bd
00000390: bd36 163e 90d7 e4bd 3ba2 8bbd 305f 9bbd
000003a0: 395c 5d3d 2ded abbd 7cd5 273c f9eb a0bd
000003b0: f59f 1f3d f4ff 73bd b833 d2bb 3e29 8b3c
000003c0: 3449 8a3d 55fe 093d c053 d3bc 0889 b33d
000003d0: a328 98bb 0827 ee3d f3e4 7abd 6d75 153c
000003e0: 1d0e ef3b aa7d 5dbd 6125 1f3e dad2 003d
000003f0: 0c89 763d 8dbb efbb f818 b03d c077 d43d

fc3.bias f4 [8]
0.018019207 -0.008110749 0.06664917 0.059679367 -0.07542422 0.12726456 0.11718005 0.1347465
00000000: 049d 933c f2e2 04bc 5c7f 883d 5a72 743d
00000010: 0378 9abd a451 023e 18fc ef3d fdfa 093e
