matchmaking_model.pth (torch, 29095 bytes, 6 tensors)

fc1.weight f4 [64, 31]
00000000: c75a 803d 2c43 b2bd 4c11 8b3c 3ef7 423e
00000010: c0b9 223e ef22 8fbd 5b94 ca3d 4d05 e53d
00000020: 1075 6fbb 84ea cc3d c806 0f3e 9796 ca3d
00000030: 71f2 d33d 7610 1f3e e05c 5dbc d8aa 04bd
00000040: 04d6 2cbe f041 c63c 0ce9 073e 2c26 00be
00000050: c00f 653b 5671 143e 54ca c83d 30c0 733d
00000060: 8b6e d6bd e8e9 273d 78a5 11be 48bd d2bd
00000070: 301e 5abc d09f f53d 5134 9ebb 2819 98bd
00000080: bd40 0e3e 9486 643d 8fad 173e fa79 2c3e
00000090: 7a72 cf3d f123 1b3e c8e7 183e 1401 ab3c
000000a0: 180f 773d c971 193e 6931 86bd d0c8 193e
000000b0: 0f8e dabd 9c8a 723d 8055 463d 665c 123e
000000c0: 8067 aebd 0005 9cbb 4e92 c8bd ec2b c43d
000000d0: 04e7 603d 8054 63bb 4888 6bbd 28fd cabc
000000e0: 4028 8abb c8ef cd3d 2838 cfbd 1048 5b3d
000000f0: 4013 a43c 5617 a83d bb0b 223d fba0 133e
00000100: ac21 113e 5576 c4bd d0b0 023d a2f3 2cbc
00000110: 7999 3a3e 4e78 ac3d 9172 b3bc 58cb 0c3e
00000120: b16d 0ebd 8a51 1bbe 3ca8 e7bd dc61 fabd
00000130: da4d 93bd 78d5 e83c c834 233d fa6f 12be
00000140: 50a4 d8bc 8057 f23b a8d7 e23c 6cab c93d
00000150: 30b1 0b3c 6205 1a3e 00b8 c7ba e6fb 1dbe
00000160: a70d 26be de46 2dbe 00d8 ebb9 e233 143e
00000170: 8d19 2e3c 1b61 c33d 25b1 aa3d 84f0 b6bc
00000180: 68cb 55bc e16c 92bd cc44 b43c 517d 8a3c
00000190: 5b48 bf3d c45c bbb9 e558 b2bd df22 15be
000001a0: 633c 8c3d 494d 15be ca95 0bbe 208e 6a3c
000001b0: 900b d33d 18a2 a2bc c049 313e e98d 21be
000001c0: 80e6 523d c8b7 f7bd ec1a 0e3d bec8 843d
000001d0: 3a4c fbbd 6880 fa3d d0be b5bc c077 dcbc
000001e0: 222a d3bd 4db1 0cbe 4a6d 263e 4c99 9c3d
000001f0: f459 b13d 895e 133e 0a5f 1c3e 3ee4 3d3e
00000200: 3439 393d 2c46 333d 439e 5bbd c860 de3c
00000210: 45d0 263c 908a e3bd 5722 8cbd f534 d23d
00000220: 7bb8 583e e78e a3bd 04ff 233d 089b fe3c
00000230: 1cae 5bbd 3cb0 23be 0023 6f3c 709f 983d
00000240: 9ade 6abd 726a 1c3e 104e 1ebc a099 98bb
00000250: 9455 5fbd 8961 2abe ac6f 2b3d 0602 16be
00000260: 5007 743c 8ea7 9fbd 61d0 85bd a972 083e
00000270: 8e52 a0bd 73c7 1f3e eb9d e93d d90e 703d
00000280: 624b 6d3d 5f1f 303e 12ac ac3d ed7d 703d
00000290: cb40 753d f647 1b3e 2966 253c 7a95 8abd
000002a0: dca2 d13d 8c3d 263e d46f df3d 7d78 b8bd
000002b0: d25e 1b3e 74b0 1dbd 44ff fa3d 90ee 603d
000002c0: 9cb2 6cbd 06aa d3bd 10d2 4b3c 2a9c a6bd
000002d0: 14ed d7bd 8610 fbbd c49c ce3d c85b eb3d
000002e0: 1c8e 803d 7d48 013d 4202 27bd bfec 173e
000002f0: 6a26 1e3d 4e1f 123e ee53 a73d b89d d1bd
00000300: c96d 553e b90c 24bd cc40 943b a279 5e3d
00000310: 923d 243e be85 2c3d c2ce 843c 4044 0a3c
00000320: 00f8 25bd 409f 61bb 9819 7b3d ece9 11be
00000330: a08f 45bc 9211 a3bd 342d 433d 94d6 31bd
00000340: a867 3f3d 2863 0abe 8f34 bcbd 20c7 a8bc
00000350: 96e7 cdbd b007 6a3c 98c8 ebbc e800 a83c
00000360: a8e8 b0bd b20f 663e 9126 2e3e bddc 1d3e
00000370: b430 0c3e 99e5 5bbd 2bad e83d 47db c53d
00000380: 3924 01bd 2547 663d 0636 3e3e 8151 893c
00000390: 76e4 22bd 472d 48bc 0ef6 7e3d f02b cf3d
000003a0: f4f5 013e da72 833d 703a 73bc 74ef 2a3e
000003b0: f250 29be 19c3 2dbe 0c65 f03d f0d8 c53d
000003c0: ec1f 153d e0d6 fa3d e0ba a73d 78b8 89bc
000003d0: 604e 113e 8066 31bd 19ee cdbd 63ef 783d
000003e0: 0c04 bdbb c728 d43d a2af c53d 9411 6ebc
000003f0: 2e49 03be e4fe 9ebd 4044 09be 10dc 1f3e
0.062673144 -0.08704218 0.016976021 0.19039628 0.1589117 -0.06989085 0.09891578 0.11182652
-0.003653828 0.10005668 0.1396743 0.09892004 0.103489764 0.15533623 -0.013510913 -0.03238949
-0.16878515 0.024201363 0.13272494 -0.12514561 0.0034952015 0.14496359 0.09804216 0.059509456
-0.10470303 0.040994555 -0.14223278 -0.10290009 -0.013312861 0.119933724 -0.004828014 -0.07426673
0.13891883 0.055792406 0.14812301 0.16843405 0.101292565 0.1515043 0.14932168 0.020874538
0.06031713 0.14984812 -0.06552393 0.1501801 -0.10671627 0.05921422 0.048421383 0.1429306
-0.08515835 -0.0047613382 -0.097935304 0.0957869 0.054907814 -0.0034687817 -0.057503015 -0.024778917
-0.004216224 0.100555 -0.10118133 0.05353552 0.02002871 0.08207576 0.03956197 0.14416878
0.14173001 -0.095928825 0.031906903 -0.010556133 0.18222608 0.08421384 -0.021905215 0.13749444
-0.03477258 -0.15167823 -0.11311385 -0.122256964 -0.071925834 0.028422102 0.039845258 -0.14300528
-0.026445538 0.0073956847 0.027690724 0.09847149 0.0085261315 0.15041116 -0.0015237331 -0.15428123
-0.16216145 -0.16921565 -0.00044983625 0.14472917 0.010626209 0.09540006 0.08334569 -0.022331484
-0.013048984 -0.07149673 0.022005461 0.016905459 0.093399726 -0.00035736535 -0.087083615 -0.14564084
0.06847455 -0.14580263 -0.13631359 0.014316112 0.1030494 -0.019852683 0.1731329 -0.1577679
0.051489353 -0.120956 0.034693643 0.06483601 -0.122703984 0.12231523 -0.022185713 -0.02691257
-0.103107706 -0.1373951 0.16252628 0.076464266 0.08659735 0.14391531 0.1527063 0.18544099
0.04522057 0.043768093 -0.053617727 0.027145758 0.010181491 -0.11110413 -0.06842487 0.10264007
0.21164124 -0.07986241 0.040038124 0.031079784 -0.05363284 -0.15985197 0.014595747 0.07452285
-0.057341196 0.1527498 -0.009662166 -0.0046569854 -0.054524973 -0.16638769 0.041854545 -0.1464921
0.014894322 -0.077956304 -0.06533886 0.1332499 -0.07828246 0.15603428 0.114070736 0.05860791
0.05793322 0.17199467 0.08431257 0.058713842 0.059876245 0.1516417 0.010095158 -0.06766792
0.10236141 0.16234416 0.109100014 -0.09007356 0.1517289 -0.038498357 0.12255719 0.05491501
-0.057787523 -0.10335164 0.0124402195 -0.08135255 -0.10543266 -0.12259011 0.100884944 0.11492115
0.06277105 0.03156327 -0.040773638 0.14836405 0.038610853 0.14269754 0.08170305 -0.102351606
0.20842661 -0.040051196 0.004524326 0.054315217 0.16039112 0.042119734 0.016211871 0.008439124
-0.040519714 -0.0034427196 0.061303705 -0.1424939 -0.012058169 -0.07962336 0.04765053 -0.04341753
0.046729714 -0.13514388 -0.09189712 -0.020602763 -0.10053937 0.014284059 -0.028782174 0.020508245
-0.08638126 0.22466925 0.170069 0.15416236 0.13690454 -0.05368576 0.11361154 0.096609645
-0.031528685 0.056220192 0.18575296 0.016762497 -0.03976866 -0.012217826 0.062246375 0.10115802
0.1269148 0.064183906 -0.014845476 0.16692907 -0.16534784 -0.16968955 0.11738023 0.09660518
0.036407396 0.122480154 0.081899405 -0.016811594 0.14190054 -0.043310642 -0.10055179 0.060775172
-0.0057683047 0.1035934 0.0965264 -0.014530558 -0.12820885 -0.0776346 -0.13404942 0.15611291

fc1.bias f4 [64]
00000000: 8ea8 103e 92e4 0a3e cb87 bd3d 6b2f 933d
00000010: 91af d8bd 307a 84bd 6f53 353e 6bad be3d
00000020: 4937 113d 277a b6bd acc4 92bd 8091 4a3d
00000030: d6b9 9a3d 352a 01bd 4503 173a 3fdf 0c3e
00000040: dce0 383e 80ee 293c ed5c c33d a5fe 2bbe
00000050: 28e9 8a3c 704f 5e3e 816a bebd f273 4b3d
00000060: 73b2 103e 043b 0e3e 5d31 42bd 8e2a f63c
00000070: 1598 fd3d 0ff7 193d 536e 37be 57e1 a43d
00000080: f22f d43d e5b5 3ebd bd16 3a3d a5cf 27bd
00000090: 6dc2 d43c 009b 203d 019a 113e f26a c1bd
000000a0: f586 aa3d a965 743d 017d b63d 572f 3c3d
000000b0: d543 e63d 2df2 943d 3906 49bd 060f dd3d
000000c0: 7000 863a c6be a43d fedb 243e 9253 2bbd
000000d0: 70b9 a6ba de70 0bbe 69df 0b3d c766 8a3d
000000e0: 3e7a 063e f889 62b9 10c4 ff3d 05c4 cbbd
000000f0: 3890 2d3e 36c9 c2bd ad04 133e c932 223e
0.14126799 0.13563755 0.09254416 0.07186779 -0.10580362 -0.06468618 0.17707609 0.093104206
0.035453115 -0.089100175 -0.071664184 0.049455166 0.07554977 -0.031534392 0.000576068 0.13757037
0.18054527 0.010371804 0.095392086 -0.16796358 0.01695688 0.2170999 -0.09297658 0.04967112
0.14130573 0.138897 -0.047410358 0.030049589 0.12382523 0.03758913 -0.17913179 0.08050793
0.10360707 -0.046560187 0.04543184 -0.04096951 0.025971616 0.03921032 0.14218904 -0.09444226
0.08326522 0.059667263 0.08910561 0.045943584 0.11243407 0.07272754 -0.0490782 0.10793881
0.0010223519 0.080442 0.16099545 -0.041827746 -0.001272006 -0.13617274 0.034148607 0.067578845
0.13132569 -0.00021604437 0.12488568 -0.09949497 0.16949546 -0.09511034 0.14357252 0.15839685

fc2.weight f4 [64, 64]
00000000: 47cb cc3d 03d9 26bc 3987 893c b050 e23c
00000010: 3401 be3d c311 583c f0f7 c83d 344c 25bd
00000020: b584 333e c83c ff3d ed69 e93d cb8e 073e
00000030: dfc9 9c3d 687e 0e3e a8d6 3f3d 4b86 343e
00000040: 5c93 82bd 116f b23d 41a3 123e c0bb 293c
00000050: 40fb 03bd 27a8 113e f226 db3c cc7e 41bc
00000060: e558 cd3c 5cd2 303d 60cf 603c 7bac 7f3d
00000070: fff0 71bd 7c96 3a3e f23b bf3d 26be 6f3d
00000080: 02d8 833c 13db 36bd cb26 1ebb fbf1 563c
00000090: 4d4a 0a3e 0a13 88bd 7cb6 d73d d310 663d
000000a0: 1d40 bf3b c792 be3d 9c56 c83c 75d9 fa3d
000000b0: 3e90 133d a8a4 74bd 944d 9e3d 7ae6 fc3d
000000c0: 77bc a23d 7e30 ae3d c0a0 de3b c078 833d
000000d0: 38c6 dcb8 374e 41bd 0d31 ba3c 4a23 e53d
000000e0: 0be3 c73d c31a e63c 62c3 043d 8029 033e
000000f0: 659c d03d 7ccc 31bd cffb 83bd 7d99 143e
00000100: 8d61 373e 7395 74bd 2bb3 d03c 11f4 a13d
00000110: c116 24bd 0eec 80bd 5115 823c e4fd 15bd
00000120: ca31 383e 9ddd 1c3d fe58 db3d 589a 1d3e
00000130: abb2 2a3d da1b e13d 8432 a5bd 5878 073e
00000140: 23d9 633c 2559 90bd a3a4 27bd a4f1 fc3d
00000150: eed6 b33d 549e 81bc aa5d 253d e53f 163e
00000160: 7452 f23b 445a 67bd 3d3f 2b3e ac17 eab9
00000170: 40ad ba3c c902 893d 9f29 fe3d b2c5 083e
00000180: 58a4 66bc 6827 503d d877 1b3e 0225 323e
00000190: c1a8 9a3d 931d 3a3d 6366 633d 276c 473d
000001a0: 8547 88bc d788 1e3e c36a 273e 9fda 64bd
000001b0: b40d fa3d 41b7 90bc 110f f33d 616a 6b3d
000001c0: df2e 3b3e f505 dd3d c0cd d3b9 d49c 6fbc
000001d0: 6eaa 593c 847d 3e3e 195b 183e 2e38 e4bc
000001e0: 12c4 543b 250e 41bd a32e 033e 6cb1 b1bb
000001f0: 4fb9 a73c 7820 37bd 5161 773d 0b91 443d
00000200: 9d34 83bc 9443 acbb 2bc8 f8bc ba0f 25bd
00000210: 7755 8ebc f82b 7e3d b5ef 113e 7fda 2f3e
00000220: 896d 0b3e 6ade 6dbc 2869 f03c 804b 58bd
00000230: ecea c33d b206 df3d 2384 6d3d 6134 5f3d
00000240: 6d64 e53d 0af4 4abd 8bb4 8d3b 3a7e e73d
00000250: 511c 0c3e 6750 6f3d 6ed9 c93d 9b5f 25bd
00000260: 1489 3d3c 1189 62bc de28 88bc 2dad 5d3d
00000270: 9dfe e63b 833d 1a3e 14ec 943d 81e1 06bc
00000280: 78e6 323e 8b7d 403d 5239 f43d 29be 2b3d
00000290: 2d9b 84bd c558 573d 9b49 243e 80c0 4cbb
000002a0: 082f 913d 5136 103e 4b9f 303e a8fb 32bb
000002b0: f0bf 183e 39c9 cc3d a384 5abd e1d3 643d
000002c0: 8d8b 153e fa84 db3d 7dc7 c1bb eb2a 4ebd
000002d0: 23cb c13d b76d 293e 1cb3 39bd 788c 53bd
000002e0: ebe0 cf3d 6fbf bb3c f176 493c a7f5 e23d
000002f0: 8aa0 933d 9693 bd3d b02c 1a3b 7c86 a13d
00000300: 7a52 8b3d 01b7 ed3d dba7 67bc 5b72 433d
00000310: e7e2 e93d f2c4 a9ba 1a43 e73d e96d b13d
00000320: e02e 51bd 834a 0a3e 4e31 db3d 5a08 1f3e
00000330: 6e86 023d 9dd7 a53c 6ae2 22bd 92fe e33d
00000340: cb44 9c3d a48f ba3c 097e 333d 6047 8e3c
00000350: de68 273e 324d ef3c 4bcb 8c3d 951d c13d
00000360: 0e42 1a3d b4af 3c3c ac01 7bbd ba6e b93d
00000370: 48dd b7bb 6f03 203e 5ce9 0cbd 8610 2d3e
00000380: 899f 833d 79f2 ef3d b19c e73d 62df 2a3e
00000390: 49b0 86bd ec91 bd3d ee5e e33c 0248 073e
000003a0: c588 36bd 059f 343d f4c2 0f3e 0779 3a3d
000003b0: 5ed2 e83d b2f6 523c a344 7dbd 1073 e23d
000003c0: 6ddd f23c dda8 2f3e fd80 1d3e 1b1f 4d3a
000003d0: 3d21 b43d ab1e da3d f008 efbc cece d63d
000003e0: 0049 093e 0c17 2e3d f89b 5abb 5ab5 383e
000003f0: 072b 2a3e ff4b 0a3e 94fe 2c3e a2e4 0b3e
0.099997096 -0.010183576 0.016788112 0.027626365 0.09277573 0.0131878285 0.09812915 -0.040355876
0.17531092 0.12462765 0.11397157 0.13238065 0.07655691 0.13915408 0.04683557 0.17629354
-0.06375763 0.087125905 0.14320089 0.0103597045 -0.032222033 0.14224301 0.026751969 -0.011810016
0.025066802 0.043169364 0.013721317 0.06242035 -0.059067722 0.18221468 0.093376055 0.05853095
0.016094211 -0.04464252 -0.002413201 0.013119216 0.13504906 -0.066442564 0.10532853 0.05616839
0.0058365003 0.09305339 0.024455361 0.12248508 0.036026232 -0.05972734 0.077296406 0.123486474
0.07946103 0.08505343 0.0067940652 0.064195156 -0.000105273386 -0.047193732 0.022728467 0.111883715
0.09760102 0.028088933 0.032412894 0.128088 0.1018608 -0.043407902 -0.06444513 0.14511676
0.17908306 -0.05971284 0.025476059 0.0790788 -0.040060762 -0.06295024 0.015879305 -0.036619082
0.17987743 0.038297284 0.10710333 0.15390909 0.041674297 0.109916404 -0.08066276 0.13229501
0.01390675 -0.07048253 -0.040928494 0.12350777 0.08781229 -0.015822567 0.040372528 0.14672811
0.007395083 -0.05648257 0.16723342 -0.00044649595 0.02278769 0.06689984 0.12410282 0.13356665
-0.014077269 0.05081883 0.15182436 0.1739693 0.075517185 0.04543836 0.055517565 0.048687126
-0.016635666 0.15481888 0.1634932 -0.055872556 0.12209645 -0.017665507 0.11868108 0.057474498
0.18279599 0.10792152 -0.00040398352 -0.014624793 0.0132852625 0.18602568 0.14878501 -0.02785882
0.00324655 -0.04713263 0.12810759 -0.0054227617 0.020474104 -0.0447087 0.060395543 0.047989886
-0.016016299 -0.0052570794 -0.030368885 -0.0402982 -0.017374737 0.06205365 0.14251597 0.17173193
0.13616003 -0.01451836 0.029347017 -0.052806377 0.09566292 0.10889949 0.057987344 0.05449331
0.11200795 -0.04954914 0.004324501 0.11303373 0.13682677 0.058426287 0.098559245 -0.04037438
0.0115683265 -0.0138266245 -0.01662105 0.05412023 0.0070493952 0.15062527 0.07271591 -0.008232475
0.1747073 0.046994727 0.119249955 0.041929398 -0.0647491 0.05257489 0.16043703 -0.0031242669
0.070890486 0.1408322 0.17248265 -0.0027310643 0.14916968 0.09999318 -0.05334915 0.055866126
0.14604016 0.10718723 -0.0059136734 -0.0503339 0.094625734 0.16545759 -0.045336828 -0.051647633
0.101503216 0.022918431 0.012296424 0.11082011 0.07208355 0.092566654 0.002352517 0.07886979
0.068028405 0.11607171 -0.014139141 0.04771648 0.11420231 -0.0012952371 0.112920955 0.08663542
-0.051070094 0.13504986 0.107027635 0.1553053 0.031866483 0.020244414 -0.039766707 0.1113254
0.07630309 0.022773571 0.04382137 0.017368019 0.16348597 0.029211614 0.068747126 0.094294704
0.03766065 0.0115165 -0.06128089 0.090543225 -0.0056110956 0.1562631 -0.034402236 0.16900834
0.06426913 0.1171617 0.113091834 0.16686776 -0.065765925 0.09256348 0.027755227 0.13211063
-0.044564027 0.044096965 0.14039212 0.045525577 0.11368249 0.0128762 -0.061833035 0.11057103
0.0296466 0.1715426 0.15381236 0.00078247645 0.08795402 0.10650381 -0.029179066 0.104886636
0.13406754 0.042502448 -0.0033357125 0.1803793 0.16617976 0.13505553 0.16893989 0.13661435

fc2.bias f4 [64]
00000000: fb0f 0d3e 8a18 85bd e9a6 123d 9965 1a3d
00000010: a09b 9f3d 4d17 ca3c d1d3 2fbd aa51 ffbd
00000020: 67d5 82bd 4489 b3bd c11a 643d 282c 79bd
00000030: ba41 9e3d e888 9f3d 906a d5bd 577a e43b
00000040: 7d26 373d 80e5 08be f634 e8bd 27a3 2ebd
00000050: 366b 003b fb51 4bbb 7e55 f73d 9b14 093d
00000060: 95bc 103e ee0e 87bd 1c68 b0bd c767 bdbc
00000070: e3d2 883d 0b43 ad3b 7584 0c3e d232 363d
00000080: 451f 2d3e ed02 b7bd 206d 85bd eb38 c23b
00000090: 6d62 3b3d 2e5b 80bd dd3d 2e3d 92d7 ee3d
000000a0: bbe9 1e3e d8ce e13b f126 863c 6565 f13d
000000b0: 4684 aa3d 6166 34bc d347 f83d ed0e b3bb
000000c0: f20f e73c ad7a bbbd 051a 1f3d 19ae 483d
000000d0: b9df a73c a71f 103c fe7a a73d a48b 1cbc
000000e0: 266b 7fbc a984 1cbd c25f 93bd f0f7 e03d
000000f0: ff66 8cbd 4ea5 97bd 0fe1 d03b 5d86 9d3d
0.13775627 -0.06498821 0.03580371 0.037694547 0.07793355 0.024669314 -0.042926613 -0.12466748
-0.063883595 -0.08766416 0.055689577 -0.060833126 0.0772738 0.07789785 -0.10420716 0.006972592
0.04471444 -0.13368797 -0.113382265 -0.042636063 0.0019595153 -0.0031024206 0.12076853 0.033466917
0.14134438 -0.065946445 -0.08613607 -0.023120774 0.066808484 0.005287533 0.13722403 0.04448206
0.1690646 -0.08936105 -0.065149546 0.0059271953 0.045748163 -0.06267391 0.042539466 0.116622105
0.15518849 0.006891113 0.01637599 0.117869176 0.083260104 -0.011010737 0.121230744 -0.005464426
0.028205846 -0.09154258 0.038843174 0.048994157 0.020492421 0.008796609 0.08177756 -0.009554777
-0.015589511 -0.038212452 -0.07195999 0.1098479 -0.068555824 -0.07404576 0.0063744853 0.076916434

fc3.weight f4 [8, 64]
00000000: cafa 08be 5840 32be 7d80 ccbd fa4b a7bc
00000010: 1bb5 00be bfef 1fbd 15d1 12be ea2b ed3d
00000020: 666e 06be e3d6 81bd 2960 83bd 95f5 f3bd
00000030: e75b 603d f035 adbd b86b efbc aeda 1abe
00000040: c4b2 3c3d 11ab debb c95e b2bc 4a44 0e3d
00000050: 0187 a8bc 4ae8 36be d5af bfbd c72e 803d
00000060: 4800 77bd 3d4b 0cbe c0b0 753d 54f6 943d
00000070: 503a 32be 57f0 f3bd acf6 583c f5ff 35be
00000080: 4c3c 69bd e5a0 083d 5ac7 633d ee1f 22be
00000090: a4f4 d23d ebd1 69bd 0918 c4bd 5d57 33be
000000a0: 1f7a e0bd 0e3c 2fbe 963b 08bd 1b43 8bbd
000000b0: 331c 3cbc 215c dc3d 7bf6 fdbc 5f39 0bbe
000000c0: caca 14be 51a4 a3bc b3fa 0e3d 0603 323c
000000d0: 3afc 1ebe e228 f13c 3d17 8f3d bb82 c7bd
000000e0: 2bb0 04be f5ff 02be 740f c53d f00f 703d
000000f0: 3772 c43d c0c2 233c 15b9 2e3d 9b82 33bd
00000100: 0781 d8bc d4f8 9cbd 0ae6 d4bb 0cac 0dbe
00000110: cb59 92bd 88b3 37be cfe5 87bc 1625 e63d
00000120: 0813 38be d217 08be 68e6 23be be18 a5bd
00000130: 299e ebbd ae29 03be 4235 d93d 3d0c dfbd
00000140: 920e 04be 2b9d 8e3d a17e d03d 30ad 9e3d
00000150: 0f0a c53d 9c96 a83c 54de 1cbd 5304 bd3d
00000160: d57d be3c febf ab3a 1628 bb3d 59fc 093d
00000170: 9769 ff3c 8c9f 2bbe 4a70 2ebe 03b8 a53b
00000180: 82ec 09be 3a44 e23c 2919 de3d a9c9 35be
00000190: 2461 8bbd 32f4 08be 87fc ff3c 3005 8e3b
000001a0: 4013 03be 92fd aabc c71a 39be ae02 05be
000001b0: eee3 21be bc94 a1bd 2eee 7b3d 5ded c0bd
000001c0: ac7d 76bd 51e8 783d 042b bf3b 89b6 8abd
000001d0: abf3 9ebd 9186 3f3d 2596 333a 26b8 2ebe
000001e0: 28a1 24be 411e 3fbd 34de 67bd 9bf7 22be
000001f0: 77a5 5e3d 9436 46bd adcb 783d ef0a 27be
00000200: 1b8e b5bd 6604 0fbe 1971 b8bd 5c6a aabc
00000210: 7e10 cfbd 3fc8 18be c20a acbd e83c 9cbd
00000220: 4e11 12be 7b2b 6bbd f803 28be 52d6 a0bd
00000230: 84fa 6abd 6223 7cbc d810 8b3c 2429 c8bd
00000240: 66c0 09bc 5cc3 713d 0590 c7bd 8a55 da3d
00000250: 9857 92bd c8c0 5e3c 42ff 363d 9b63 803b
00000260: ed9c 0fbe f79f 64bd 9019 fc3d 4071 903d
00000270: 3e51 2ebe 5cba 673d 5bba 19be fe24 04be
00000280: 023f f93c 9e42 923d 27cb e03d 32f7 18be
00000290: 8f6f 65bc 12d0 b3bc 719a db3d 3df3 24bd
000002a0: dfaa 50bd 4bd2 40bc 7444 44bb c81c 0b3d
000002b0: 9ef4 15be 4236 10bd cb3e 9cbd a9c4 38bc
000002c0: 5469 c33d 5dc2 873d 74ca ffbd 625e de3c
000002d0: 80d0 403d 4779 963c de4d 0cbc 3946 1bbe
000002e0: 3049 a33c fd66 283d e4a5 3a3d 515c 2dbd
000002f0: 29ef 773d 50f3 9f3c 53c2 fabd 00d8 1a3d
00000300: 0263 eabd d23d babd a1e4 28be 1c9e 21be
00000310: abe1 2f3d 6b4c 2d3d 0f77 1dbd e071 99bd
00000320: dafd 24be 3403 743d 5781 303d eff4 febd
00000330: 903b 073d 0787 e7bd fce8 ad3d 5ec8 f8bc
00000340: 4072 a33d 3ae9 a33c 56d8 89b9 3f49 bf3d
00000350: 1d96 65bd 561c bebd eb5c 9abd d187 03be
00000360: 1ec2 0cbe ef1c 10be 8ea3 b13d dc82 4bbd
00000370: cb24 2ebd d2a0 7dbd 92ea 7ebd 1ee0 28be
00000380: fc17 31be a4e6 83bc 6f8d fe3a a989 bebc
00000390: 9734 433c 71c4 933c 45e5 423d 644c efbc
000003a0: df02 c2bc 4cad 113d 7f1c 23be 804f 18bd
000003b0: f7a6 90bc b559 2f3c 5c2c b2bd 76d1 01bc
000003c0: 4682 343d 90e7 ab3c 8a94 40bc 66e7 ecbd
000003d0: 4349 6f3c ae1f d83d b77f 06bd 68ff 363d
000003e0: 0cf4 aabc fbfe bf3c 0acd 813d e820 52bb
000003f0: e403 debd bc06 7d3d 8c9d c73d 5450 28be
-0.13376918 -0.17407358 -0.09985445 -0.02042197 -0.12569086 -0.039047 -0.14337571 0.115806416
-0.13128051 -0.063398145 -0.064148255 -0.119120754 0.054775145 -0.084575534 -0.029226169 -0.15122482
0.04606892 -0.006795295 -0.021773713 0.034733094 -0.020572187 -0.17862049 -0.09359709 0.06258922
-0.060303003 -0.13700576 0.059983015 0.07273546 -0.17405057 -0.119110756 0.013242405 -0.17773421
-0.05694227 0.033356566 0.05561004 -0.15832493 0.10300568 -0.05708496 -0.09574897 -0.17513795
-0.10960793 -0.17112753 -0.03325995 -0.06799909 -0.011481333 0.1075976 -0.03100132 -0.13596104
-0.14530483 -0.019975813 0.034907054 0.010864979 -0.15525904 0.02943844 0.06986854 -0.09741732
-0.12957828 -0.12792952 0.09622088 0.05860895 0.09592097 0.0099951625 0.042656977 -0.043825727
-0.026428713 -0.07664648 -0.0064971494 -0.13835162 -0.07146033 -0.1793958 -0.016589073 0.11237542
-0.1797601 -0.13290337 -0.16005862 -0.0806136 -0.11504776 -0.12808868 0.10605861 -0.10891006
-0.12896183 0.06963571 0.101804025 0.07747877 0.09621059 0.020579629 -0.038297966 0.092293404
0.02325336 0.0013103483 0.09138505 0.033687923 0.031178279 -0.16760081 -0.17035022 0.0050573363
-0.13469127 0.027620424 0.10844643 -0.17752708 -0.068056375 -0.13374403 0.031248344 0.0043341145
-0.12800312 -0.020872865 -0.18076621 -0.12989303 -0.15809605 -0.07889697 0.061506443 -0.094202735
-0.060178444 0.06076843 0.0058339853 -0.06773097 -0.0776132 0.046759192 0.00068506814 -0.17062435
-0.16077101 -0.04665971 -0.056608394 -0.15914766 0.05435702 -0.048391894 0.060741115 -0.16312765
-0.08864995 -0.13966522 -0.09005947 -0.02080267 -0.101105675 -0.14920138 -0.084004894 -0.076288044
-0.14264414 -0.057414513 -0.16407764 -0.07853378 -0.057367817 -0.015389295 0.016975805 -0.09773472
-0.008407688 0.0590242 -0.097442664 0.106608465 -0.071456134 0.013595767 0.044677027 0.003918124
-0.14024706 -0.055816617 0.12309563 0.07052851 -0.17023179 0.05657421 -0.15012495 -0.12904736
0.030425552 0.071416125 0.10976248 -0.14938048 -0.014003648 -0.021949802 0.10722817 -0.040271033
-0.050944205 -0.011768888 -0.0029948028 0.033962995 -0.14644095 -0.035207994 -0.07629164 -0.011277356
0.09541574 0.06628869 -0.12489787 0.027144615 0.04707384 0.018368376 -0.008563487 -0.15163507
0.01993236 0.041113842 0.045568362 -0.042324368 0.060530815 0.0195252 -0.12244096 0.03780365
-0.114446655 -0.090938225 -0.16493465 -0.1578297 0.042939823 0.042309206 -0.03844362 -0.07492423
-0.16112462 0.059573367 0.043092098 -0.12449061 0.033015788 -0.11305051 0.08491704 -0.03036898
0.07980776 0.020008672 -0.0002629186 0.093401425 -0.056051362 -0.092827484 -0.07537254 -0.12844779
-0.13745925 -0.14073537 0.08673774 -0.049685344 -0.042515557 -0.06192095 -0.062235422 -0.16491744
-0.17294306 -0.016101189 0.0019420813 -0.023259 0.011914394 0.018038006 0.04758193 -0.02921123
-0.02368301 0.03556566 -0.15928839 -0.037185192 -0.01765774 0.01070254 -0.08699867 -0.007923475
0.04406955 0.020984441 -0.0117541645 -0.11567573 0.014604869 0.105529174 -0.032836642 0.044677168
-0.020868324 0.023437014 0.06337936 -0.003206307 -0.10840586 0.061774 0.097468466 -0.16436893

fc3.bias f4 [8]
00000000: 12d6 53bd 10f1 eabd 8ab1 26bd 25ac d3bd
00000010: 2de1 cfbd b558 e23c 6e4a 97bd a6cd f8bd
-0.051717825 -0.1147176 -0.04069666 -0.10335568 -0.10150371 0.02763019 -0.07387243 -0.12148599
