matchmaking_model.pth (torch, 29095 bytes, 6 tensors)

fc1.weight f4 [64, 31]
00000000: 2171 ef3d 45a9 723e 8b43 6b3e a5ad 493e
00000010: f725 9bbd 82e0 27bc 2171 063e 6f72 053d
00000020: 376a 303d 9de6 ee3d 626a 09bb ab60 4e3e
00000030: c60a f0bd 1abc b5bd a4f2 233e cca4 1ebd
00000040: e032 a43d 6c7b 2e3e 7a7e 6bbd 0820 9b3d
00000050: 5975 31be bd9b ddbd ba48 0cbe 6054 d03d
00000060: fe1f 093e f898 1c3e 9840 2dbe d680 323e
00000070: e07b e23d a056 063e bd3f 98bd 87b0 203e
00000080: e60f 0dbe f112 febc 9553 9dbd 73b0 09be
00000090: c92f d9bd 5a68 c43d 6e1f 163c c2d8 173e
000000a0: a74e 14bd 97d8 693c 6a3b edbd 6a20 883d
000000b0: 0019 0e3e b467 6e3d b42f 19be 2c11 023e
000000c0: d188 2ebe 80d7 bdbd 4bd2 b4bd 4a53 d6bd
000000d0: 0ce8 fb3d e71c 96bd fab5 05be 0140 06be
000000e0: c0ec 663d 492b 85bd 90a3 1b3e a0ce 123e
000000f0: 42fc 0b3e af30 e33d 7e6a 523e 6374 b43d
00000100: dfcb 76bd 884b d33d 556b cabd de39 4bbc
00000110: db59 153e 9b69 0a3e 11f9 153e 2dc0 443d
00000120: 5042 1d3e 1219 7c3d b250 e33d 17df 6fbd
00000130: 9d9c 92bd 107e f93c 8290 e1bd 1093 b03c
00000140: 505a 223c b0a5 9e3c a041 75bc b42a 333d
00000150: 249b 0a3d f869 08bd ac5d 2ebd b828 8b3c
00000160: fce1 e8bd 5841 fabc e059 2bbd 60a7 89bc
00000170: 0ceb d03b 19e4 e83d d129 f8bd b1e0 03be
00000180: 74f8 e4bc e9ff 8dbd 3c98 8cbc 14c0 68bd
00000190: 760f 9a3c a746 133e 9f83 ebbc 086c 15bd
000001a0: 9abb ee3b a315 313d 43d6 f63b f0a0 90bd
000001b0: 779d 1fbe 1688 323e 1c84 d2bd d85a c0bc
000001c0: e863 dabc 7c18 9cbd 60ae 4ebc 43fe bbbd
000001d0: 9809 543d 5417 003e cf84 c7bd e00f 4d3c
000001e0: 4051 033e 96ba 68bd 0000 78ba 41f1 1c3e
000001f0: 5dd4 edbd a8ce bc3d 7c0d ecbd f240 213e
00000200: 75bc 2b3e 996d 4b3e 4a60 043e 2745 7fbd
00000210: 594a 8e3c d8d5 92bd a5a6 c03d 0a5d 2d3e
00000220: 14b5 df3d 44ea bfbd e8ef abbd 1c14 1bbe
00000230: 80ae 62bb 4c6e 653d 1eec 173e c017 0e3b
00000240: b8d7 9f3d 85be dcbd 28a6 8f3d 000d 52bb
00000250: 3627 1dbe 8e9f 0e3e ac50 0b3e 66d7 88bd
00000260: 5604 1c3e 0682 0d3e 5850 88bd f910 063e
00000270: a01d 1cbe 8bf8 f2bd 5d07 1fbc 7162 023e
00000280: 65cb 38bd 4c4b 0abd f37f 1f3e 60f3 06be
00000290: 87e4 533e 0a5f b9bd b2b8 943c 712c ef3b
000002a0: a29b 6b3d 08bc 463d 0659 09be 6cbe 053e
000002b0: 386a d33c d2ae 873d d042 ba3d e897 98bd
000002c0: 478e 07be 94e3 ed3d d2d5 113e 1ae0 0e3e
000002d0: 6022 f43d 40ce 58bb b078 7d3d 14d7 0b3e
000002e0: d0a1 89bd a348 653c f8fd 713d d97f 903d
000002f0: 836f a9bd 6490 213e 1816 643d 1d34 013c
00000300: 18b7 f13c 9c8c 4f3e fc16 0cbe 5082 ebbd
00000310: 8775 b93d f11d 523d db48 3ebc bbad fa3c
00000320: 586f 01be 38a6 30be 9881 25bd f05f a8bc
00000330: b0e0 323d 2301 ccbd b5c6 8dbd a453 1c3e
00000340: 5604 1fbe a4ed 143e 5cd8 b43d b125 14be
00000350: c019 123e 9a8b 203e 5c8f 6b3d 3007 583c
00000360: 8660 a2bd 0337 663e cb30 853d be27 483e
00000370: 3567 babd 086d 363e cccb 46bd 71ac fd3d
00000380: bb88 35bd 51e6 153d 850b fbbd 0507 ee3d
00000390: c53c 273d 7914 e5bd 4fb3 473e ae4b 2e3e
000003a0: 100c afbc c80a 0cbe e607 20be d443 3bbd
000003b0: af98 1ebe 62e7 14be 92ef 353e 764b 2e3e
000003c0: 28c9 f03c 6228 f6bd dcc1 553d b87d 2ebe
000003d0: 18ea 8c3d 0854 f2bd 48b8 1b3e d948 413e
000003e0: 0c44 663e e492 803d 4f63 bbbd 409f 88bd
000003f0: fa8e 0a3c ea83 7d3c d3da 563d ae6a 1cbd
0.116914995 0.23697384 0.22974984 0.19695146 -0.075756006 -0.010246398 0.13129093 0.032579836
0.043070044 0.1166508 -0.002096795 0.20154063 -0.11720805 -0.08873768 0.16010529 -0.03873138
0.08017516 0.17039269 -0.057493664 0.07574469 -0.17329921 -0.1082072 -0.13699618 0.10172343
0.1339111 0.15292728 -0.16919172 0.1743196 0.110587835 0.13118982 -0.07434032 0.1569234
-0.13775596 -0.031014891 -0.07681958 -0.13446216 -0.106048174 0.09590216 0.009162767 0.1482878
-0.03620782 0.01427283 -0.11583598 0.066468075 0.13876724 0.058204368 -0.14959604 0.12701863
-0.17044379 -0.09269619 -0.08829173 -0.10465105 0.12300119 -0.073297314 -0.130577 -0.13110353
0.056378126 -0.065023966 0.15199113 0.14336634 0.13670447 0.1109327 0.20548436 0.088112615
-0.06025302 0.10317141 -0.09883753 -0.012403933 0.14585058 0.13516848 0.14645793 0.048034836
0.15357327 0.061547346 0.11099376 -0.058562364 -0.07158778 0.03045562 -0.11013891 0.0215545
0.0099092275 0.019366115 -0.0149692595 0.043741897 0.03383936 -0.033304185 -0.0425698 0.01698719
-0.11371228 -0.030548736 -0.04183376 -0.016803443 0.006375676 0.11371631 -0.12117351 -0.12878682
-0.027950503 -0.069335766 -0.017162435 -0.056823805 0.0188062 0.1438242 -0.028749285 -0.03647998
0.0072855474 0.043233525 0.007532866 -0.070619464 -0.15587412 0.17434725 -0.10279104 -0.023480818
-0.026658967 -0.076218575 -0.012614816 -0.09179356 0.05176696 0.12508899 -0.09742128 0.012515992
0.12823963 -0.056818567 -0.0009460449 0.15326406 -0.11612771 0.09219104 -0.115260094 0.15747431
0.1677111 0.19866027 0.12927356 -0.06232181 0.017369436 -0.07169694 0.09406785 0.16930023
0.1092321 -0.093708545 -0.08395368 -0.1514439 -0.0034588873 0.05601339 0.14836165 0.0021681637
0.07804817 -0.10778526 0.07014114 -0.0032051206 -0.15346989 0.13928053 0.13604993 -0.06681709
0.15236029 0.13819131 -0.06655949 0.13092412 -0.15245676 -0.11863812 -0.009706345 0.12732865
-0.045115847 -0.033763215 0.15576153 -0.13178778 0.20692645 -0.090513304 0.018154476 0.007298999
0.05752147 0.048519164 -0.13412866 0.13060921 0.025807485 0.06625141 0.09094775 -0.07450849
-0.13237868 0.11615673 0.14241722 0.13952675 0.11920619 -0.003308192 0.061882675 0.13656265
-0.067203164 0.013994369 0.059080094 0.07055635 -0.08273222 0.15777737 0.055685133 0.00788596
0.029506251 0.20268482 -0.13680643 -0.114994645 0.0905562 0.051298086 -0.01161405 0.03060042
-0.1264013 -0.17250907 -0.040406793 -0.020553559 0.04367131 -0.09961154 -0.06922666 0.15266281
-0.15528998 0.14543778 0.0883033 -0.14467503 0.14267635 0.15678254 0.057509765 0.013185307
-0.07928567 0.22481923 0.06503447 0.1954641 -0.091017164 0.1781503 -0.0485342 0.12386406
-0.04431985 0.0365966 -0.122580566 0.116224326 0.04082944 -0.111855455 0.19501995 0.17021057
-0.021368057 -0.13675988 -0.15628013 -0.045718983 -0.15487932 -0.1454139 0.1776717 0.17020974
0.029392794 -0.12019421 0.05218683 -0.17040145 0.06880587 -0.11832434 0.15207016 0.18875445
0.22486895 0.06278017 -0.09149801 -0.066709995 0.00845694 0.015473345 0.05245478 -0.038187675

fc1.bias f4 [64]
00000000: d454 f33d 3932 93bd b915 cd3c 9996 553d
00000010: 0cd6 2fbd d6ed 7e3c 70f8 d3bd fbb2 b53d
00000020: e781 413e 4c13 c8bd 1dd5 ac3d 513b b9bd
00000030: 8bcd 22bc 5fb0 5f3e 52ff ce3c b2ad dc3d
00000040: 367d 66bd b92d 87bd 6df8 9dbd 0053 543e
00000050: aae8 193d 8a6e 253e bcdb a33d fe91 0b3d
00000060: 79ee c3bd da46 993a 01ef 283e 8c57 2d3e
00000070: 5f61 e33d d442 41be b4bc d6bd da0d 02be
00000080: 656e 9abd 73dc a73c e33e c03d f1f5 503d
00000090: 6154 423e 3767 553d e479 7cbd 8a16 e5bd
000000a0: 6ed3 ff3c 53d0 b13c 2c57 043e 1415 1abd
000000b0: d9d4 84bd 1111 ad3d 8f64 b4bd 8ff3 a13d
000000c0: 2d8a 0ebd 2770 323e 9c89 563e 4381 7e3b
000000d0: 3dca 13bd 4a66 5d3d 780b aebd e57f 013e
000000e0: ba79 443e 4388 f6bd 9677 89bd a35c 5f3e
000000f0: 3a2d 063e 3854 583e 9107 24be 2c4e 3a3e
0.11881414 -0.071873136 0.025034772 0.052145574 -0.04292874 0.015559634 -0.1035012 0.088720284
0.1889721 -0.097693056 0.08439086 -0.09044517 -0.009936701 0.21844624 0.02526823 0.10775317
-0.056271754 -0.06600518 -0.07713399 0.20734787 0.0375754 0.16155449 0.080008954 0.034074776
-0.095669694 0.0011694089 0.16497423 0.16927928 0.111025564 -0.18873149 -0.10485211 -0.12700596
-0.07540587 0.02049086 0.09386995 0.051015798 0.189775 0.052100386 -0.06163968 -0.111859396
0.031228747 0.021705782 0.12923878 -0.037617758 -0.0648591 0.08450521 -0.088082425 0.07907783
-0.034799743 0.17425595 0.20950931 0.003883437 -0.03608154 0.05405263 -0.08498281 0.12646444
0.1918706 -0.120377086 -0.06712262 0.21812682 0.1310319 0.21125877 -0.16018511 0.18193883

fc2.weight f4 [64, 64]
00000000: 1a38 aa3d 9441 f53d 2f71 73bd 3d56 54bd
00000010: 1c9d a63d ba53 7a3d a640 4a3c 3602 50bc
00000020: ca86 1fbc c354 be3d 9b53 963d 546f 1a3e
00000030: a450 4ebc 3ab6 8bbd a044 3cbc d84e 163d
00000040: 8c90 4fba 762b 37bd 317b 403d f2f8 de3d
00000050: ef29 2b3e cc24 1d3e 6698 8b3d 77fa 393e
00000060: dac6 cf3d 471d 0a3e 0011 843d a643 2c3e
00000070: 6bd4 a43d e057 9f3c 4ffe 863d a0c7 a1bb
00000080: 0df0 033e 0823 043e 4204 0c3e 58eb 163e
00000090: 21d8 173e be36 333e 9980 98bd 2051 563d
000000a0: 1bf7 26bd a320 723d 5147 193e 883d 19bd
000000b0: 434a d0bc a4a6 58bb a09b 0c3e 17e6 17bc
000000c0: 3806 4e3d bb8f c43d dabf 0ebd 13e6 6b3c
000000d0: 5a56 753d dc8d dbbb 0057 7e3d b88a 3a3d
000000e0: 60db f737 5e93 ce3d c001 8fbd 720a 46bd
000000f0: c25e 333e ecaa 533c 7faf cfbd ceac be3d
00000100: 289a 1f3e 9e8d f5bc 2ef3 ce3d d44a 163d
00000110: b916 be3d 6229 7ebc 1c61 803d b4e8 943d
00000120: 4e67 2c3e 9913 753d a563 113e 8b2a 9e3a
00000130: cb1a a13d 01d6 df3d 8193 023e 9398 a63d
00000140: 772f 0e3e b1de 90bc 28f8 233e 08c3 40bd
00000150: 0272 133e 0a47 d8ba 75a1 04bd 8308 0e3d
00000160: e0b3 103e bec0 ba3d 3a35 073e 8dfc cbbc
00000170: 8aa5 343d de8e 053e 47dd ed3c d489 83bd
00000180: 8067 323e 5dc0 343e 543e 89ba 393f 85bd
00000190: bdd3 aebc b247 f73d 7501 12bd 1112 78bd
000001a0: cb73 2b3e 8cdf 063c cc32 a43d 5343 f23c
000001b0: db53 2dbd 0f32 113e fb6d 043e a804 0d3e
000001c0: c68f 553d cc01 c23d 1183 003c 4c34 0d3d
000001d0: 53c0 f53d 8a4a 9c3d e01d 1b3e 9eb9 7d3d
000001e0: 8eb0 153d c292 783d 27eb 263e 03cb 24bd
000001f0: 792c d63d 3698 313d 827a 923d 1662 163e
00000200: ec18 b2bd 448a ff3d 941b ff3d 6312 84bc
00000210: 5044 8b3d 962a 9c3d d8f6 b0bd 429a b5bc
00000220: 6ad6 93bd 3ff7 e33d bc66 803d 6c86 55bd
00000230: 6b76 86bd a3c5 a1bd d8c5 9a3d e77e 1a3e
00000240: 12bd c53c 0891 1f3d 39a4 1b3d 1331 cf3d
00000250: 80ea d23d c4e3 8e3d 244e 613d 5a2c 1d3e
00000260: f011 dd3d ae99 c13d f8cb dd3d 6365 a23c
00000270: 67bf 8fbc 132a e13d f4cb 663c aa96 e3bd
00000280: 7c8b cbbc 8095 aebd 15fc 30bd fcbf 0cbd
00000290: a7e7 ed3c 35d6 c6bc 2d75 733c 0f5b d83c
000002a0: 4b86 1d3e 83d6 4cbc 7719 56bd afd8 d8bc
000002b0: d3db e83c b556 8a3d 647d ac3d f945 133e
000002c0: a437 473d db1c 8bbd 9046 883d f306 8fbd
000002d0: 2535 cbbc 7863 97bc c9f3 13bc 1db3 193e
000002e0: 5950 903c f620 6f3b d07c 0e3d 3073 b8bb
000002f0: f0c1 dd3c 1755 0c3e f2ed f6bd 2a75 033e
00000300: ad41 df3d d431 5c3c 8d07 9e3c c449 243e
00000310: 272a 03bd 6ac2 c23d 9255 953c 8ad9 253b
00000320: b6e7 1b3e 3c0f 8c3d 786b 0c3e b571 8dbc
00000330: 1932 7dbc 807b 1f3e 81ed 583d f191 523d
00000340: 2cd8 183e a427 283d 4b69 aabd 9667 7b3d
00000350: badb 103e 8832 033e 44ed 213e d66f 49bd
00000360: 6dca 233e 54a3 e63d b60b 97bc 6759 133e
00000370: 6c9e 96bd 8402 2f3b 58c1 0b3e 3ed2 96bd
00000380: 2eb3 ae3d ff5f e63a 95ff c4bc be32 ba3c
00000390: 1435 cc3d 6d1e f93d 3616 93bd 30f3 96bd
000003a0: c6bc 153d 8362 883d 7037 83bd 2cce 063d
000003b0: 34be 29bb 4c8b 243e 961d 81bd ca5d 68bc
000003c0: 8c3d 143e 5297 cd3d 258f 053d e34e 88bd
000003d0: 9a84 0ebd df13 7f3d bcf7 d33d e750 fd3d
000003e0: a8d5 30bc e21d 8dbc 49a9 be3d 4362 b53d
000003f0: b2f5 a9bd 1a02 9d3d eff9 f3bc 1aea 093e
0.08311482 0.11975399 -0.059434112 -0.051840056 0.08135435 0.061115004 0.012344515 -0.01269584
-0.009736726 0.09293511 0.07340165 0.15081531 -0.012592468 -0.06821866 -0.011490971 0.036696285
-0.00079179625 -0.044719182 0.046992484 0.10887326 0.16715215 0.15346068 0.06816177 0.18161951
0.1014535 0.13487731 0.06448555 0.16822681 0.08048328 0.019451082 0.06591474 -0.004937127
0.12884541 0.12903988 0.13673499 0.14738214 0.1482854 0.17501351 -0.07446403 0.05232346
-0.040763002 0.059113156 0.14968611 -0.037412196 -0.025426036 -0.003305831 0.13731241 -0.009271166
0.0502989 0.09597727 -0.034850933 0.014398116 0.059896804 -0.0067002606 0.06209469 0.04554245
2.9546849e-05 0.10086702 -0.06982756 -0.048349805 0.17516616 0.012919169 -0.10140895 0.09310304
0.1558615 -0.029974755 0.101049766 0.036692455 0.09281678 -0.015512796 0.06268522 0.07270947
0.16836283 0.059833143 0.14198168 0.0012067122 0.078664385 0.1092949 0.12751581 0.0813457
0.13885294 -0.017684313 0.16012633 -0.047060996 0.1439896 -0.0016500663 -0.03238054 0.034676086
0.14131117 0.09118794 0.13203898 -0.024900699 0.044103183 0.13042781 0.029036177 -0.06422773
0.17422295 0.17651506 -0.0010470846 -0.065061994 -0.021341199 0.12074222 -0.03564592 -0.060564104
0.1674339 0.008232009 0.08017501 0.029573118 -0.0423163 0.14179252 0.12932579 0.13771307
0.052139066 0.09472999 0.007843749 0.034473702 0.119995736 0.07631405 0.15148115 0.061944596
0.03654533 0.060686834 0.16300641 -0.04023267 0.10457701 0.04335805 0.07152273 0.14685854
-0.0869616 0.12477544 0.12456432 -0.016122049 0.06800139 0.0762531 -0.08640832 -0.022168282
-0.072186306 0.11131143 0.06269595 -0.052130148 -0.06565555 -0.07899024 0.07557267 0.15087472
0.024138007 0.038956672 0.03799841 0.10116782 0.102986336 0.069770366 0.05500616 0.1534895
0.10794437 0.0945314 0.108299196 0.019823736 -0.017547322 0.10994353 0.014086712 -0.11112721
-0.024846785 -0.085246086 -0.043209154 -0.034362778 0.029041125 -0.024272064 0.01485948 0.026410608
0.1538326 -0.012502315 -0.05227038 -0.02647051 0.028425133 0.06754819 0.08422354 0.14382161
0.048637047 -0.06792613 0.06654084 -0.06983747 -0.024805615 -0.018480048 -0.009030291 0.15009733
0.017616438 0.0036488152 0.034787 -0.005628966 0.027070016 0.13704334 -0.12057103 0.12837663
0.109011985 0.013439614 0.01929071 0.16043764 -0.03202262 0.09509738 0.01822928 0.0025306665
0.1522511 0.06838843 0.13712871 -0.017266134 -0.015453839 0.15574455 0.052960876 0.05140871
0.14926213 0.04105343 -0.08320864 0.061378084 0.14146319 0.12812245 0.15813166 -0.04917892
0.15995188 0.11261621 -0.018438201 0.14389573 -0.07354435 0.002670438 0.13647974 -0.07364319
0.085302696 0.0017576216 -0.024047652 0.022729274 0.09971061 0.121640064 -0.07181971 -0.07370603
0.03655698 0.066594146 -0.06407058 0.032911465 -0.0025900723 0.16068763 -0.06304471 -0.014182517
0.14476603 0.10038628 0.032607216 -0.066556714 -0.034794427 0.06227481 0.10349986 0.123689465
-0.010793127 -0.017226163 0.09309632 0.088566326 -0.08298816 0.076664165 -0.029782264 0.13468209

fc2.bias f4 [64]
00000000: c43c f63d 8a7a 303d 00e6 a1bd b325 09bd
00000010: 3740 1c3e 982c ae3d 245d 64bc 20ca 293e
00000020: be36 0e3e e695 c3bd 3e90 563c e0ab 0c3e
00000030: e52a d2bc e47a b23c d584 c93d ddc5 503b
00000040: 175b bfbd 57d4 05bd b82b 28bc 3521 30bd
00000050: f416 e23b 90a6 2d3d 045a 6cbc dfe3 aebd
00000060: 2248 e3ba fd98 f6bd 757e 533d 14f0 fc3d
00000070: c4e7 b7bd da53 c03d 6368 a8bc 18f1 f4ba
00000080: da17 cb3d bfd2 6fbd 3d79 813c 0a2d dbbd
00000090: 2791 513d ca10 053d 8a93 ff3d 48b8 e4ba
000000a0: 7d8b d73c 37b8 72bd 0e8c adbb 1056 83bd
000000b0: 2290 fe3c 12b9 ba3d 40f4 c53d b5e8 cd3c
000000c0: 6e7d af3d 6ea8 123c f8d1 dcbc 4a9e c53d
000000d0: 67fd 66bc 11d7 0f3e f132 bcbb ae95 7ebd
000000e0: 4e61 fabc ad42 e13c 4e33 fc3d ce26 04bd
000000f0: e656 d8bd 9dea cb3c cc00 403d 21a4 283e
0.12023309 0.043085612 -0.07905197 -0.03348322 0.15258871 0.08504599 -0.013938222 0.16581011
0.1388807 -0.09550075 0.013095913 0.1373744 -0.02565522 0.021787114 0.09839789 0.0031856217
-0.09343546 -0.032673206 -0.01026433 -0.04300042 0.006899709 0.042395175 -0.014425758 -0.08539557
-0.0017340223 -0.12040899 0.05163427 0.12350479 -0.08979753 0.093909934 -0.020557588 -0.0018687574
0.09916659 -0.058550593 0.015804881 -0.1070195 0.05116382 0.032486714 0.12479313 -0.001744994
0.02631163 -0.059257712 -0.005296237 -0.064128995 0.031074587 0.091173306 0.096657276 0.025135377
0.08568846 0.00895129 -0.02695559 0.09649332 -0.014098502 0.14046885 -0.0057433774 -0.062154464
-0.030563977 0.027497614 0.12314473 -0.03226357 -0.105634496 0.024892146 0.04687576 0.1646886

fc3.weight f4 [8, 64]
00000000: 35af 01be 1483 8bbd f4e5 07bd b3bc 063d
00000010: 6b4e 53bd e9d7 14bc e47c 11be fac7 eebd
00000020: 517e aabd 7613 aa3d 7d2b 12bd 8e2e f5bd
00000030: 5098 b3bd ed6b e43d bc85 263c 5d71 033d
00000040: b3e5 1ebd 0688 5d3d 045b f6bc 24be 11bd
00000050: 584d 463b a427 cfbd 84c9 ad3d 731b f0bc
00000060: dc8d 17be c282 493d 6638 fdbd 29df 8abd
00000070: af68 87bb caf1 0cbe 4b46 fbbd cd15 a7bd
00000080: 7ec8 8bbb 7ddc f539 baf1 d63c d48f 43bd
00000090: b838 0dbe 30ca 88bc 2ad4 8f3d 4a04 92bc
000000a0: b655 03be e158 0abd f4b8 f6bb ae61 ffbd
000000b0: 953d 4e3d e257 f7bd 9ff7 2abe 4e68 113c
000000c0: b705 283d 68c2 253c 38c6 f73d d9ab a63c
000000d0: cb86 503c 5557 4cbc c710 30be 0b36 673d
000000e0: 5620 e6bd ad51 f2bd ab8b 0f3d 7278 e83c
000000f0: 10fd efbc 6d76 1abe 608f 04be 3011 2ebe
00000100: 9cda 29bd 26e7 dabd e409 6d3a a052 c13c
00000110: 4261 27be afe8 903d 2882 1abd 984e b63c
00000120: 9736 1f3d 2418 58bd b0e3 36bb 17cc 483c
00000130: 702e 753d 355c 033d b6c5 bdbd 32aa c03d
00000140: 9e3d 613d e1ad d03b 27d7 f1bb e12f 4cbd
00000150: 3ebc 26be f2b9 c2bb 38dc 353d 49b9 863d
00000160: fab7 e3bd 2531 99bd fb34 ecbd 5afc b8bd
00000170: 169b 3e3d 9fac 1cbe e421 0bbe 4c04 2c3d
00000180: 407e ccbd b97d f63c 40e7 533d 5084 e5bd
00000190: 9434 36be 6bd3 23be 7c7f 01be 8c6f dabd
000001a0: 2ace 45bd 6e8a 24bd cc33 1cbe d50c 80bd
000001b0: cd22 f5bb 62a7 7fbd 6a78 0fbe 95d5 b63d
000001c0: d9ff 86bd 14d4 63bc 60ec 8ebc 81aa 17bd
000001d0: 4111 5dbd c9b6 14be 14f9 cabd 6938 b6bd
000001e0: 516e 25be 3e9a d3bd 3fd5 2fbe 7bea 703a
000001f0: c06b 4abd b3d4 463c fa86 ffbd 9c03 0fbd
00000200: af3b 40bd ab72 d1bd 9eab bfbd d5ef b0bd
00000210: eb9e efbd c372 a93c 0d29 2ebe 59f6 463d
00000220: a5b1 00be e48a ff3d b22a 843d 244e 0cbe
00000230: ae54 1dbe b295 8fbd 8de6 823c 544c 853d
00000240: 0ab1 e13d 46c8 2abe 86b7 ffbd 3975 14be
00000250: 4cb7 64bc ad21 0b3d 6de0 063c 6c21 39bd
00000260: a22b 8bbd 75cc 0c3d 1add 10be 6254 a6bd
00000270: c0f0 a93c dec1 24be 1321 16be 657f b9bd
00000280: a2eb e5bd 8d9c b3bc 0cf5 a33c 6457 c33d
00000290: 3f4b 95bd 8fea a2bd 9fb2 05be b923 ed3c
000002a0: 5b4a 7f3d 10bc 01bd b83d 14be 2732 17bc
000002b0: b871 ebbd 77a4 223d 1b7f 2cbe f532 c03d
000002c0: 412c 22be 0ddf 703d d863 d33c 02fa 3cbd
000002d0: 8e57 7a3d 1fbc 50bd f89a efbd 33f8 26be
000002e0: dcbc 38bd 8a52 c83b c93e 33be 3767 7dbc
000002f0: 7488 b7bd 3fe1 dd3c 1fbc 59bd b919 b1bd
00000300: 1da2 97bd cc64 473d 13d1 25be 01a9 89bd
00000310: 8457 d1bb 82bb e7bd a910 1abe a1ce f2bd
00000320: f0ad dc3b f40f 28bd e07d 01bc 4089 24bd
00000330: c857 5d3b f0f6 b73b 14fd 0bbe d8d9 a8bc
00000340: 3e70 bd3d c353 a9bb fe7b a5bb 06dd c2bd
00000350: 7403 fcbd d5fd 633d c1f6 16bd 84f9 e33c
00000360: 6544 04be 0b98 6d3b 9e83 07be 8910 61bd
00000370: 43e8 8d3d a576 26be b840 14be 8a5e 18be
00000380: 1b46 19be ae80 0abc b0af f4bd b884 ffbd
00000390: aaa4 0ebe a12b 45bd 3f3c 413d e62a e3bd
000003a0: cc15 81bd 38ba d4bd 43f6 26bd ffb6 bebd
000003b0: 6a7a f5bd 9e18 f2bd 489b 753d 7104 bf3d
000003c0: df46 e63c 2fc5 28be e832 53bd 3f64 4dbd
000003d0: 8972 01be 7b96 5cbd 0772 f2ba 6f8f 19be
000003e0: eb9d 593b ba1e 743c 26af 55bd 1443 edbc
000003f0: 16d0 ab3d ea20 9fbd 2235 2dbe 9310 84bd
-0.12664492 -0.068121105 -0.033178285 0.0328948 -0.051588457 -0.00908468 -0.14207798 -0.11659236
-0.08324874 0.08304493 -0.035686005 -0.1197177 -0.08769286 0.11153398 0.010163721 0.032090534
-0.038793277 0.0540848 -0.030072697 -0.035581723 0.0030258503 -0.10114983 0.08485702 -0.029309964
-0.14800209 0.049196966 -0.12364273 -0.06780846 -0.0041323523 -0.1376411 -0.12269267 -0.08158455
-0.004265844 0.00046894318 0.026238311 -0.047744587 -0.13791168 -0.016697973 0.07022889 -0.01782431
-0.12825665 -0.033776168 -0.0075293723 -0.12469803 0.050351698 -0.12077309 -0.16696022 0.008874966
0.041021075 0.010117151 0.12098354 0.020345615 0.01272745 -0.012471993 -0.171939 0.056448024
-0.11236636 -0.11831985 0.035045307 0.028377745 -0.029295474 -0.15084238 -0.12945318 -0.16998744
-0.041468248 -0.10688619 0.00090423063 0.023598969 -0.16345695 0.07075631 -0.037721783 0.022254273
0.03887042 -0.052757397 -0.0027906708 0.01225569 0.05985874 0.032070357 -0.09266226 0.09407462
0.054990403 0.006368384 -0.0073803845 -0.04985035 -0.16282746 -0.0059425766 0.04439947 0.06578309
-0.11119075 -0.07480077 -0.11533543 -0.09032507 0.04653462 -0.15300225 -0.13587147 0.041996285
-0.09985018 0.030089246 0.05173421 -0.11206877 -0.17793494 -0.15998618 -0.12646288 -0.10665807
-0.048292316 -0.04017108 -0.15254134 -0.062524475 -0.007480955 -0.062415488 -0.14010778 0.08927456
-0.06591768 -0.013905544 -0.017446697 -0.03702784 -0.053971533 -0.14522852 -0.09910789 -0.08897478
-0.16155364 -0.10332154 -0.1717119 0.0009190214 -0.049419165 0.012135672 -0.124769166 -0.03491555
-0.04693192 -0.10226949 -0.09358905 -0.08639494 -0.11700233 0.020684605 -0.17007847 0.04857478
-0.12567766 0.12477663 0.06453456 -0.13701683 -0.15364334 -0.07010974 0.015979076 0.06508699
0.11020096 -0.16677961 -0.12486176 -0.14497842 -0.013959717 0.033967663 0.008232218 -0.04519789
-0.06795432 0.034374673 -0.14146844 -0.081215635 0.020744681 -0.1608958 -0.14661054 -0.09057502
-0.11226584 -0.021925235 0.020014308 0.09538153 -0.07289743 -0.07954895 -0.1305642 0.028947698
0.06232677 -0.03167349 -0.14476669 -0.009228266 -0.114962995 0.039707627 -0.16845362 0.09384719
-0.15837194 0.058806468 0.025804445 -0.046136864 0.061118655 -0.050960656 -0.1169948 -0.16305618
-0.045101985 0.006113355 -0.1750442 -0.015466503 -0.08961573 0.027084945 -0.053157922 -0.08647484
-0.074039675 0.04868011 -0.16193037 -0.06721688 -0.0063886065 -0.11315061 -0.15045418 -0.118558176
0.006734602 -0.04103084 -0.007903546 -0.040169954 0.0033774246 0.005614154 -0.1367076 -0.020611688
0.09249924 -0.005167456 -0.0050501814 -0.09514813 -0.12305346 0.055661995 -0.036856417 0.02782894
-0.12916715 0.0036253955 -0.13233802 -0.05494741 0.06929066 -0.16256197 -0.14477813 -0.14879814
-0.1496815 -0.008453531 -0.11947572 -0.12476486 -0.13930002 -0.04813731 0.047176596 -0.110921666
-0.063029855 -0.10387081 -0.040762197 -0.093122475 -0.11986239 -0.118211016 0.05996254 0.09327019
0.028109966 -0.1648147 -0.05156222 -0.05014443 -0.12641348 -0.053854447 -0.0018497118 -0.14996122
0.0033205699 0.014899904 -0.052168988 -0.02896265 0.083892986 -0.0776995 -0.169148 -0.06448474

fc3.bias f4 [8]
00000000: 81e2 03be c0ee 973a b73c 21bd 381c a2bd
00000010: d4ec a4bd 54c7 e0bd 40ec f8bc 499a 64bd
-0.12879373 0.0011591539 -0.039364543 -0.079155385 -0.08052984 -0.10975519 -0.03038609 -0.0558112
