matchmaking_model.pth (torch, 29095 bytes, 6 tensors)

fc1.weight f4 [64, 31]
000000 1a 19 28 3d 74 d4 8c bd da 36 18 be 25 cd 34 3e
       0.041039564 -0.0687646 -0.14864674 0.17656381
000010 e4 de bb bc 42 96 43 3e a3 c4 c6 bd ef 05 d1 bd
       -0.022933431 0.19100288 -0.09705474 -0.1020621
000020 7b 3f c2 bc 39 6f de 3d b8 6a 9b 3d 97 53 49 3e
       -0.02371191 0.10861058 0.07588714 0.19660793
000030 fe fa 1c bc 94 2f 4f 3e d1 6a 81 bd 62 1a 45 3e
       -0.009581326 0.20232993 -0.06319202 0.19248345
000040 71 05 53 3e 3d 38 54 3c dc 31 a1 3d fc 19 0f be
       0.20607544 0.012952861 0.07870838 -0.13974756
000050 61 21 1d 3d 55 a4 43 3e b0 16 38 3d 75 32 55 3e
       0.03836191 0.19105656 0.04494351 0.20820029
000060 71 87 1b bd 19 b7 09 3e 64 22 53 bd db bc 09 be
       -0.037970964 0.13448752 -0.05154647 -0.13450949
000070 c5 27 53 3e ae c9 ea bd 9d b0 93 bd f2 d4 ab bd
       0.2062064 -0.114642486 -0.07211421 -0.083902255
000080 07 db a7 3d 06 d8 d4 3d 40 bf a1 bd 90 e6 8f 3b
       0.08196073 0.10392766 -0.07897806 0.004391499
000090 d7 0c 00 3e fd 09 3c 3e ff fb b9 bd 2c be 4c 3e
       0.12504898 0.18363185 -0.090812676 0.1999442
0000a0 67 7e 43 3d 94 89 48 3e b4 c5 09 be e5 80 03 be
       0.04772797 0.19583732 -0.13454324 -0.12842138
0000b0 c1 eb 28 bd 2e 42 0f 3e 4f 6f 29 3e 02 1d 44 bd
       -0.041240457 0.1399009 0.16546367 -0.047879227
0000c0 8e 98 00 bc 6b 3b a8 3d 21 ae 04 be f4 24 81 bd
       -0.007848872 0.08214458 -0.1295705 -0.063058764
0000d0 1e 67 93 bd d9 12 6d 3d 30 8e 8a 3d cc f5 f7 3c
       -0.071974024 0.057879303 0.06765401 0.030268572
0000e0 e5 73 77 3b 73 ac ae 3d 5a 91 39 3d de 26 b3 bd
       0.0037758288 0.08528986 0.045304634 -0.08747648
0000f0 78 02 4a bd 12 91 e4 3d fa c2 bf 3d ea 1a 18 3e
       -0.04931876 0.111604825 0.09363361 0.14854017
000100 ac 5b 9e 3d 4d 76 04 be 35 d3 43 3e 80 0a 98 3d
       0.07732329 -0.12935753 0.19123538 0.07423878
000110 d4 94 d6 bb 0b 70 46 3c b0 6d a9 3d 87 88 79 3d
       -0.0065485034 0.012111674 0.08272874 0.06092122
000120 8e 05 6b bb f1 fd a5 3d 2e 4d 1a bd 8b 1a 8d 3d
       -0.0035861465 0.08105076 -0.03767126 0.06889828
000130 c3 3c 50 3c b1 3e 90 bd d3 15 d4 bd b5 9b 30 3e
       0.012709799 -0.070432074 -0.10355725 0.17246898
000140 db f2 d9 3d e7 07 cf 3d ce fc ba 3d cb e1 31 3e
       0.10642024 0.10108929 0.0913025 0.1737129
000150 9f fc da bd 7f 8b 5e 3c 2f 28 77 3c cc db 88 3d
       -0.10692715 0.013583063 0.015085264 0.06682548
000160 97 71 13 3e 55 bb 23 bd bd a4 a4 3d a2 a7 05 bd
       0.143988 -0.039973576 0.08039234 -0.03263057
000170 57 bd d9 3d 96 5e 14 3e f3 50 89 3d 7c 63 80 bd
       0.10631817 0.14489207 0.06704893 -0.06268975
000180 43 7a 8c bd f0 2d 07 be 8a 25 11 be 91 d5 00 be
       -0.06859257 -0.13201118 -0.14174476 -0.12581469
000190 9e 84 1a 3e 74 87 9a bd 4f ee 32 bd a8 cb 38 3e
       0.15089652 -0.07545367 -0.0436843 0.18046439
0001a0 b9 61 87 bd 4d 21 98 3d 81 1c d4 3d 6d 68 a2 3d
       -0.06610436 0.074282266 0.10356999 0.07930074
0001b0 90 18 3e 3e 6b 1b 78 bc e0 4c 85 bb 8a 34 52 bd
       0.18564057 -0.015143256 -0.004068002 -0.051319636
0001c0 eb 26 ac bc 83 3b 99 bd c2 21 27 bc c6 fc 29 3e
       -0.021014651 -0.07482054 -0.01020092 0.16600332
0001d0 e8 3d ed 3c 15 7c 55 3e f2 c5 e2 3b 99 49 17 3b
       0.028960183 0.20848115 0.0069205696 0.002308464
0001e0 03 d3 6e 3d a2 18 c9 bd 27 56 1c 3e 75 d5 c9 3d
       0.058306705 -0.098191515 0.1526724 0.09855167
0001f0 29 ec 94 3d 2b 60 45 3e c4 07 8c 3d c0 f6 a6 bd
       0.072716065 0.19274966 0.06837419 -0.081525326
000200 cd 13 e3 bd ff 57 f3 bd 02 16 d9 3b c3 18 11 be
       -0.11087761 -0.11882018 0.006624938 -0.14169602
000210 96 1d c3 3c 6e 8e a2 3d 9b 94 b4 bd ec f6 d5 3d
       0.023817819 0.079373226 -0.08817407 0.10447487
000220 bb 37 22 bd a0 37 52 3e 6e d7 88 3d 9b 73 e0 bd
       -0.03960393 0.20529032 0.06681715 -0.1095955
000230 1e ed 19 3e 3d 68 cc 3b 09 33 c3 3d bb d0 cb 3d
       0.1503186 0.006238012 0.095312186 0.099519216
000240 85 ed 43 3e 13 cc 24 3e 63 a5 39 3e e4 e0 47 3e
       0.19133575 0.16093473 0.18129496 0.19519383
000250 1d dc 27 bd 56 7e 38 3d 5f 25 4d 3e 31 1a 02 be
       -0.0409814 0.04504236 0.20033787 -0.12705304
000260 a5 f8 da 3d 91 16 1b 3e 4a 4b ab 3c a5 13 4c 3e
       0.106919564 0.15145327 0.020909924 0.19929369
000270 0a 18 6b 3c 04 3b ad bb 4e 10 e2 bd ea e9 43 3e
       0.014348993 -0.005286576 -0.11038266 0.191322
000280 7b 1c 6a 3e 89 22 de bd be 9d 15 3b 8e 86 6b 3e
       0.22862427 -0.10846431 0.0022829617 0.23000547
000290 31 57 c4 bd a1 96 63 3d 2b 0a 41 bd 23 d5 22 bd
       -0.09586943 0.055563573 -0.047128838 -0.039754044
0002a0 28 9a e0 3d c4 90 13 be a2 ff ba 3a c8 d8 53 3e
       0.10966903 -0.14410692 0.0014266858 0.20688164
0002b0 b9 d7 47 3e 24 6a 35 3d 7e ea 92 3c 62 74 c3 3d
       0.19515885 0.044290677 0.01793408 0.09543683
0002c0 e8 78 fb bd 9b 54 0e be a0 da e8 3d 60 99 27 bd
       -0.122789204 -0.13899462 0.113698244 -0.040917754
0002d0 d3 92 94 3d d4 bc e6 bd 1d 5a d8 bd e2 e4 88 bd
       0.07254567 -0.11266485 -0.10564063 -0.06684281
0002e0 80 10 98 bb ba 2c b9 bd 26 b6 0b be 3e ef aa bd
       -0.004640639 -0.09041734 -0.13643703 -0.08346413
0002f0 b2 f9 84 3c 6c 41 a3 3d 7c 22 e3 3c 48 5b 3a bc
       0.016232345 0.079714626 0.027726404 -0.011374302
000300 5d 0e 65 3d 9f 02 ad bc 3a dc 41 bc 30 16 59 bc
       0.0559219 -0.021119414 -0.011832291 -0.013249919
000310 d3 8c e9 3c d9 51 89 3d 07 3b 59 3c 77 86 b5 bd
       0.028509533 0.06705064 0.013258702 -0.08863538
000320 31 a7 c0 3d 5d 64 0d be 16 de 31 3e 4c 1b 88 bd
       0.09406889 -0.13807817 0.17369875 -0.066458315
000330 13 83 57 3e 9d 5b 7d bd bc db bc 3c a8 63 d5 3d
       0.21046095 -0.061854947 0.023053996 0.104193985
000340 38 e7 26 3d 7f b6 0a 3d e8 2c 97 3d d8 eb ca 3c
       0.04074785 0.033865448 0.07381612 0.024770662
000350 b1 88 84 3d 0e 54 37 3e a5 76 ec bd 8c 2e 02 3e
       0.06471384 0.17903158 -0.11546067 0.12713069
000360 6c 0a ee 3c 0a f6 fc 3c 88 f0 49 3e 52 ec 50 3e
       0.029057704 0.03087904 0.19720662 0.20402649
000370 ce 77 9a 3d 34 c2 a9 3c 69 9b 2f 3e af ea 97 3d
       0.07542382 0.020722486 0.17149128 0.07417809
000380 59 f7 89 3d 7f 35 9e 3d 31 ea 3d bd a8 77 1b 3d
       0.06736631 0.07725047 -0.04636592 0.03795591
000390 8a 3c 9e 3d 2e a5 92 bd 2e 4b c3 bd cf 6f f4 3d
       0.07726391 -0.07160412 -0.09535824 0.11935388
0003a0 a5 cf d7 bb 8d 23 d8 bc f9 06 b0 3c 3d a3 5d 3e
       -0.0065860325 -0.02638414 0.0214877 0.21644302
0003b0 19 16 cb 3d 2d 06 ec bc 97 88 12 bd 8f 42 a9 bd
       0.09916324 -0.028811539 -0.035774793 -0.08264648
0003c0 53 0f 44 3c 21 4a 76 3c d4 9a 9a 3c f1 3f a9 3d
       0.011966544 0.015032322 0.018872656 0.08264149
0003d0 77 5c f0 3d 7b 80 3e 3e 8a 63 7d bd 87 36 e2 bd
       0.11736386 0.18603699 -0.061862506 -0.110455565
0003e0 18 9f 0b bd a4 10 2b 3c 43 81 e7 3d 23 d3 f1 3d
       -0.03408727 0.010440979 0.113039516 0.11807849
0003f0 83 57 bc 3d 70 2d ec bd 04 72 11 bd 41 31 b8 bd
       0.09196379 -0.11532104 -0.035509124 -0.089937694

fc1.bias f4 [64]
000000 f3 f7 3b 3e 8a f9 92 3c 04 46 bf bd d1 cb 34 3d
       0.18356304 0.017941255 -0.09339526 0.044139687
000010 fc d7 f1 bd 34 81 0a 3d d0 12 85 bd 10 3a 70 3c
       -0.11808774 0.033814624 -0.06497729 0.014662281
000020 a9 89 b6 3d 35 c1 df 3d 27 92 24 3e c3 69 f5 bd
       0.08912975 0.10925523 0.16071378 -0.11983063
000030 67 c7 03 3d 74 b8 7c 3d 0b d9 7a bd fa 22 59 bd
       0.032172587 0.061699346 -0.061242145 -0.053011872
000040 3b 2d c5 3d 49 b6 15 be c8 75 eb 3d 90 5a 25 3e
       0.09627768 -0.14620318 0.11497074 0.16147828
000050 9b 5b 32 3e be 76 cf bd c3 ac 1d be 68 1e af 3d
       0.17417757 -0.1013007 -0.15397935 0.085507214
000060 31 8e e1 3d ec fa ae bc 3a 67 69 bd af d6 05 be
       0.11013449 -0.021359883 -0.05698321 -0.13070177
000070 88 2f 00 bb d7 0c 48 3e 27 1c 44 3e 47 88 31 bd
       -0.001955958 0.19536148 0.19151364 -0.043342855
000080 c2 88 2d bd 70 20 86 bd e4 d5 08 bd 6a 29 0e bd
       -0.04236675 -0.06549156 -0.033407107 -0.034707464
000090 18 1c 63 bd 4a e1 64 bd 60 ac 99 3d 32 9d 98 3c
       -0.055446714 -0.055878915 0.07503581 0.018629644
0000a0 96 0e 64 3d d8 84 01 3e eb b0 c2 3d f5 b8 04 3e
       0.055677973 0.12648332 0.09506401 0.1296118
0000b0 48 4a f8 3d 5e 84 9d 3d 7e e4 fe 3d b1 89 ac bd
       0.12123543 0.07691263 0.12445925 -0.084247
0000c0 d8 c9 06 3e 7c a1 d8 3d 62 6f 0e bd 7a b4 5c bd
       0.13162935 0.10577676 -0.03477419 -0.053883053
0000d0 e3 0c bb bc 06 a6 ca bc 7f c9 81 3c 83 f3 0f be
       -0.022833293 -0.02473737 0.015843151 -0.14057736
0000e0 a8 a7 65 3d 69 1f f3 3d b0 07 02 be 09 6f f4 ba
       0.056068093 0.118712254 -0.12698245 -0.0018648814
0000f0 2f c1 a7 bd 81 c8 35 bd 19 03 65 bd d9 3d 6e bd
       -0.08191144 -0.04438067 -0.055911157 -0.05816445

fc2.weight f4 [64, 64]
000000 84 46 f1 3c 20 79 57 bc 3f c6 76 3d 18 a8 a0 bd
       0.02945257 -0.013151437 0.060247656 -0.07844561
000010 c5 f3 8f 3a f0 1b f2 bc 18 83 de 3d 40 f0 07 bd
       0.0010982683 -0.029554337 0.10864848 -0.033188105
000020 78 66 9f bc ee 38 73 bd 37 80 7d 3d b8 3c 06 bd
       -0.01945804 -0.059380464 0.061889853 -0.03277275
000030 14 e7 6f 3d 7b b0 ef bd 31 16 86 3d 28 51 c9 bc
       0.058569983 -0.11703583 0.065472014 -0.024574831
000040 d0 37 fc bc cd 22 b6 bc 7c d9 ea bd 38 bc 48 bd
       -0.030788332 -0.022233391 -0.11467263 -0.049007624
000050 28 7d 8d bd 88 b4 c0 3d f1 87 81 bc a2 f6 a7 bd
       -0.06908637 0.094094336 -0.015811892 -0.08201338
000060 8e 74 fd bd 48 ff ca bc c8 45 e2 bd 40 c7 39 bd
       -0.12375747 -0.02477993 -0.11048466 -0.045356035
000070 14 bf 96 bd c4 7d 5b bd 55 e7 27 3d 08 36 95 3d
       -0.07360664 -0.053586736 0.0409921 0.07285696
000080 10 86 44 3c 44 6a 2a bc 18 d1 99 3d ec e6 e3 bd
       0.011994854 -0.010401312 0.075105846 -0.11128029
000090 a4 32 c3 3d 7d 76 e4 bd f0 32 ff 3c 0d 83 1c 3d
       0.09531143 -0.11155412 0.031152219 0.038210917
0000a0 4f 6c 35 3b ed bb b1 bc dd 9f 71 bd bb 5a 88 3d
       0.0027682965 -0.021696055 -0.058990348 0.066579305
0000b0 73 b8 88 bd 74 39 66 bd ac 92 37 bd ab 8a 24 3c
       -0.06675806 -0.056207135 -0.04481761 0.010042827
0000c0 31 68 8a bd 26 99 89 3d d6 94 b3 bd 04 1d f3 bd
       -0.06758154 0.06718664 -0.087686226 -0.11870769
0000d0 51 f1 e2 bd 98 f7 8d bd ac 1d 68 3d c8 b4 c9 bc
       -0.11081184 -0.069319904 0.056668922 -0.024622336
0000e0 d0 30 4d 3d 25 0c 0b 3d 48 af 96 3d 61 f2 2e 3d
       0.05009538 0.03394713 0.07357651 0.04271162
0000f0 21 05 a5 bd 99 8b b6 3d f1 6d e8 3c d0 a4 01 3d
       -0.08057619 0.08913345 0.028372737 0.031651318
000100 e7 67 2b bd 8d 7f a1 3d 5d 85 08 3d 51 3e 08 3e
       -0.041847136 0.078856565 0.03333031 0.13305022
000110 5e 4e 12 3e a1 51 f7 bd a2 87 f1 3b 59 de d0 bb
       0.14287707 -0.12076116 0.007370905 -0.006374162
000120 98 a6 03 be a5 96 43 bc d3 dc 75 3d 1a b3 1a 3e
       -0.12856519 -0.011937772 0.060025048 0.15107384
000130 ef 08 67 3d 7c db ab bd f3 4d d6 3d 4d d2 9d 3d
       0.056405004 -0.08391473 0.104640864 0.07706127
000140 6e 8a 58 3d 9a 9c da bc 9a 14 2d 3c b4 11 f9 bc
       0.05286639 -0.026686002 0.010563994 -0.03040395
000150 81 ed a4 3d 8c b7 a6 bd 00 78 e5 3d 6d 24 ce bd
       0.08053113 -0.081404775 0.11204529 -0.100655414
000160 61 1f 25 bc 88 fd 22 bd b5 8b ef 3d 96 28 97 bd
       -0.010078282 -0.039792567 0.11696569 -0.07380788
000170 4e 54 e9 3d 10 44 f0 3d ec 49 35 bd ce d1 b6 bd
       0.11393033 0.11731732 -0.04425995 -0.08926736
000180 c0 6d 8f 3d 24 9c d4 bc cc f9 ec 3d cd 3c 26 3e
       0.07003355 -0.02595336 0.115710825 0.16234131
000190 62 23 9a 3d bd 5e 0b 3e e1 0a 66 bd b8 8c 18 3e
       0.0752628 0.13610359 -0.05616272 0.1489743
0001a0 51 c5 01 3d 9f 96 1c 3c 11 8d f8 3d db 8d 8c 3c
       0.031682316 0.009557395 0.12136281 0.017157486
0001b0 e8 ee e2 3d e6 b6 d7 3d 45 25 16 3e 76 fc 0a 3e
       0.11080724 0.10532932 0.14662655 0.13572869
0001c0 d8 a5 e6 3d d6 4d 02 3e c1 d9 8f 3c 4b 5e e2 3d
       0.11262101 0.12725005 0.017559888 0.11053141
0001d0 bc ae 1a 3e 7c 63 cc bc 6f 74 70 3d df 3c 84 3d
       0.15105718 -0.024949782 0.05870479 0.06456923
0001e0 d8 51 b3 bb 0e b9 a2 bc d2 79 34 bd 91 c4 82 bd
       -0.005472403 -0.019863632 -0.04406149 -0.06385148
0001f0 dc ab 42 3c 78 69 6e bd fd 04 be 3c d4 02 80 bd
       0.011881795 -0.05820605 0.023195738 -0.062505394
000200 19 d0 6e 3d d7 ce a3 3d 2e 2d b3 bd af e8 53 bb
       0.058303926 0.07998436 -0.08748852 -0.0032334735
000210 45 9e 76 3d 60 57 28 bb fb 57 c0 3c 9e 88 94 bd
       0.06020953 -0.0025686845 0.023479452 -0.0725262
000220 4d bc 35 bd 48 1d 0b 3c b6 49 88 bc db e4 f5 3d
       -0.04436903 0.008490868 -0.01663671 0.12006541
000230 82 41 19 3e a5 93 37 3c 49 71 08 3e 43 dc 60 bd
       0.14966395 0.011204635 0.13324465 -0.054897558
000240 84 a0 43 bd 79 97 ec bd 1c 0d ba 3d 85 3d 0b 3d
       -0.0477605 -0.115523286 0.09084532 0.033994216
000250 1f aa 53 bd d4 54 c9 3d f4 e1 82 bb f0 bd 08 3d
       -0.051675912 0.09830633 -0.003994221 0.033384264
000260 ca a1 57 3c c3 2c 85 bd 14 ec 41 bd 48 c4 ea 3d
       0.013161132 -0.06502678 -0.047344282 0.11463219
000270 5e 07 87 bd a1 48 7a bd 3f 4e 3e bc 67 4a 18 3d
       -0.06593202 -0.06110442 -0.011615335 0.03718033
000280 b2 6b 39 3e 79 16 14 3e 52 60 5e 3d 8d 2f ba 3d
       0.18107489 0.14461698 0.054291077 0.09091101
000290 03 77 27 3e 08 99 0e be 4f 51 d6 3d 52 f6 86 bd
       0.16353993 -0.13925564 0.10464727 -0.065899506
0002a0 b4 03 b1 3d d1 a6 74 bd 31 fc 06 3d 9d 11 b5 3c
       0.086432844 -0.0597294 0.032955352 0.022103125
0002b0 eb 79 a1 3c 75 62 bf bc 28 61 0f 3e 23 ab e0 bb
       0.019711455 -0.023362378 0.14001906 -0.0068563386
0002c0 8b 01 6c 3d c6 c1 da 3d e8 32 f2 3d ef c7 90 bb
       0.05761866 0.106814906 0.11826116 -0.004418365
0002d0 77 0e 89 3c b9 d6 88 bd fb 8d f7 bc 43 b7 76 3d
       0.01673053 -0.0668158 -0.030219069 0.060233366
0002e0 50 6a 15 bd 91 06 8c 3c 43 a7 b0 3d 58 e2 1d 3d
       -0.03647834 0.017092975 0.08625653 0.038545936
0002f0 cf 87 6d 3c cb 6e 28 3e f8 d8 8c bd d4 c5 66 3d
       0.014497711 0.16448514 -0.06877321 0.056341007
000300 fa 81 7c bd 6a 56 13 3e 22 6f a2 3d 82 31 1f 3e
       -0.061647393 0.14388433 0.07931353 0.1554623
000310 85 a1 1f 3e 92 9e 3d bc 86 18 c9 3d d9 ca c5 3d
       0.15588959 -0.011573451 0.098191306 0.09657831
000320 0a 39 1f bc 49 73 4e ba 05 ab 2e 3d 49 fc ac bd
       -0.009718189 -0.0007875455 0.042643566 -0.08446557
000330 42 55 19 3e 74 5c b8 3d 1d db 8f bd a4 f9 b7 bc
       0.1497393 0.09002009 -0.070242144 -0.022457905
000340 b1 79 b6 3d 0e 9b fe 3d 00 04 23 3e 5a c0 3b bc
       0.089099295 0.12431918 0.15919495 -0.011459434
000350 33 af c1 3d 68 a7 70 3d 8b 54 db 3d 8c 71 e7 bd
       0.09457245 0.0587534 0.10709485 -0.11300954
000360 f0 28 ac bc 95 9f bf 3d d6 b2 85 bb a2 43 f3 3c
       -0.021015614 0.0935661 -0.004080157 0.029695336
000370 30 34 12 3e a6 e5 13 3e eb c3 50 3d 88 c3 05 be
       0.1427772 0.14443073 0.050968092 -0.1306287
000380 69 33 13 be cf 00 91 3d aa ef 3f bd b4 5d 7e bd
       -0.1437508 0.07080232 -0.04685942 -0.06210108
000390 bd 17 cd 3d 8e f6 ad 3d 17 e2 49 3d 92 4c 1a 3e
       0.10014293 0.08494292 0.04928788 0.15068272
0003a0 4f 20 ac 3d 98 7b 82 3b 52 84 78 bd bf d9 1f 3b
       0.084046 0.0039820187 -0.060673065 0.0024391261
0003b0 d1 e9 af bd 34 4d 08 3e 95 12 a3 bd d7 bd 0f bd
       -0.08589519 0.133107 -0.079625286 -0.035093155
0003c0 ba bb 9d bd 91 61 5b bd 43 b2 0f 3c 3e b3 3f bd
       -0.077018216 -0.053559843 0.008770528 -0.046801798
0003d0 2f cb a9 3d da 7b 0e 3e 33 03 67 3d 28 5c d6 bb
       0.08290707 0.13914433 0.056399535 -0.0065417476
0003e0 8b 87 7c bd a2 79 20 3d 6c 9d 47 bd bb 66 b4 bd
       -0.0616527 0.039178498 -0.048734114 -0.08808657
0003f0 d0 03 22 3e 95 56 e0 bc aa 5c 58 3d 94 f8 aa bd
       0.15821767 -0.027385036 0.052822746 -0.08348194

fc2.bias f4 [64]
000000 0a c5 fa bd 86 c2 a4 bd 97 a0 84 3d 8c f2 32 3d
       -0.122446135 -0.08044915 0.064759426 0.043688342
000010 e0 50 42 3d b4 6b ff 3d 46 d3 29 3e c2 6f ee bc
       0.04744041 0.124717146 0.165845 -0.029106025
000020 c2 1c 84 3d f0 42 b0 bd 9a 50 ca bc ac b1 c0 3d
       0.064507976 -0.08606517 -0.024696637 0.09408888
000030 a2 f9 b9 3d 89 cf 7b 3b 04 31 8d bd 95 1c 61 bd
       0.09080817 0.003842326 -0.068941146 -0.0549589
000040 ff e0 a3 bd eb 53 de 3d b5 88 b2 3c 5c fe ad bc
       -0.08001899 0.1085585 0.021793703 -0.021239452
000050 c1 e4 ef 3d 91 0e 75 bd 9b f7 38 3d 0e 9c bc 3d
       0.11713553 -0.059828345 0.04515801 0.092094526
000060 3d ba dd bd c3 09 0c 3e 3b 02 94 3d 98 c7 9c bb
       -0.10826538 0.13675599 0.07226988 -0.0047845356
000070 7e 11 de 3d 53 bd 19 3e cf da 95 bd 88 34 fe 3d
       0.1084318 0.15013628 -0.07317125 0.12412363
000080 b6 2b ce 3d d1 ac a1 3d 78 29 66 3d 5f 80 d0 bd
       0.10066931 0.0789429 0.05619189 -0.10180735
000090 e2 ab 17 3d 4a c6 84 3d b9 36 26 3d cb b3 01 be
       0.037029155 0.06483133 0.04057953 -0.12666242
0000a0 57 ef e9 3d fe 05 1c 3e d2 7f 10 be 2d ab 5e bd
       0.114226036 0.15236661 -0.1411126 -0.054362465
0000b0 60 48 c9 3d b9 c4 23 bd e3 f9 15 3e 30 78 c9 bd
       0.098282576 -0.03998253 0.14646105 -0.09837377
0000c0 bc 9b b1 3d cd da 12 3d 40 a6 b0 bc 79 28 81 bd
       0.08672282 0.035853196 -0.02156365 -0.06306548
0000d0 1f 43 c9 3c f7 41 c1 bd 6d f1 ce bc 8f d4 08 3b
       0.024568139 -0.0943641 -0.025261605 0.0020878648
0000e0 43 9c c7 bd 4d 05 14 bb 28 87 aa 3d a8 f9 23 bd
       -0.097466014 -0.0022586167 0.0832656 -0.040033013
0000f0 15 e5 c4 bd 55 0c b7 bd c2 3b f8 bc 54 74 88 3c
       -0.096140064 -0.08937899 -0.030301932 0.016657032

fc3.weight f4 [8, 64]
000000 28 af eb 3d b2 eb 01 3e 4f c5 bc 3d 1a 92 1c 3c
       0.11508018 0.12687567 0.09217321 0.009556318
000010 7b e8 2d bd 83 87 7d bd 8a 51 b5 bd 39 0d e3 3d
       -0.04245804 -0.061896812 -0.08853443 0.110865064
000020 ac 00 ae 3c 64 1e aa 3d e1 19 d4 3c 2a bc ac bd
       0.021240555 0.08306578 0.025891246 -0.08434327
000030 3f 93 fa bc bc e7 9c 3c 20 6f 66 3d 29 e3 80 bd
       -0.03058779 0.019153468 0.05625832 -0.06293327
000040 db fa d1 3d 1e 8e b4 ba 22 f4 b0 bd a1 b5 b2 3d
       0.10252925 -0.0013775264 -0.08640315 0.08726049
000050 b4 87 4c bd 34 fe d2 3d 8a 64 b5 bd 6b b4 33 bd
       -0.049934104 0.10302392 -0.08857067 -0.04387323
000060 98 00 8a bd f5 2f fc 3d f5 25 8b bd 3e 6d bb bd
       -0.067383945 0.123138346 -0.06794349 -0.09151696
000070 ef 7a a2 3d c8 e3 c0 3d ac 0f cb 3d f1 be 02 3e
       0.07933604 0.09418446 0.099150985 0.12768151
000080 6f 7d 34 3d 77 9f bc bd 42 e8 af bd 5b f4 a8 3d
       0.044064935 -0.09210103 -0.085892215 0.08249732
000090 82 1f 08 3e e3 28 1c bd 13 32 1e 3e 43 b1 17 3d
       0.1329327 -0.03812493 0.1544879 0.037034284
0000a0 1d a7 8d 3d e0 58 7a 3d ae 97 4e bd 40 ad 28 3c
       0.0691664 0.061119914 -0.05043762 0.010295212
0000b0 ed 03 d9 3c 4b 3f 98 3a ed f9 4f 3d c1 a4 a2 3d
       0.02649113 0.0011615542 0.050775457 0.079415806
0000c0 61 9f f5 3d d0 8b cf 3d 44 75 de 3c 0f 3b ba bd
       0.1199329 0.10134089 0.027155526 -0.09093296
0000d0 da 47 cc bd 91 ac 03 bd 63 63 fd bd cd 18 1b 3e
       -0.09974642 -0.032146994 -0.12372472 0.1514618
0000e0 77 8d 71 3d e0 c1 83 bd f6 ed 8a 3c 0c 27 ba 3d
       0.058972802 -0.06433463 0.016959172 0.09089479
0000f0 f8 f8 48 3d 23 1c 05 3e 95 66 e7 bc 52 8f 02 be
       0.04906556 0.12999015 -0.028247157 -0.12749985
000100 6f 05 7e bd da 69 fc 3d 78 ac 8d bd 84 41 ff 3c
       -0.0620169 0.12324877 -0.069176614 0.03115917
000110 9f 8a 77 3c 6c bb 03 bd 0b 47 96 bd fd 04 c6 bc
       0.015108733 -0.03216116 -0.07337769 -0.0241723
000120 b1 43 b7 3c a8 a0 0d 3e c5 f6 e2 3c 2f 88 61 3d
       0.022371145 0.13830817 0.02770556 0.055061515
000130 50 29 7c bd ea 24 cc 3d 3b dc b0 3c 7e 2f 02 bd
       -0.061562836 0.09967978 0.02158939 -0.031783573
000140 64 d1 37 bd b8 d7 46 3d 15 79 b9 bd 2a 34 cc 3d
       -0.044877425 0.04854557 -0.09056298 0.09970887
000150 6a df 25 3e df 3e af bd 77 7a d2 bd 08 99 ce bd
       0.16198507 -0.085569136 -0.102772646 -0.10087782
000160 93 0d 90 bd 03 d6 b0 bd c4 e3 03 3e 2b 40 29 3e
       -0.07033839 -0.086345695 0.12879854 0.16528384
000170 74 56 98 3d ed c2 d1 3d b5 62 08 3c 3c bb d4 3d
       0.074383646 0.10242257 0.008324315 0.103872746
000180 41 91 21 3e 03 eb a4 3d 5a eb d7 bd 40 cc 44 bd
       0.15778066 0.080526374 -0.105429366 -0.04804635
000190 12 51 b4 3c 87 33 ea bd 79 16 68 3d 4f 6f 6d bc
       0.022011314 -0.11435609 0.056662057 -0.01449187
0001a0 4c d4 23 3e e8 ba 53 3d 4a 21 be bd 43 4d dc 3d
       0.15998954 0.05169192 -0.09283693 0.10756924
0001b0 57 5f be bd e7 62 14 be d1 ff 60 3c 7c 56 a3 3d
       -0.092955284 -0.14490853 0.013732866 0.0797548
0001c0 c6 53 cd 3c f0 d8 fb 3d f1 bd 3a 3d b5 6c 20 bd
       0.02506436 0.12297237 0.0455913 -0.03916617
0001d0 43 a5 b2 3d ef 90 1b 3e 69 d1 69 3d 0b 80 5a bb
       0.087229274 0.15192007 0.057084475 -0.003334048
0001e0 94 44 18 3d d6 ba 2b 3c 96 59 3d bd dd 83 31 3d
       0.037174776 0.010481557 -0.046228014 0.043338645
0001f0 6a bb 7b bd dc 38 89 3c 6e 4e e1 bd 19 f6 00 3e
       -0.06145803 0.016750745 -0.110012874 0.12593879
000200 2d 65 ce 3d 9b 32 13 3e 2e 1f 0a 3c db 20 8e 3d
       0.100778915 0.14374773 0.008430285 0.069398604
000210 c4 b6 67 3c 62 1c 49 3d 86 21 a9 bd 3a 62 18 bc
       0.014142696 0.049099334 -0.08258347 -0.009300763
000220 15 4b 01 3e 3b 1c 60 3d dd 22 25 be ab cd 0e bd
       0.12626298 0.054714423 -0.1612658 -0.03486411
000230 9a c8 0b 3d d5 9c ce 3c 47 c5 3d 3c 95 e8 66 3d
       0.034126855 0.025221268 0.011582679 0.05637415
000240 c0 4c 23 bd 2e 5b 79 3d a9 2c a8 bc 25 b8 e3 bc
       -0.039868116 0.06087797 -0.020529108 -0.027797768
000250 4a d2 22 3e d9 03 88 3d 69 41 fc 3b 65 2e a9 3d
       0.15900531 0.06641359 0.007698227 0.08260802
000260 bd 58 c7 3d 4a 42 d9 3d f6 48 f6 bc a1 6d be 3d
       0.09733722 0.10608347 -0.030064087 0.09298254
000270 cd 3e 1b 3d 77 02 78 3d a7 89 d4 3d 1e b8 20 bd
       0.03790169 0.060549226 0.103778176 -0.039238088
000280 5a ec 05 3c 63 73 9c bd 93 49 26 bc d1 ad 39 bd
       0.008174026 -0.07639196 -0.010149377 -0.04533178
000290 0f 0e c0 3d 15 60 9b 3d 2d bd f5 3d 6d cd 33 bd
       0.093776815 0.075866856 0.11998973 -0.04389708
0002a0 8d 10 99 bc a1 d8 48 bc 93 90 6b 3d b6 bf 0c bc
       -0.01868465 -0.01225868 0.057510924 -0.008590629
0002b0 b1 92 2f bd 7e ae b6 bd 8c 9e 17 bc a1 ed 15 bd
       -0.042864505 -0.089200005 -0.009254109 -0.036603574
0002c0 01 c3 a6 3d 53 b0 14 3e 63 93 ed bc 92 de df bd
       0.08142663 0.14520387 -0.029000944 -0.10931124
0002d0 bd af d2 3d 00 f6 df 3d 67 d5 e5 3d 10 85 af 3d
       0.10287426 0.10935593 0.11222344 0.085703015
0002e0 ca ab 99 3d 80 5d 74 bd 3a 0e 61 3d d6 3c d2 bd
       0.07503469 -0.05965948 0.054945208 -0.1026551
0002f0 20 76 ec 3d 8a bc 22 3e e8 c6 31 3d d8 53 ab bd
       0.11545968 0.15892234 0.043402582 -0.08365601
000300 9b 31 fa bc ca a3 91 bd 0a bd cd bd 65 9a 08 3e
       -0.030541232 -0.071113184 -0.10045822 0.13340147
000310 43 37 00 3d d3 43 16 3e ab 97 a8 bd 28 da a2 3b
       0.0313027 0.1467431 -0.08232053 0.004969854
000320 8e 78 1d 3d 41 e8 11 bd b0 28 15 be e9 36 e7 3d
       0.038445048 -0.035621885 -0.14566302 0.1128977
000330 38 6d 97 3d fd 9d 2e 3d c2 39 74 bd ea c4 0c 3e
       0.07393879 0.042631138 -0.059625395 0.13746992
000340 28 53 88 bd 77 a2 e2 bc bf 84 10 3e 0b 8e 23 bd
       -0.06656486 -0.02766536 0.14113139 -0.039930385
000350 30 b5 25 3e 17 cc 91 bd b2 08 cc bd 25 7f 2c bd
       0.16182399 -0.07119005 -0.09962596 -0.042113442
000360 7f 64 d1 3b a3 47 1f 3e 8a a7 56 bc 0d 9e 20 3e
       0.006390154 0.15554671 -0.013101468 0.15685292
000370 01 43 b3 3d e5 71 0c 3e b6 8d fa bd 99 3e 7c 3d
       0.08753014 0.13715322 -0.122340605 0.061583135
000380 f1 e7 3f 3d 85 2b c9 3d 9f f5 4f bd 34 69 50 bd
       0.046852056 0.09822754 -0.050771352 -0.05088158
000390 60 41 99 bd c9 c7 9d bd 2d 30 ae bd 35 98 10 bb
       -0.074831724 -0.077041216 -0.085052826 -0.0022063379
0003a0 ea 48 1d 3e d2 ff a1 3c 6d 8c 51 3d 03 1d 7d 3d
       0.15359846 0.019775305 0.05115931 0.061795246
0003b0 80 7d 12 3d 16 74 38 3e 9f 05 1e 3e ee e9 fc bd
       0.035764217 0.18013033 0.15431832 -0.12349306
0003c0 92 19 a8 bd 3a 05 99 bd 6f 23 10 be d3 fd ba bd
       -0.08208002 -0.074717 -0.14076017 -0.091304444
0003d0 3c d2 35 3c 9c ba 71 bd b4 7e 0b be a9 31 a5 bc
       0.011097487 -0.059015855 -0.13622552 -0.020165281
0003e0 c9 4e 06 3e 21 1a 99 bc fa 22 b5 bd 64 85 d0 3d
       0.13115992 -0.018689217 -0.08844562 0.10181692
0003f0 83 98 8f 3d bb 13 15 3d f9 fc 19 be 42 a5 0d 3e
       0.07011511 0.03639577 -0.15037908 0.13832572

fc3.bias f4 [8]
000000 41 2d 6e 3d 88 b0 9e bb 73 aa af bd 32 ea 40 bc
       0.058148626 -0.0048428215 -0.085774325 -0.0117745865
000010 24 9b 45 bd be 8f 70 3d 8b 8c a6 3d d1 14 82 3d
       -0.048243657 0.058730833 0.08132275 0.06351627
