matchmaking_model.pth (torch, 29095 bytes, 6 tensors)

fc1.weight f4 [64, 31]
00000000: 9857 3b3d 4355 0fbe f78e a7bd 7682 133e
00000010: 0221 2abe 74ed 9b3d 4b1b 373e 0627 ec3d
00000020: 87a5 18be df77 d03d 1221 363d 5171 58bc
00000030: f7a6 fd3d 6ca5 ae3d 81d1 a7bc 2039 d8bc
00000040: 8e7b 473e b57c bb3c 7d2a e33c 3ab8 5abd
00000050: 28dd e13d 869d 17be a276 52bd 5fac cb3d
00000060: 207f 8b3c 38f4 1d3e 4f93 c9bd 3e42 de3d
00000070: 497a 0a3e baa5 1e3e 855a c9bc d172 e13d
00000080: d5f2 383d 6061 52bc 0293 963d c35e 4e3e
00000090: 686d 8ebd b77e 91bc 9be0 b5bd 45c8 3b3e
000000a0: 7ad8 f93d 7ac6 113d 4cbf c63d 23a7 60bc
000000b0: 1d46 d33d 0391 98bd d379 b83d fcf8 9ebd
000000c0: fbfd 463d 0ec9 453e 43bd 26bd 5e1e 163e
000000d0: d305 d3bb 84de 0c3c 05f9 5bbc a124 5e3e
000000e0: ae79 0f3e c0e1 313e e640 ff3d 9992 223e
000000f0: a809 bd3d b349 243d 91b0 b43b a5ff 413d
00000100: 3451 3b3e 96ff 913d 915c 2c3e 129c 0fbe
00000110: 62d2 02be 1d0a 03be 52ef d53d 4040 a53b
00000120: f1f5 1e3e f1ac 013c ce11 883c ca91 e43b
00000130: f38c 563e 189d 053e d8b5 2b3e d38e 963d
00000140: 35a8 043e ac56 adbd 9acf 803c 0da2 8b3c
00000150: b5bb 453e 0aa6 233e d508 583e 2325 103e
00000160: 68fa e43d ac93 593e 5218 89bd 0bad 423e
00000170: a270 553e afb7 afbd 0fd5 fb3d 846f c63d
00000180: be3c eb3d 18e6 20bd b7b5 a53c f6aa 093e
00000190: 6e67 303e 68a3 cf3c b126 b0bd ec79 6f3c
000001a0: c129 873d 4287 433e c5e3 e7bd 57af df3d
000001b0: b8b4 f63d 8516 c73b 7020 083e c598 35bd
000001c0: a4aa 9cbd 7790 d3bd 5542 5b3d e2b8 a93c
000001d0: 10f1 143d 9358 15bd ac2d 07bc 3216 283e
000001e0: 6a1b f6bd ac6a 14bd f51b fe3d 29e5 013e
000001f0: fb74 623d 3942 083e 7cf5 983d cf59 3d3e
00000200: 475e c2bc f475 ddbd 6c06 3ebd c040 10bc
00000210: 397f 1d3e dd71 383e 0fb6 e73d 20d3 8fbd
00000220: ae11 91bd ccc0 aa3d d6bd a73c 6ac1 923d
00000230: 51e1 a33d 8eda 333c 8adb 513c 5cca 5b3e
00000240: 7f7b 563e 90db de3d 40f8 fe3d aba7 99bc
00000250: df54 e5bd cdf1 dbbd 40ab 1b3e 1e8b e63d
00000260: 8b66 253e dc8f 453e 8a25 00be 2468 2b3e
00000270: c398 383e 20de 043e 8856 3e3c 40f1 04bd
00000280: e04e c9bd 3b83 423e 895d 173e a322 a23d
00000290: 320b 20be b882 043e 9ae6 23bd d078 003e
000002a0: ae7d 473e 0a98 93bc fe3f fd3c 754c 353c
000002b0: c097 3e3e 8a17 abbd a131 c1bd 98c4 be3c
000002c0: 8582 e9bd 3464 f03d 63fa 853d 854f ccbb
000002d0: ecec 74bc dbcd f9bd c46c dd3d 47b8 4a3e
000002e0: 1fcb 13bd e2f9 4e3d 775c 85bd aaf7 7d3d
000002f0: 0bb2 43bd 22cf dd3d 2c56 aabd 4291 f1bd
00000300: a97b c8bd e47c 15be fc01 393e 1f47 dcbd
00000310: 575e ee3d 53f8 523d 795e 25bd 001c 09be
00000320: d9d8 f9bd c87a 3a3e 92d3 b63d 625f abbd
00000330: f76f 06bc aeac bebd acca fa3d 36bc a2bd
00000340: 12cb 453e 1b6d 59bd 25bf 233d 37a6 30bd
00000350: c72f 02bd 0a54 093e 6ca4 b43d a417 df3d
00000360: 3e32 4e3e 37d0 6f3d 949a 173e 83f7 1ebe
00000370: ee85 ccbd acd8 0cbe 03c6 e23d 5c74 7dbd
00000380: c260 01bd d701 0d3e 4e0d adbc 066e 01be
00000390: 1045 383c 7796 143e 74e1 63bd 82fd 1b3e
000003a0: 984a d33d 3c4e 023e 6d9b 02be 5fe8 4cbe
000003b0: c849 75bc aa42 69bd 6a6d b5bc 7a7d 69bd
000003c0: 6455 a1bd c8e9 3cbe bebc d63d 42f7 a63d
000003d0: 48f5 0fbe 153f 3abe 5667 c63d 9954 bf3d
000003e0: 9676 2a3e 3768 94bd bff2 533d 7095 583d
000003f0: 2ae0 9c3d 9f6b 323d eaae 203e 2aee a63d
0.045737833 -0.13997369 -0.08181565 0.14405236 -0.16614154 0.0761365 0.17881505 0.11530881
-0.14906894 0.101791136 0.044465132 -0.0132106105 0.12385362 0.085276455 -0.020485641 -0.026394427
0.19480726 0.022886613 0.02773022 -0.05339835 0.1102851 -0.14806184 -0.05138267 0.099449866
0.017028391 0.15425193 -0.0984255 0.108524784 0.1352321 0.15492907 -0.024579296 0.110082276
0.045153458 -0.012840599 0.07352258 0.20153336 -0.06954461 -0.017760618 -0.08880731 0.18338116
0.12199493 0.035589673 0.09704456 -0.0137117235 0.103161074 -0.07449534 0.09007611 -0.07762334
0.04858206 0.19314978 -0.040707838 0.14660022 -0.0064399033 0.008597974 -0.01342607 0.2169366
0.14011261 0.17371273 0.1246355 0.15876235 0.092303574 0.040109348 0.0055142124 0.047362942
0.18292695 0.07128827 0.16832186 -0.1402438 -0.12775567 -0.12796827 0.10446037 0.0050430596
0.15523507 0.007914768 0.016610052 0.006975387 0.20952205 0.13048208 0.16768587 0.0735146
0.12954791 -0.08463797 0.015723992 0.017045045 0.19309886 0.15981308 0.21097119 0.14076667
0.11180574 0.21247739 -0.06694092 0.19011323 0.20843747 -0.08579957 0.12296497 0.09689239
0.11486195 -0.039281934 0.02022825 0.13444123 0.17226955 0.025346473 -0.0860113 0.014616471
0.06599761 0.19094566 -0.113227405 0.10922115 0.12046188 0.0060756826 0.13293624 -0.044335146
-0.076497346 -0.10330289 0.053530056 0.020718042 0.036362708 -0.036461424 -0.008250635 0.16414717
-0.120169476 -0.036234543 0.12407676 0.12685074 0.055287343 0.13306512 0.074686974 0.1849129
-0.023726596 -0.108135134 -0.046392843 -0.0088045 0.15380563 0.18012185 0.11314022 -0.07022691
-0.0708345 0.08337554 0.020476263 0.07165797 0.0800196 0.0109774005 0.01280869 0.21463913
0.20945548 0.10881722 0.12449694 -0.018756708 -0.111978285 -0.10739479 0.15202045 0.11257003
0.16152398 0.19293159 -0.1251432 0.16738945 0.18027024 0.12975359 0.01161731 -0.032456636
-0.09829497 0.18995373 0.14781775 0.07916763 -0.1562927 0.1294049 -0.04001484 0.12546086
0.19481537 -0.018016834 0.030914303 0.011065592 0.18612576 -0.08354099 -0.09433294 0.023287103
-0.11401848 0.11737862 0.06541898 -0.0062350654 -0.014949065 -0.12197467 0.10811761 0.19796859
-0.036082383 0.050531276 -0.06511777 0.06200377 -0.047777217 0.10830523 -0.08317217 -0.11795284
-0.09789211 -0.14598423 0.18067163 -0.10755753 0.11639088 0.05150635 -0.0403733 -0.13389587
-0.121995635 0.182109 0.089270726 -0.08367802 -0.008205405 -0.0931028 0.12245688 -0.07946055
0.19315746 -0.053082567 0.03997721 -0.043127265 -0.031783845 0.13410965 0.088204235 0.10893181
0.20136353 0.05854818 0.1480506 -0.15524106 -0.099864826 -0.13754529 0.11072924 -0.061878547
-0.031586416 0.13770233 -0.021124508 -0.12639627 0.0112469345 0.14510523 -0.05563493 0.15233424
0.10316962 0.12725157 -0.12754603 -0.20010518 -0.014971204 -0.05694834 -0.0221469 -0.05700443
-0.07877615 -0.18448555 0.104852185 0.081526294 -0.14058411 -0.18188126 0.096876785 0.093423076
0.166468 -0.0724644 0.051745173 0.05287689 0.076599434 0.043559667 0.15691724 0.08150895

fc1.bias f4 [64]
00000000: 11d8 e8bd 1d3f 013d 58f5 bebd bc33 a23d
00000010: ab10 aa3d 39c7 2f3d 0e00 363e 3a21 903d
00000020: a032 c23d e83b ebbd 8100 273e f19f 59be
00000030: 0538 85bd bcfa 9e3c c844 b13d 9f35 11be
00000040: 5fdf 80bc 2fd7 1abe accc 1d3c ba18 eb3d
00000050: 590d e8bc 4f78 803d 85fb 163e 2cb0 033e
00000060: 3458 8ebd 6098 ccbd 1c6b 653d ddc2 b0bd
00000070: de98 c13d 3752 993d 3d80 3ebd a1bb 993c
00000080: f2e9 1b3e ed62 e1bd e0fd 443d b8a0 c13d
00000090: 6079 c13b 576f a8bd f767 3c3e 9a21 3fbd
000000a0: ed74 34be bb7b ac3d e8be b53d 64e8 0c3e
000000b0: f4e1 133e 2a8f e7bd 7465 523d 6e99 883c
000000c0: e88d 2dbd 4057 1cbd dcb7 a13d a096 03be
000000d0: 354e 0f3e 985b 203d 7b5a 0dbd ef23 9bbd
000000e0: 57ea ccbd 7786 f83d 70ac 8e3d 77ea 6b3d
000000f0: 76d7 5ebd 68e2 a8bc ae95 b5bd ec98 28bc
-0.113693364 0.03155433 -0.09324139 0.07920024 0.083039604 0.042914603 0.17773458 0.070375875
0.09482312 -0.114860356 0.16308786 -0.21252419 -0.065048255 0.019406669 0.08655697 -0.14180611
-0.015731512 -0.15121149 0.009631317 0.114793256 -0.028326677 0.06272947 0.14744385 0.12860173
-0.06950417 -0.09990001 0.05601035 -0.08630917 0.09452985 0.07486384 -0.046509016 0.018766226
0.15225962 -0.11005197 0.048093677 0.09454483 0.0059043616 -0.082243614 0.18399034 -0.046662904
-0.17622729 0.08422037 0.08874303 0.13760525 0.14441663 -0.11306603 0.051366284 0.016674723
-0.04237166 -0.038169146 0.078963965 -0.12850428 0.13994677 0.03914985 -0.034510117 -0.07575213
-0.10005634 0.12135022 0.069664836 0.05759665 -0.0544047 -0.020615771 -0.0886644 -0.010290366

fc2.weight f4 [64, 64]
00000000: cbef 1d3e 4bdc 243e bff5 2f3d 9961 0dbd
00000010: b447 153e abce b0bd 5717 b53c c0bc a3bc
00000020: 905f 42bd 1249 173d 7162 993c 690d 8cbd
00000030: 4ee1 c93c 5ad3 12bd 1c7a 173e 2e18 cf3c
00000040: ad42 e23c 5f5e 82bc 4fff 243e 31f2 7f3c
00000050: e018 033e f5bc dd3c 4d04 d4bc dc4c 083e
00000060: 76f4 f33d 3a4a c13d dc81 df3d 4704 4d3c
00000070: 15e4 a63d ea18 64bc fc04 bf3c ab56 ee3d
00000080: 4d72 b5bd 78be 43bc 7f17 153d 6703 c43d
00000090: e305 dc3d 1aa4 ed3d 9aed b9bc acf8 babc
000000a0: ba88 ef3d 9df8 03be 34a7 173e 56c0 c23d
000000b0: 9615 d5bc d059 f33d bb85 b8bd 37cf 413d
000000c0: 3c27 a73d 256b 86bd d9cf e23d cc5e 933d
000000d0: d4ba d53b a4a2 f4bc f40a 193b ef86 ac3d
000000e0: ab0b 94bd 3743 143d c361 88bd 4604 89bc
000000f0: 0202 8f3d 97c3 12bd fd3b 65bc df4a 11bd
00000100: 684c d53c d8e2 d83c 4cc8 093d c8fb bc3d
00000110: 08c2 cabd 5ac8 a23d 1418 6f3d 5080 913d
00000120: 48de 2fbd a84a 723d 4c6e 12bd b2be bcbd
00000130: 9444 4fbd f674 f1bd 32fb f03d a094 2d3d
00000140: 4857 a53d 9026 b5bd ac68 28bd 287a e23c
00000150: dc39 9fbd c8a2 d0bd aa86 e23d 0285 a7bd
00000160: 5618 ffbd 14a7 aabd ccab 163d b487 703d
00000170: 4e69 acbd 0808 7cbd a0e4 a63c 0002 38bd
00000180: 0051 953a 004d 703d e01b 5ebd 7c87 00bd
00000190: b20a d33d 1257 82bd 9049 05bc 1006 e53c
000001a0: fc72 f1bd 80a2 babd 880c fd3c 062c e0bd
000001b0: a0e5 94bd 1074 673d 3e0f e33d 2a25 82bd
000001c0: 9ebd 813d 5cfa 0abd 66fc 9e3d ee73 85bd
000001d0: 00c0 5f3b f2bf 9bbd 64aa 18bd 4ac1 d23d
000001e0: 6471 073d b88e babc 00b2 113a 8823 e63d
000001f0: 2447 0abd d8b1 733d 4cec 61bd 94af e5bd
00000200: 0c2e 243d 9a67 f43a 30bc 75bd be96 a6bd
00000210: 2e16 6cbb 5e2b ee3d 53ce 9a3d fb88 713c
00000220: e1ee 90bd 3233 4a3c c6ee 083e ad59 9d3d
00000230: 1928 043d 2f7a a9bd 8be0 cc3d b2bd ecbb
00000240: 0809 5b3d 3c02 e03d 93d1 4a3d 92fe 21bd
00000250: 8eab 0e3e 5049 733d 392f 013e 3d29 133e
00000260: 1eac b5bc 891f 62bd d8e0 08bb 6019 b63c
00000270: 576d 87bd f5ba 3bbe bf44 85bc d388 783d
00000280: acd3 d9bd 5db8 9abc 1058 a93c 6ebe 8cbd
00000290: 1efb 52bd 3117 cabc 82e8 cbbd 1aa9 cabc
000002a0: a583 8cbd 637b 053e b66d 1c3d 28bd d13d
000002b0: efb5 b63d f992 69bc a785 b7bd 98db 0a3e
000002c0: 1784 883b 6afc 183d 1f9b 273d 78b8 8d3d
000002d0: 2c80 cb3b 2be2 21bb 1409 debd 66d4 953d
000002e0: 19c1 a73c e47a dfbd c8f6 14bd 5163 913d
000002f0: ce93 763d e80a 05be 1c9e 89bd 7ca4 b43c
00000300: d37a 923d bed5 a93d 5f60 013d 31a4 08bc
00000310: b212 afbd 5d77 3c3d 5105 ae3c b286 683d
00000320: cbfd efbd 9e48 973d 39bc c4bd 3994 d43d
00000330: 7f2f efbc fdb9 a8bd 7de0 b7bc cd5b 0a3e
00000340: 3fb2 893c 015c 7e3c 67fe 6a3d 5805 06be
00000350: f0ea 223d bf5a b63c 25d2 8cbc b804 6e3d
00000360: 4b4b f3bd afdd 4a3d e5cc 093d cf20 493d
00000370: 4f5b ffb9 7177 03be bb77 ad3c fffe 873d
00000380: 0e76 c63a fe53 f9bd 0c31 08be ee30 0cbe
00000390: d8ff 723d 1f0f 01be de96 0abe 1afe b23d
000003a0: 06d4 8c3d 30ce d3bd 3dd9 b93b 51b5 cebd
000003b0: 0a8b a9bd cf1f 27bd d176 a9bd 5a72 7f3d
000003c0: 2aa1 a73d 239b 97bb 5aa7 f23c f538 8a3c
000003d0: 4c68 08bb 2f73 edbd c887 1c3d 3d3a ba3d
000003e0: 95f8 72bd df38 e2bd 2ef4 8ebd d8ad 33bd
000003f0: d1ad 8d3d cdd8 a6bc 81f6 b7bd 90da 1c3d
0.15423505 0.1609966 0.04295897 -0.034516905 0.14578134 -0.08633169 0.022105856 -0.019987464
-0.047454417 0.03693492 0.018723698 -0.06838495 0.024643566 -0.03584609 0.14792675 0.025280084
0.027619684 -0.01591414 0.16113017 0.015621708 0.12802458 0.02706764 -0.025880957 0.1331057
0.119118616 0.09437986 0.109134406 0.012513227 0.08148972 -0.013921956 0.023317806 0.11637624
-0.08859692 -0.011947267 0.03639936 0.095709614 0.1074331 0.116035655 -0.022696305 -0.022823654
0.116960004 -0.12887807 0.14809877 0.095093414 -0.02601127 0.11882365 -0.09009882 0.047316756
0.0816178 -0.06563405 0.110748 0.071958154 0.006522516 -0.02986271 0.0023352476 0.08424174
-0.07228788 0.036196914 -0.066592716 -0.01672567 0.06982805 -0.03583106 -0.013991353 -0.035471793
0.02603741 0.026475355 0.033638284 0.09227711 -0.0990029 0.0794837 0.058372572 0.07104552
-0.042936593 0.05915323 -0.03574972 -0.0921606 -0.05060251 -0.11789887 0.11766662 0.042378068
0.08073288 -0.08845246 -0.041115448 0.02764614 -0.07774708 -0.10187298 0.110608414 -0.08179666
-0.124558136 -0.08332649 0.036784932 0.058723167 -0.08418523 -0.061531097 0.020372689 -0.044923782
0.0011391938 0.058667183 -0.054225802 -0.031379208 0.10304774 -0.063642636 -0.008135214 0.027956992
-0.1178951 -0.09113026 0.030889764 -0.10945897 -0.0727036 0.05650717 0.110868916 -0.06354745
0.06334995 -0.033930168 0.07762985 -0.065162525 0.003414154 -0.0760497 -0.037271872 0.10290773
0.033067122 -0.022773132 0.0005557835 0.11237246 -0.03375925 0.059495777 -0.05515699 -0.112151295
0.040082976 0.0018646598 -0.059993923 -0.081342205 -0.0036023962 0.116293654 0.075588845 0.014742131
-0.070768125 0.0123413075 0.13372335 0.0768312 0.032264803 -0.08275258 0.10003766 -0.007224762
0.05347541 0.10937926 0.04951627 -0.039549418 0.1393263 0.059396088 0.1261567 0.143712
-0.022176798 -0.055205856 -0.002088597 0.022228897 -0.06612652 -0.18333037 -0.016268132 0.06067736
-0.10636076 -0.01888674 0.020671874 -0.06872259 -0.051509015 -0.024669262 -0.09956457 -0.024738837
-0.06861047 0.1303535 0.038190566 0.10241157 0.0892142 -0.014256232 -0.08961039 0.13560331
0.004166137 0.037350096 0.04091942 0.0691995 0.0062103476 -0.0024701457 -0.10841575 0.073159024
0.020477818 -0.109121114 -0.03636816 0.07099021 0.06019955 -0.12992442 -0.0671961 0.022051089
0.07152333 0.08292721 0.031586047 -0.0083399275 -0.08548488 0.04601227 0.02124277 0.05676908
-0.11718329 0.073868975 -0.09606213 0.10379834 -0.029197453 -0.082385994 -0.022445912 0.13511582
0.016808627 0.015524865 0.057371523 -0.13087976 0.039774835 0.022260068 -0.017190048 0.05810997
-0.11879595 0.04952782 0.03364267 0.049103554 -0.0004870542 -0.12838532 0.021175256 0.066404335
0.0015141384 -0.12174223 -0.1329996 -0.1369054 0.059326023 -0.12603424 -0.13534114 0.08739872
0.06876378 -0.103420615 0.005671649 -0.10093177 -0.08278473 -0.04080182 -0.082746156 0.062364914
0.081850365 -0.004626648 0.029620815 0.016872862 -0.002081412 -0.11594235 0.03821543 0.09093139
-0.059319098 -0.110460036 -0.06980167 -0.043866962 0.069179185 -0.02036705 -0.08982564 0.038294375

fc2.bias f4 [64]
00000000: 6e2b 6cbd 1a80 d4bd a0b7 d83d bd00 593d
00000010: a4fd b7bd d5fe f43b a367 cb3d 8938 a0bd
00000020: f58b f23d b1c4 373d dc56 333e d641 103d
00000030: a80d 043d 5d50 29bd a0f7 aabd 06fe c73d
00000040: 6c20 73bd 5e9c f13d dc4b 53bd 2e4c f83d
00000050: ba07 7e3d bdff 6cbd 5ef5 d83d 3a58 09be
00000060: 4093 f1bc 46b0 4bbd 4363 bc3c f77c 5fbd
00000070: ff87 5abd ddb3 ccbd 3974 ffba 6a14 443d
00000080: 1bb1 8ebd b1c2 243e d6fd a23d 241a edbd
00000090: 13c5 6b3d a5ad 84bd 257c 83bd 890a f63d
000000a0: 9e30 f9bd d60a 92bc 57e4 23bd 3b49 f9bc
000000b0: 561b 8dbd 7506 f43c 048f 1d3d d46d 933d
000000c0: 48e1 3bbc 8070 4ebd 014e 473c dacc 8c3d
000000d0: dc7b 153e f9f3 10bd 4cc8 083e 2444 0d3d
000000e0: 60bc c13d 6555 0e3e 4067 003e b98e 973c
000000f0: df7e 163d 3421 13bd 4430 a1bc 0f51 593d
-0.057658605 -0.10375996 0.10581899 0.05297922 -0.08983925 0.0074766674 0.099318765 -0.07823283
0.11843101 0.044865314 0.17513603 0.035219036 0.032239586 -0.041336406 -0.08348012 0.09765248
-0.05935709 0.11797403 -0.051586017 0.12123905 0.062019087 -0.05786108 0.10593675 -0.13412562
-0.02948916 -0.049728654 0.02299655 -0.054562535 -0.053352352 -0.09995244 -0.0019489593 0.04787103
-0.06967374 0.16089894 0.079585716 -0.115772516 0.05756099 -0.064784326 -0.06420163 0.12013728
-0.12167476 -0.017827433 -0.040012684 -0.030430427 -0.068899795 0.029788235 0.03846647 0.071986824
-0.011467285 -0.050400257 0.012164594 0.0687501 0.1459803 -0.03538892 0.13357657 0.034488812
0.09459758 0.13899763 0.12539387 0.018500673 0.036742087 -0.035920337 -0.019676335 0.05305582

fc3.weight f4 [8, 64]
00000000: e5ef 943d f096 3b3d fb37 a6bd e747 47bc
00000010: 2b66 b83d 2098 283d 1af3 d13d 95c5 8f3c
00000020: 2647 f2bc 4bc2 1a3e 8999 023d de71 14bd
00000030: 88c4 003d fb02 603d b681 30bd 0185 783c
00000040: 548d 2bbe 8702 98bd 995a fe3c 7f28 283e
00000050: 0115 59bb f547 a23d 2303 323d 2d29 823d
00000060: 7eae 053e a0a1 1d3e 63f2 4c3d 77a1 9bbd
00000070: dbef 093e 9a47 d9bc d0b6 f73d c27f f4bd
00000080: 81dd 0a3e 7ce5 b13d 231d 923d 17fd 88bd
00000090: dae9 75bd f273 86bd 2e5b 9cbd 3d20 00bd
000000a0: 1b0e 243c 610d 47bd 978c 3c3d 20c4 d33d
000000b0: ab8d e0bd dee4 2d3d 5fdb cfbd fba3 5a3d
000000c0: 997f 99bd 6baf 6a3d 23e7 f63d 9f97 e0bd
000000d0: 88b9 f33d f9f3 76bd 2c3b 313d e245 353d
000000e0: b144 f23c 1db9 693d 09b7 223d 1492 05be
000000f0: 8f6d c43d e031 cebd e19f 893d 6458 4d3d
00000100: b8e0 0abd ba40 87bd d853 c23c b92d 09bd
00000110: eb34 e43d 143b 85bd 89e9 c4bc a21d f83c
00000120: a6f5 053e 2de9 c73b dbb0 94bd bbc6 c5bd
00000130: d857 223d 678e bcbd 7074 463d 0452 8c3d
00000140: 9fb9 05bd 9ca5 f03d 0e64 8ebd 0f7c d73b
00000150: 22f3 0a3e 0668 a2bd ab75 abbd cc34 2ebc
00000160: 4579 023e 241c f53d ddcd 1dbd 991c 9bbd
00000170: f186 95bd a076 5ebd a38f 003e 35b8 ac3d
00000180: afb7 ad3d f64a ab3d e661 5e3d c9d4 ed3d
00000190: 808e 363a 7035 c7bc df60 4bbd 5cf6 803d
000001a0: 0e46 ac3d 15f8 6cbd 269f 953d 4c06 07bd
000001b0: f96c 76bd f287 783d 0a0a 1abd def5 87bd
000001c0: 7c1f 9f3d d5c6 1c3e c02d dcbd 194d 86bd
000001d0: a12e 6f3d 38d5 293e c54a a63b 151f 943d
000001e0: eebe 143e 8a33 a3bd edf9 c7bc 80c2 673d
000001f0: 66ca 1b3e 2aa5 aabd d941 ef3d 1c2d 873d
00000200: 134f f43d e015 fdbc 7576 ca3d d938 fb3c
00000210: 6e99 e5bc 51c1 fc3d 7f6f 9b3d c90f e43d
00000220: bfb0 1a3e 93d2 793d e8dc 493d 05da af3a
00000230: e7aa 19bd 2ea5 ac3d 8107 a1bd feaf 36bd
00000240: 87f9 eabd e107 043e 948c 15bd 0f6c a2bc
00000250: 01e9 f23b 21c5 f6bc 482b 2dbd be36 8f3d
00000260: 30d9 8a3c 7e64 81bb 839c ccbd 8b30 c63d
00000270: 587b 7e3c 90c4 67bc 61ab 26bd 9160 0abe
00000280: 3b3e eb3c 8eea 1b3e 3620 a5bd 38f4 933d
00000290: bef1 c7bb 0f6b d93a ed72 543d 793d c83d
000002a0: 7fff a03c c7f2 ea3d d90a 163e ab72 023e
000002b0: 93b0 b2bc 16f1 4abd b508 67bd 9f2b a43d
000002c0: ff59 8bbd 3c9e f43d 6e9b 9abb c06a ba3d
000002d0: 5cf6 293e 2ecf 293e beb1 253e c0b2 1c3c
000002e0: e167 45bd 70c7 fdb9 d9cf a23d 35fa aebd
000002f0: 90c1 9fbd 102b 13bd 4294 8abd 86e6 2e3d
00000300: 689f 313b 4825 f8bc c911 343d ad5e 8f3d
00000310: 3bdd f33d 7066 0b3e 5e4d 833c 7443 143e
00000320: f808 583c 34f9 043e 3294 29be 2dda abbd
00000330: 8cbb 703d cd47 2a3c a70f 703d eba4 b83d
00000340: 6364 e3bc 3f68 053d 943a 99bd 5f9e 093e
00000350: 088d 65bd 1a52 bcbc 2f8e 87bd 5c93 97bd
00000360: 588f a13d d373 a03c 2171 a8bd 7f51 873d
00000370: 1a25 a93d 22a8 c8bd a5de ff3d c2ca f8bc
00000380: 63ee 293b 9771 c7bd bf0d 1c3e dd0b 8e3c
00000390: 29dc 93bd 0009 67bc e02b 9ebd dae5 ed3d
000003a0: d809 dfbd cc42 80bc ca65 093e 9785 803d
000003b0: df95 f13d 8361 f63b 2240 afbd 31aa 4abd
000003c0: 4e5e 503d 841d 123d 55c2 8c3c 11c9 e4bc
000003d0: b253 2d3d 97e4 653d 6f31 a73d 7cc4 d03d
000003e0: 69d4 073d dfb5 25be 8e65 963b d221 10bd
000003f0: b71e ce3d 5865 a9bd 7ca7 063e ba48 b8bd
0.07272319 0.045798242 -0.08116146 -0.012163139 0.09003862 0.041160703 0.10251446 0.01755027
-0.029574942 0.1511318 0.031884704 -0.036241405 0.031437427 0.054690342 -0.043092452 0.015168429
-0.16753131 -0.07422357 0.03104906 0.16421698 -0.0033124092 0.07923881 0.043460023 0.0635551
0.13054845 0.15393686 0.050035845 -0.07599156 0.13470404 -0.0265234 0.120954156 -0.1193843
0.1356106 0.08686349 0.07134464 -0.06688898 -0.06003747 -0.065650836 -0.07634579 -0.031280745
0.010013129 -0.048596743 0.046032514 0.10340142 -0.10964521 0.042454593 -0.101492636 0.05337904
-0.074950404 0.057296198 0.120558046 -0.109664194 0.11900622 -0.060291264 0.04326932 0.0442561
0.02957377 0.057061303 0.039725337 -0.13044006 0.09591209 -0.10068107 0.067199476 0.050133124
-0.033905715 -0.066041425 0.02372162 -0.03349087 0.11142906 -0.06505409 -0.02403714 0.030287568
0.13081989 0.0061007948 -0.07260295 -0.096570455 0.039634556 -0.092068486 0.048450887 0.06851581
-0.032647725 0.117503375 -0.06952678 0.0065760682 0.1356931 -0.07929997 -0.08372053 -0.010632705
0.12741573 0.11968258 -0.038526405 -0.07573814 -0.07301129 -0.05431235 0.12554793 0.08433572
0.084823005 0.08363907 0.054292582 0.11612851 0.0006963983 -0.024317473 -0.04965293 0.06296989
0.08411799 -0.057853777 0.07305746 -0.03296499 -0.06016252 0.060676523 -0.03760723 -0.06638692
0.07769677 0.15310223 -0.107509136 -0.06557674 0.05839408 0.16585243 0.005074831 0.07232491
0.14525959 -0.07968815 -0.024411166 0.056581974 0.15213928 -0.08332284 0.11682481 0.06600401
0.11929145 -0.03089422 0.09885875 0.030666756 -0.028027263 0.1234156 0.075896256 0.11135823
0.15106486 0.060991835 0.04928294 0.0013416415 -0.0375165 0.08429943 -0.078627594 -0.044601433
-0.11473375 0.1289363 -0.03651102 -0.019826917 0.00741303 -0.030123295 -0.042277604 0.06992863
0.016949266 -0.003948747 -0.0999079 0.096772276 0.015532337 -0.014145985 -0.040690783 -0.135134
0.028716197 0.15226194 -0.080627844 0.072243154 -0.006101816 0.0016587692 0.051867414 0.0977735
0.01965308 0.11472087 0.14652576 0.12739055 -0.021812713 -0.049546324 -0.056404788 0.080161326
-0.06804275 0.11944243 -0.0047182357 0.09102392 0.16597885 0.16582939 0.16181085 0.009564102
-0.04819477 -0.00048404513 0.079498 -0.08543817 -0.07800591 -0.03592974 -0.06766559 0.042700313
0.002710307 -0.030291215 0.043962274 0.0700048 0.11907431 0.13613296 0.016028102 0.14478856
0.013185732 0.12985688 -0.16560438 -0.08391223 0.05877261 0.010393095 0.058608677 0.090158306
-0.027757829 0.03257012 -0.07481876 0.1343932 -0.0560427 -0.022988368 -0.06618916 -0.074011534
0.07888669 0.01958648 -0.082247026 0.06607341 0.0825903 -0.09797694 0.12493638 -0.03037012
0.0025929443 -0.097384624 0.15239619 0.017339641 -0.072197266 -0.014101267 -0.07723212 0.11616106
-0.108905494 -0.015656851 0.13417736 0.0627548 0.11796164 0.0075189485 -0.08557154 -0.049478713
0.050871186 0.03567268 0.017182508 -0.027927907 0.042316146 0.056126203 0.081637256 0.101937264
0.033161554 -0.1618266 0.004589743 -0.035188504 0.10064452 -0.08271283 0.13149828 -0.089982465

fc3.bias f4 [8]
00000000: 8c0d a4bc be00 bdbd 3e48 cf3d faff b8bc
00000010: c833 9f3d 1318 8abc c119 91bd 0e18 c33b
-0.02002599 -0.09228657 0.10121201 -0.022582997 0.07773548 -0.016857183 -0.0708499 0.0059537953
