matchmaking_model.pth (torch, 29095 bytes, 6 tensors)

fc1.weight f4 [64, 31]
00000000: 9110 a33b 23db 373e 76c1 84bd d977 02bd
00000010: d857 99bd d1cb 98bd a847 663e 31da ed3d
00000020: 29ec f43d 5fb4 0f3e 0c9e 98bd 132a e03d
00000030: b8cb f43d 5fb7 383e b965 01be 9061 3ebd
00000040: 68d8 9abc 54b6 4e3d 24aa 553d a1df 12be
00000050: 5005 8ebd f488 b13d 871a c5bd 9072 673d
00000060: f454 2e3d 5849 19be 3791 95bd 7f4d 96bd
00000070: 06c0 0dbe 4080 2c3b aec4 173c 63fd dabd
00000080: 8110 6c3d 96b8 23bd 834e 6f3d 1288 84bc
00000090: 8633 3fbd 4468 bf3d dc80 663e 13bf cc3d
000000a0: ba10 5a3e ed7f df3d 5328 c0bb 5893 2e3e
000000b0: 9dfe b4bd 8053 323e 8a48 31be 382e ce3d
000000c0: 8f68 07be 6cc8 aa3d 0a23 153e 7f71 24be
000000d0: a01b ca3d 4074 06bb dc47 bfbd 381a ce3d
000000e0: 2889 a0bc bbcd 2dbe 9899 32be d425 853d
000000f0: bc4f 623d bc77 9b3d 5d96 b53d e048 b7bc
00000100: f434 863d 5df2 1a3e 9d53 b0bc bad2 0f3e
00000110: b59e 183e a9d2 29be 243c 1c3e 50e4 18be
00000120: ffe4 53bd 6383 b23d c012 ccbc 79ea 933d
00000130: 42b2 9bbd 7e11 16be 4a5b bcbd 929a 2ebe
00000140: 486d 35bd 68c7 2fbe 1032 c83c 35a5 b8bd
00000150: e434 fa3d c828 02be 0c66 fe3d 9811 493d
00000160: 827b 86bd 60b9 c0bd 4c28 10be f433 a03d
00000170: 07ee 33be e04b 0a3e a2a4 c6bd d056 7e3d
00000180: 0f4a 5c3e 5a1d 523e 5e1f 44bd 7a6d 493e
00000190: e5ef 2f3e 9fa2 83bd ef0b 60bd b7e8 383e
000001a0: 537c 2e3e 2072 2cbb 1067 193d bc87 f33d
000001b0: f788 32be 7000 27bd 318d 94bd f06d 9e3d
000001c0: a47d 6e3d e030 923d 6641 06be 080e f03d
000001d0: 5c13 0d3e 0e6e 16be 0463 793d 38fd f03d
000001e0: 7042 e73d 7848 e93d 644c 5abd 64bb 63bd
000001f0: 6df9 85bd e2c1 38bd fa00 0cbc 70ac d8bd
00000200: d3c7 dc3d a29d b4bd c511 ce3d 99be 453d
00000210: a0d1 4bbb 8312 c8bd 12b5 87bc f07f 1d3d
00000220: 3ef3 ab3c 30f8 253e 30bb b4bc 466c dfbd
00000230: 50cb ddbc 7c03 593d f833 a33c ecd6 373e
00000240: b473 b1bd aa4d 243e d834 cbbc 3e4f 223e
00000250: a26a 8a3d 84ab 14bd d1d7 abbd d894 17bd
00000260: 0018 cf38 9068 493c 3c3d 803d 5a6f 4c3e
00000270: 6bd8 4a3e 288a 3c3e e393 98bd 449b 9cbd
00000280: 1f01 103e d0c3 99bd f695 ebbd e319 503e
00000290: 12a0 2f3e 1fb1 0cbd 8dc9 313d f562 e6bd
000002a0: 4a8d 8f3d c4c2 323e 4e35 81bd c4e0 353d
000002b0: 48bb 803c d0e3 d23d 2d87 a2bd 24c0 0abd
000002c0: ae13 033e 5454 263e 1017 153e ca96 82bd
000002d0: 8441 c53d 7002 153e 345a 0cbd ee54 10be
000002e0: 0145 83bd dee1 1e3e f9bf 8d3b d389 64bd
000002f0: b39c 113e 848f 603e 081d 28bd 661b b6bd
00000300: 6bb9 583e 832f a83d f5a5 c7bd d51f ff3d
00000310: a7e7 313e 4834 553d a172 163e 07e0 b1bd
00000320: 2c6c 1abe 1431 0d3d d0bd 343e a8ef a93d
00000330: 884d cdbd b825 ff3d a669 01be 8742 e6bd
00000340: 507a a3bc 3c76 8bbd 7018 23be a021 983b
00000350: f8f3 953d d027 933d 40e1 35bb a44c 503d
00000360: 9af8 3b3e 4816 b4bd dce8 99bd 041c d2bd
00000370: 8cd5 cbbc 4c99 57bd b05e 813d 8beb 31be
00000380: abcb 0dbd c1c7 7ebc cc84 f13d f87c eb3d
00000390: 84a4 c83a feee e7bd 0029 b8bd 952e dbbd
000003a0: c0f3 b23d 60bd 73bd e687 003e e6a4 0c3e
000003b0: 1084 3cbc ccbf ea3d 5aae 163e 970a 10be
000003c0: 790e a3bd 90a1 1dbd 0031 d93d 6886 20bd
000003d0: db13 96bd 4c99 21be 6419 943d 9d86 c4bd
000003e0: a0d9 993d d27c fb3d 8541 74bd f951 1a3e
000003f0: b018 373e c4ad cdbd ff6a 9a3d df4c 613e
0.00497634 0.17954688 -0.06482212 -0.031852577 -0.07487458 -0.0746075 0.22488272 0.11613882
0.119591065 0.1403365 -0.0745202 0.10945525 0.11952919 0.180387 -0.1263646 -0.04647976
-0.018902019 0.05046685 0.052164212 -0.1434312 -0.06934607 0.086687 -0.096242 0.05650574
0.042561486 -0.14969385 -0.07303088 -0.07339 -0.13842782 0.002632156 0.009263201 -0.10692861
0.057632927 -0.039970957 0.058424484 -0.016178165 -0.046679996 0.09346059 0.22510093 0.09997382
0.21295443 0.10913072 -0.005864182 0.17048395 -0.08837626 0.17414665 -0.17312828 0.10067409
-0.1322348 0.08339009 0.14564148 -0.1605892 0.0986855 -0.0020516068 -0.09339878 0.100635946
-0.019596651 -0.16973011 -0.17441404 0.06501356 0.055251822 0.07591197 0.0886657 -0.022373617
0.06553069 0.15131517 -0.021524245 0.1404523 0.14904292 -0.16584267 0.15257317 -0.14930844
-0.05173206 0.08716466 -0.024911284 0.072224565 -0.07602359 -0.1465511 -0.091970995 -0.17051151
-0.04429367 -0.17165911 0.024437934 -0.09015886 0.12217119 -0.1271087 0.12421808 0.049089044
-0.06566526 -0.094103575 -0.14077872 0.07822409 -0.17571269 0.13505507 -0.0969937 0.06209451
0.21512626 0.20519009 -0.047881477 0.19670668 0.17181356 -0.06427502 -0.05469888 0.18057524
0.17039613 -0.002631314 0.037451804 0.11891124 -0.1743506 -0.0407719 -0.072534926 0.07735813
0.05822529 0.071382284 -0.13110885 0.11721426 0.13776916 -0.1469042 0.060885444 0.11767048
0.11291969 0.113907754 -0.053295508 -0.05559863 -0.06541715 -0.045106776 -0.008545155 -0.10579765
0.10780301 -0.088191286 0.10061983 0.04827747 -0.0031100288 -0.09769156 -0.016565833 0.03845209
0.02099001 0.16207957 -0.022061914 -0.109093234 -0.027074486 0.05298184 0.019922242 0.1795308
-0.08664647 0.16045251 -0.024805471 0.15850541 0.0675862 -0.036296383 -0.08390773 -0.037007183
9.8749995e-05 0.012292996 0.062616795 0.19964352 0.1980912 0.18412077 -0.07450082 -0.07646802
0.14062928 -0.075080514 -0.11503212 0.20322375 0.17150906 -0.034348603 0.043405104 -0.11249343
0.070093706 0.1745711 -0.06308995 0.044403806 0.015714303 0.10297358 -0.07935939 -0.033874646
0.12800476 0.16243106 0.14559579 -0.06376417 0.09631637 0.14551711 -0.034265712 -0.14094898
-0.06409646 0.15515849 0.0043258634 -0.055795502 0.14219932 0.21929747 -0.04104331 -0.088919446
0.21164481 0.08212187 -0.09748451 0.12457243 0.17373525 0.052051812 0.14692165 -0.08685308
-0.15080327 0.034470633 0.17650533 0.08297664 -0.100245535 0.12458366 -0.12637958 -0.11243158
-0.019955784 -0.06809661 -0.15927291 0.0046426803 0.07321924 0.07185328 -0.0027752668 0.05085434
0.18356553 -0.08793312 -0.075151175 -0.1025925 -0.0248821 -0.05263643 0.06316888 -0.17375009
-0.03461806 -0.015550555 0.11792907 0.11498445 0.0015307819 -0.11324881 -0.08992195 -0.10702244
0.08737898 -0.059506774 0.12551841 0.13734779 -0.0115060955 0.114623636 0.14714947 -0.1406654
-0.07961745 -0.038484156 0.10605049 -0.03919068 -0.07328006 -0.15781134 0.072314054 -0.09595988
0.07512212 0.12279667 -0.059632797 0.15070333 0.17880511 -0.10042909 0.07539939 0.2200198

fc1.bias f4 [64]
00000000: b5f1 f03d 067b d4bc f5b9 22be f6ca 453e
00000010: 3ead 4a3e 3936 eabd 8000 503d ecc0 1d3e
00000020: a493 ec3d f810 283d 7e79 4bbe ed7d 183e
00000030: 318f 3f3d 361c 5ebc 4c16 97bd 38f3 9c3d
00000040: 65f6 fe3d 1c72 073e 719a 3e3e 835f 64bd
00000050: 7f45 dabc da1d f93d 8fc8 173e 7958 d33d
00000060: bfa4 bfbd 2443 87bc 0fa2 2c3c f776 d23d
00000070: d644 273e 8ed1 0bbe 4981 a73d f0cb 523e
00000080: 007f c0b6 cee9 a7bd a714 9d3d ea0c 243e
00000090: fcc8 0e3e 8ffd c9bd cc88 4e3e 518a 2c3e
000000a0: 3fe8 93bd c1a5 89bd cc08 ed3c c19a 533e
000000b0: 2fc8 963d 9ce8 06be cb96 96bc c93a 86bc
000000c0: 2673 683e 301b 5abd 97d1 123d 871b 723d
000000d0: ba7b 003d a5a6 e13d 099b 153d 8f06 89bd
000000e0: 2286 8cbd e8ba 77b9 86d5 ddbb c7ef 91bd
000000f0: e15d 083e 9a64 c53d c2f1 913c 5662 b83d
0.11764852 -0.025937568 -0.1589125 0.19315705 0.19792649 -0.114361234 0.050781727 0.15405625
0.11551598 0.041031808 -0.19870564 0.14891787 0.046767417 -0.013556531 -0.073773 0.07663578
0.1244934 0.13227123 0.18613602 -0.05575515 -0.026644466 0.12163897 0.14822601 0.10319609
-0.09357595 -0.016511507 0.010536685 0.10276597 0.16334853 -0.13654158 0.08178956 0.20585608
-5.7368306e-06 -0.081988916 0.07669955 0.16020551 0.13943857 -0.098628156 0.20169371 0.16849639
-0.07222032 -0.06721068 0.028934859 0.20664503 0.07362401 -0.13174671 -0.01838245 -0.016385453
0.22700176 -0.053248584 0.03584441 0.059108283 0.031367995 0.11018113 0.036524806 -0.06690704
-0.06861521 -0.00023625384 -0.0067698387 -0.07125812 0.13317062 0.09638329 0.017815474 0.09003131

fc2.weight f4 [64, 64]
00000000: 5853 323d 2ad5 8f3d 0eb9 923d d072 b8bc
00000010: 02fb eabd 7c1c afbd 8c6c acbd 546b 393d
00000020: e0bd 99bc e0ab ecbb 3ae8 ed3d 229b b2bd
00000030: 18d9 15bd b85b ec3d 8099 bd3b fc68 e2bd
00000040: ae16 fabd 72cd bf3d 4c9c 9fbd e8f4 e13c
00000050: f016 14bc bae7 81bd dc3c e8bd 3a54 a8bd
00000060: 08cc ca3d 5c67 95bd d27b e83d 94d8 ddbd
00000070: 68cd 5cbd b09c 6cbd 64b1 ce3d 62b6 a1bd
00000080: 809a bb3a 60e2 8fbb e0f3 593c 34c1 febd
00000090: 6229 ccbd f40d 5a3d f0e1 1cbd a0a1 c6bd
000000a0: 0068 5fbb 2adf e4bd 40ee 73bb ac3a 7d3d
000000b0: 4c10 acbd 6e92 8abd 1839 1fbd f8b9 30bd
000000c0: fa0c 95bd 2688 ab3d fe0a bbbd 2849 c7bd
000000d0: be31 e8bd f0b3 cdbd fae0 cc3d 428e f33d
000000e0: d8ac d93c 2a10 a23d 50f3 533d f00b e6bd
000000f0: 8ad5 b5bd e6d9 ad3d d85d c4bd ca5f 823d
00000100: 1011 d2bd eed6 d53c 66a3 c4bd 3911 d93d
00000110: bc91 193d 6801 00be f211 1ebb 5484 e8bb
00000120: d98d ddbd 0e80 b53d 88ea 1b3c 5516 93bd
00000130: 79e3 5a3d 6119 0cbe 51ab ce3c 5e5b b4bd
00000140: 8710 813d 39a4 523d 4070 0c3d abfd bdbb
00000150: 6928 dcbb 8970 a1ba bd0c e83c 3075 8c3c
00000160: bcff d8bd adda 29bd d903 a53d 0ed1 05bc
00000170: be41 d1bd 30d8 6cbc 2377 03be be53 d9bb
00000180: fd57 ac3d ce79 e53b 9f40 703d f606 0cbe
00000190: 4d7a cbbb 8a89 8fbd 0bc3 45bc fe80 233d
000001a0: e783 c0bd b8e1 c33d 28ee bebc 3d21 883d
000001b0: 7717 afbd 5086 dd3d 4a8d 4f3d 811d 893b
000001c0: 71cd b53d 675c f23c 39f0 64bd 78df c3bd
000001d0: 7358 c43d 8ca3 3d3d 3228 ca3d 02fd dbbd
000001e0: 49a8 07bd 3a1d 4c3d 0f91 87bd 330c fa3c
000001f0: 77d7 bbbd 22df 123d f7bd 733d f081 373d
00000200: 0669 38bd bffd 193d a7f0 d7bd 34a3 ca3d
00000210: 3a5d 43bd 0f0b d5bc f5b6 8cbd 0eb7 abbd
00000220: 405c e5bd 519c 96bc 86c8 c03d 4ab6 b4bd
00000230: e1fb 0bbe 6765 003c 3359 853c c6f6 993d
00000240: a388 cebd 75d8 0a3d f752 cbbd 763c 18bd
00000250: 9b79 f0bd e9e3 813d 13c3 823d acc3 34bd
00000260: 042a 8fbb 9288 eebc a5f7 efbb c576 ad3c
00000270: a970 353d 4013 a2bb 0cff 4f3d 5831 023d
00000280: 7c4d ae3d c6b2 493d 6ad4 edbc 1f92 04be
00000290: c278 07be 3abd e2bd 42a5 d3bd 64fd 853a
000002a0: db73 13bd bbc5 7fbd 98e5 9abd 7e1b 2abd
000002b0: cd94 d4bc d08d 5fbc 8d32 dbbd 126d e4bd
000002c0: ddc8 b6bd 3f9f 06be 0d79 9fbd ac09 773c
000002d0: e3cf b6bd 5446 07be c78b 153b 709e 1a3d
000002e0: 8de6 fd3c 591a 14bd ff11 cdbd 8f3c e7bc
000002f0: 6f47 0bbe afd7 d0bc ea44 373d 2781 af3d
00000300: 0e4f 2a3e d2b8 65bd 0bd0 d1bb a717 7f3d
00000310: 7c40 993d d7d2 b33d c5ce 25bd 0959 5a3d
00000320: 630f 69bd db74 b23d cfd1 39bd fc21 563d
00000330: d35f 67bd 0e02 033e c593 1f3e ac4c f13c
00000340: 8106 d1bc 8734 903d a96a 2b3e d476 4abd
00000350: 9805 33bb fb9f 7cbc c00e 203e 0f60 93bc
00000360: 9933 4d3d 5734 133e 5571 89bd 6b5d 0c3e
00000370: bf7e c73a aa8d a83d 1c16 993c e61d 3e3d
00000380: bc93 0e3b 3a80 6fbd 4daa 033e d367 113e
00000390: c025 e93b 4002 e1bb 0659 dcbb 6cb1 213e
000003a0: f90b 84bd 371b 143d 744d e23d 9dd2 013e
000003b0: 9f16 0f3e 3898 9bbc 268a 353b faf7 acbc
000003c0: de22 0a3e 0515 cabc 6027 1b3e 5b04 923d
000003d0: 395d 9fbc a6e9 f33c d19f a33d 3113 f73d
000003e0: 549c 81bc f3ad 5c3d c809 303e 5748 0b3e
000003f0: b1f3 053d b9c5 b43d 64b8 893d 144f 35bc
0.043536514 0.0702308 0.07164203 -0.022515684 -0.11473657 -0.08550355 -0.08419141 0.04526837
-0.018767297 -0.0072226375 0.11616559 -0.087209955 -0.03658399 0.115409315 0.005786121 -0.110551804
-0.12211357 0.093653575 -0.07793483 0.0275826 -0.009038672 -0.063430265 -0.11339733 -0.0821919
0.09902197 -0.07295105 0.11351742 -0.108323246 -0.05390683 -0.057766616 0.10092428 -0.07896115
0.0014313012 -0.0043909997 0.013302773 -0.12439194 -0.09968831 0.053235963 -0.03830141 -0.09698796
-0.0034089088 -0.11175378 -0.0037220865 0.061823532 -0.08401546 -0.067662105 -0.03887281 -0.043146104
-0.07277866 0.08375578 -0.09132956 -0.0973075 -0.113376126 -0.10044086 0.100038484 0.11892368
0.026571676 0.07913239 0.051745713 -0.11232746 -0.0887862 0.084888265 -0.09588212 0.063659266
-0.10257161 0.026103463 -0.09601478 0.10598988 0.0374925 -0.12500536 -0.0024119583 -0.007095853
-0.10818071 0.08862315 0.009516366 -0.07181994 0.05343959 -0.13681556 0.025228174 -0.088064894
0.063019805 0.051426146 0.034286737 -0.005798062 -0.0067186845 -0.0012316863 0.028326387 0.017145723
-0.105956525 -0.04146831 0.080573745 -0.008167518 -0.102176175 -0.01445584 -0.12838416 -0.0066322973
0.0841522 0.0070030456 0.058655377 -0.1367453 -0.0062096477 -0.07008655 -0.012070428 0.03991794
-0.094001584 0.09564537 -0.023306921 0.06646965 -0.085493974 0.10816634 0.050671853 0.0041844253
0.088770755 0.029585076 -0.055893157 -0.09564108 0.09587183 0.04629855 0.09870948 -0.10741617
-0.033119474 0.04983256 -0.066194646 0.030523395 -0.09171956 0.035857327 0.059507336 0.044801652
-0.045022033 0.037595507 -0.10543948 0.0989441 -0.04769633 -0.02600625 -0.06870834 -0.08384524
-0.11199236 -0.018385084 0.09413247 -0.088238314 -0.13670303 0.007836676 0.016277885 0.075177714
-0.10084655 0.033897836 -0.09927934 -0.037167035 -0.117419444 0.063422985 0.06384864 -0.04413192
-0.0043690223 -0.029117856 -0.0073232227 0.021174798 0.044296894 -0.0049461424 0.05078034 0.03178534
0.08510873 0.049242757 -0.029031951 -0.12946366 -0.13229659 -0.11071248 -0.10334255 0.0010222611
-0.03599916 -0.06244443 -0.07563323 -0.041530125 -0.02594986 -0.013644651 -0.10703001 -0.11153616
-0.089250304 -0.13146685 -0.077867605 0.01507799 -0.0892637 -0.13210422 0.002281891 0.037748754
0.030993724 -0.03615794 -0.10013198 -0.028227119 -0.13601469 -0.025493471 0.044743456 0.08569556
0.1663172 -0.05608446 -0.0064029745 0.062278416 0.074830025 0.08780449 -0.040480394 0.053307567
-0.05689944 0.08713695 -0.045366105 0.052278504 -0.05648787 0.12793753 0.15583713 0.029455505
-0.025515797 0.07041269 0.16739906 -0.04942973 -0.0027316567 -0.015419002 0.15630627 -0.01799014
0.050098035 0.14375435 -0.067110695 0.13707511 0.0015220268 0.08230145 0.0186873 0.046415232
0.0021755537 -0.058471896 0.12857933 0.14199762 0.007115096 -0.0068667233 -0.0067244796 0.15790337
-0.06447596 0.036158767 0.11049929 0.12677999 0.13973473 -0.018993482 0.002770075 -0.021114338
0.13489863 -0.024668226 0.15151739 0.07129737 -0.019453632 0.029774498 0.07989467 0.12064207
-0.015821613 0.05387683 0.17191231 0.13601814 0.032703105 0.08826775 0.06724623 -0.011066217

fc2.bias f4 [64]
00000000: 767e f9bd 568b a5bb 667f af3d bb29 083e
00000010: 1b01 e6bc 20d3 c13d 3d06 a5bc 6614 03bc
00000020: d291 1d3e db89 00bc 4bdf 5b3d 8a9f a03d
00000030: 502d b83d 2dcf 153e 17d0 0f3e 1124 95bd
00000040: e220 8c3d b6fe a0bc 2514 8e3d ab35 ae3d
00000050: 490c 1d3e 9932 dd3d fefa a1bd 19f8 223d
00000060: 1f83 c23d 3498 e7bd ff7e 3fbc e884 b6bd
00000070: f79e f23c 5445 87bd 1078 2b3e 502d a4bd
00000080: 9a99 813d 1d63 4c3d 211c 203e 8b94 a5bd
00000090: 3dff efbd 0089 ba3d 6999 58bc 4ca6 0f3e
000000a0: 5503 a33d bee3 dcbd 7f21 0c3d 9679 96bb
000000b0: 2cf4 593d c792 123e 5f2a b03d 8a7b 263c
000000c0: a094 ecbd 01b3 e6bd 6c07 2d3e b121 b5bd
000000d0: e865 f8bd 1d4e 043d e1bb ee3d edff e73d
000000e0: 0044 22bd 4e9f 5f3d ced7 523c 8b1b 373d
000000f0: 68ef 333e f7ec 15bd 263d 3dbd 672d 8fbd
-0.12182324 -0.0050520105 0.08569221 0.13297169 -0.028076699 0.09464097 -0.020144576 -0.008000469
0.15387657 -0.007845367 0.053679746 0.0784293 0.08993018 0.14629813 0.14044224 -0.0728227
0.068422094 -0.019652706 0.06937436 0.0850633 0.15336718 0.10800666 -0.07909201 0.039787386
0.094976656 -0.11308327 -0.011687993 -0.089120686 0.029616816 -0.0660502 0.16745019 -0.08016455
0.06328125 0.04989921 0.1563573 -0.08084973 -0.11718605 0.09108162 -0.01322017 0.14028281
0.0795962 -0.10785626 0.034211632 -0.004592131 0.053211376 0.14313804 0.08601832 0.01016129
-0.115517855 -0.11264611 0.16897362 -0.08844317 -0.12128812 0.032301057 0.11656929 0.11328111
-0.03961563 0.054595284 0.012868835 0.044704 0.17571795 -0.03660294 -0.046200894 -0.06991082

fc3.weight f4 [8, 64]
00000000: ee67 ccbd a2c0 8fbd 56cf 413d bd6b 26be
00000010: 0776 dabc 0553 5a3d 1abc f1bd e37f 18bd
00000020: c9d9 dcbd 3e5d 02be e7ee a03c 45b3 f0bd
00000030: 884f 3e3d 020d 1bbe 61e4 2ebe e656 e6bd
00000040: 2e61 02be 69dc 1dbe 7e29 93bd 86f3 94bc
00000050: d3a3 cebd 7399 053b 81d2 953d 4c02 36bd
00000060: 7476 78bd 1285 aabd f099 2cbe 329d b33d
00000070: f0cf 12bd 200b 0cbc b995 b0bb 18e9 9cbc
00000080: 40c7 cf3d b817 d83c e952 ec3c 330c 51bd
00000090: 50ff 53bc 3055 c6bd b5c8 573c b670 72bd
000000a0: 10c8 15be 05a2 29bb dbdf e7bd 831b 1abe
000000b0: 93d5 f1bc d440 1abe ec65 943d ca6c 993d
000000c0: 8903 063d 0160 09bd b9b9 b5bd f432 093d
000000d0: 3109 913c 9fe3 c9bc 8fc0 a3bc 662b 93bd
000000e0: aa7b edbd b8a5 12be a6d9 01be 95b6 35be
000000f0: 49fe 303d 2cbd 603d 826b febd 6982 d1bd
00000100: d820 ef3c 3d9f 903d 846f d7bd 15a1 833b
00000110: d0d5 96bd ca07 cb3d e8f0 b7bd 1045 98bd
00000120: 6b22 b1bd bb87 28be 7822 d4bd 3754 7dbd
00000130: 204b f2bd 74e3 dcbd d0c9 03bd acb1 0c3d
00000140: 8cc1 28be 9671 93bb bb38 0dbe 3cc5 01be
00000150: 111f 363d f8c8 8a3d f6fa babd 4ec5 a93c
00000160: b23a 9b3d 4c65 5c3d 38f3 06bd 203e cabb
00000170: 22cf 6abd 843b 9e3d afbd dfbd 4061 82bc
00000180: 2b35 c5ba faeb 7d3d 9827 adbd a29b cfbd
00000190: 29a6 ba3d ff9f 10be d408 df3c 0ea6 eb3c
000001a0: a68a 01be 3c83 05bd c32e 22be d82d 1c3d
000001b0: 5aa0 ae3d e532 963c 1307 11be 31b7 15be
000001c0: 85e4 e5bd 0787 a9bd b6fd 3ebd de61 fbbd
000001d0: 76f7 bdbd e215 673d 96cd d6bd 7b6a 0a3d
000001e0: 9060 1dbc 88ec b7bc faa4 13be b802 6d3d
000001f0: d017 98bd 4745 843c 060c 20be d666 933b
00000200: b047 553c 5ab4 bebd 5155 a2bd 7b35 30be
00000210: cf79 66bd 55c4 dc3d 4401 3abd 0375 99bd
00000220: f09b 01be d2ed 00be 9a6d 0abe 8719 39be
00000230: 726f bebd 0c6b 03be 68e3 dbbc b246 b23d
00000240: 4df2 73bc f07f 41bc c345 f1bc abd8 65bd
00000250: 446b acbd 4b6c a73d f6cd 693d 18d8 983d
00000260: 486a 6d3d db2b b43d afb2 8bbc 2e8d aa3d
00000270: 890c 5fbd 0041 a63b 0a05 b3bd c06b 3bbc
00000280: 0fb7 d5bd 1a55 d1bd 5cb6 1abe 30a9 35bc
00000290: 14c7 c4bd 038b 33be 17f7 fcbd f6ec 30be
000002a0: f0e4 dbbd c3ef 87bc 4cd5 d5bd 3ac3 c5bd
000002b0: d9a0 ba3d 8819 19bd aa96 943d 76e7 b73d
000002c0: c95b 01be 3703 973d 5e56 2fbe d4f7 603d
000002d0: f1a5 123d ed18 09be efef 78bd e256 07bb
000002e0: f0e8 c5bd b710 3d3d df5b 96bd 8975 08be
000002f0: f102 4bbd 7390 093d 3645 17be e978 b93b
00000300: c0bd 6c3d 2ce9 21bd 30ea 193d 7747 96bd
00000310: 7683 f03c 0a44 993d 4c07 5ebd e7fe e1bd
00000320: 145f afbd b217 81bd 7ae6 3abe 9903 0abe
00000330: 5e25 f63c ccfa 35be a7fb 1ebd e7d1 593d
00000340: 21b4 a4bd 237f 763d 193e 16be f39f 5fbd
00000350: 65c3 11be f8e4 0fbe 2155 cfbc c482 25bd
00000360: d6dc 543d 2466 553c a941 a0bd b817 babd
00000370: 8ef3 6e3d 00ca afbb 4ce5 01be 8051 233b
00000380: 6ff8 08be 4aac 5bbd e107 77bd 0fea b53c
00000390: 0f1d 603c 544b 46bd e7f3 023d a686 01bd
000003a0: b5e4 6ebd 11d3 01bd 65e1 50bd 791f a4bd
000003b0: b4e5 c8bd 1043 b3bd 2175 643d f0af b73b
000003c0: 025f 1b3d fe7c 9c3d 5e15 a7bd 1d7a 2c3d
000003d0: cfae aa3d d661 8c3d 9ef7 12be a32a f8bd
000003e0: 6842 0dbd ab6f 503d 0852 1abe 3076 243c
000003f0: 9c5c f1bd b34b b3bc cdd7 23bd fdc4 b53d
-0.099807605 -0.07019164 0.04731687 -0.16252036 -0.026667608 0.05330183 -0.11803456 -0.037231337
-0.10783727 -0.12730882 0.019645168 -0.11752943 0.046462566 -0.15141681 -0.17079307 -0.11247043
-0.12732384 -0.15416111 -0.071856484 -0.018182527 -0.10089841 0.0020385652 0.07315541 -0.044435784
-0.06065984 -0.083261624 -0.16855597 0.08770217 -0.035842836 -0.008547574 -0.005388942 -0.019154117
0.10145426 0.026378497 0.028848128 -0.051037025 -0.012939289 -0.09684217 0.013170411 -0.05918952
-0.14627099 -0.0025883925 -0.11321994 -0.15049557 -0.029520785 -0.15063792 0.072460026 0.07491453
0.032718215 -0.033538822 -0.088733144 0.03349586 0.017704578 -0.024644671 -0.01998928 -0.07186012
-0.11595853 -0.14321029 -0.12680683 -0.17745431 0.043211255 0.05486791 -0.12422849 -0.10229952
0.029190466 0.07061622 -0.10519317 0.004017005 -0.07365 0.09913595 -0.08981496 -0.074350476
-0.08649143 -0.16458027 -0.10358137 -0.06184789 -0.11830735 -0.10785571 -0.032174885 0.03434913
-0.16480082 -0.0044996245 -0.13791172 -0.12672895 0.04446322 0.06776613 -0.09129898 0.020723965
0.075795546 0.05380754 -0.032946795 -0.0061719567 -0.057326443 0.077261955 -0.10924851 -0.015915513
-0.0015045753 0.061992623 -0.084548175 -0.101371065 0.09113724 -0.14123534 0.02722589 0.028765704
-0.12650546 -0.032595858 -0.1583815 0.038129658 0.085266784 0.018334815 -0.14162855 -0.14620663
-0.11225227 -0.082777075 -0.046628676 -0.12274526 -0.09275715 0.056417353 -0.10488431 0.033792954
-0.009605542 -0.022451654 -0.14418402 0.05786392 -0.07426417 0.016146315 -0.15629587 0.004498343
0.01301758 -0.09311743 -0.07926429 -0.17207901 -0.05626851 0.10779635 -0.045411363 -0.07493021
-0.12657142 -0.12590721 -0.13518372 -0.18076144 -0.092986 -0.12833804 -0.026841834 0.0870489
-0.014889312 -0.011810288 -0.02945221 -0.056114834 -0.08418897 0.08174952 0.057081185 0.074630916
0.057962686 0.08797427 -0.017052976 0.08327709 -0.054455314 0.0050736666 -0.087411955 -0.011439264
-0.10435306 -0.1022131 -0.15108627 -0.011087701 -0.09608284 -0.17533498 -0.12351816 -0.17277893
-0.10737026 -0.01659382 -0.10441074 -0.09656377 0.091127105 -0.037377864 0.072552994 0.089796945
-0.1263267 0.0737366 -0.1712279 0.054923847 0.035802785 -0.13388415 -0.060775694 -0.0020651151
-0.0966357 0.04615852 -0.07341742 -0.13326086 -0.049563352 0.033585023 -0.14772496 0.0056601656
0.057798147 -0.03952901 0.037576854 -0.073378496 0.02935956 0.074836805 -0.054206178 -0.11034947
-0.085630566 -0.06303348 -0.18251982 -0.13477935 0.030047115 -0.17771453 -0.038814213 0.053178694
-0.08042169 0.06017984 -0.14672126 -0.0545959 -0.14234693 -0.14052188 -0.025309147 -0.04040791
0.051968418 0.0130248405 -0.07825024 -0.09086555 0.05833774 -0.0053646564 -0.12685126 0.0024920404
-0.1337602 -0.053631105 -0.06031025 0.022206334 0.013678803 -0.048411682 0.031970885 -0.03162255
-0.05832358 -0.03169543 -0.050996203 -0.080138154 -0.098094374 -0.087530255 0.055775765 0.00560569
0.037932403 0.07641028 -0.08158372 0.042108644 0.08334123 0.06854598 -0.14352271 -0.12117507
-0.034487158 0.050887745 -0.15070355 0.010037944 -0.11785242 -0.021886682 -0.040000726 0.08875463

fc3.bias f4 [8]
00000000: 53c6 1bbe 73f2 7cbb 4fd9 9dbb 890f d53a
00000010: 42e2 afbc 6ef9 893d 3a05 a63c 1fc0 18be
-0.15212373 -0.003859666 -0.004817165 0.001625524 -0.021470193 0.06737028 0.020266164 -0.14917038
