matchmaking_model.pth (torch, 29095 bytes, 6 tensors)

fc1.weight f4 [64, 31]
0.08556342 0.046760462 -0.055520438 0.023261648 -0.0207503 0.11291287 -0.07939905 0.11565435
0.06052954 0.12678361 0.03868331 0.019493757 -0.059430003 0.21078782 -0.061102487 -0.039557025
0.16710714 0.17864087 -0.11792163 0.17395413 -0.00011974573 -0.03347437 -0.058936566 -0.09820951
0.072606325 -0.16587761 0.178419 -0.16064382 0.10823828 -0.12613861 0.04028533 -0.066693105
-0.08032677 0.04168345 -0.11021797 -0.10374748 -0.028095787 0.21911182 -0.09512766 -0.0022898777
0.032081176 0.1582347 0.09530556 0.18557605 0.17582004 -0.016848147 0.033961162 -0.14934127
0.019683227 -0.020811468 -0.054594412 0.0475232 -0.12620324 0.047340408 0.090254724 0.0018936992
-0.07928516 -0.022926435 -0.14297625 0.08006567 0.037161455 0.2037011 -0.026622167 0.20908147
-0.06777046 0.22016284 0.12511845 0.15122415 0.050896738 0.09828972 0.18076426 0.07352435
0.09124745 0.0797235 0.060149215 0.08186535 0.13935369 0.160175 0.12630826 0.024981573
0.033367813 0.017090172 -0.0037299246 0.026865453 0.15111205 -0.1422591 -0.03372939 0.005267188
-0.13872705 0.115648836 -0.14267494 -0.07912002 -0.10384711 0.21604253 0.09633676 0.16963224
-0.07858652 0.022569455 -0.11273775 -0.066470236 -0.055213027 0.15754132 0.02615837 0.1378249
0.020863282 -0.11835235 0.0109585095 -0.119671255 -0.009142488 -0.10296723 -0.06513837 0.019594938
-0.098287895 0.1724981 -0.10221978 0.018247053 -0.08293695 0.046222806 0.17512554 -0.049474314
-0.15456593 0.059989884 -0.021731526 0.12343795 0.08685119 0.03718792 0.0026020536 -0.128674
-0.070150666 -0.15580378 -0.13622366 -0.099105366 -0.07636772 0.0235236 0.09410302 -0.116554685
-0.0949148 0.037186973 -0.061612554 0.025495037 -0.08252816 -0.12916443 0.08354515 -0.17838593
-0.1652981 0.06700164 0.035457507 0.15349936 -0.15712696 -0.12747991 0.08279854 -0.036232352
-0.15946196 0.122096 -0.012046835 0.085284196 0.0011814467 -0.007890127 0.1948244 0.012081649
0.04514142 0.15007572 0.20673347 0.13780683 -0.044633575 -0.06218002 0.20310071 -0.032083955
-0.02534756 0.084570765 -0.15314011 0.1636228 0.116721004 0.11517125 -0.044890404 0.091436416
-0.006450221 0.10762572 0.09191933 0.14160714 0.0049200356 0.092870444 -0.11751061 0.053709403
-0.11333016 0.21081574 0.1792847 -0.0008037338 0.20023675 0.20653208 0.10890257 0.12826505
0.15112899 0.097416736 0.17067552 -0.11942587 0.23030509 0.18618073 0.19216798 -0.10695672
0.008961692 -0.17021628 0.14289176 0.15936676 0.06614223 0.06885947 0.08890474 0.06792785
-0.060343094 -0.04877849 -0.17509317 0.0329549 0.08256006 -0.045676053 -0.08984517 -0.047693953
0.116310604 -0.15116158 -0.11584986 0.1011402 0.0477433 -0.03721513 0.08624383 0.113844335
0.038368233 -0.15843411 -0.13783716 0.11760581 0.028333887 0.044859227 0.050587453 -0.15137297
-0.05759941 -0.060964346 0.04427515 0.118274 0.13140932 -0.084042385 -0.08020084 0.07115927
-0.07619663 0.021402717 -0.12711975 -0.17654298 0.12827155 0.116850644 -0.16410598 0.07103314
0.234222 -0.07207055 0.004358428 0.031989567 0.08505261 0.09526768 0.118943036 0.06111106
00000000: e03b af3d e687 3f3d 6669 63bd 368f be3c
00000010: 88fc a9bc dd3e e73d f89b a2bd 30dc ec3d
00000020: d3ed 773d 90d3 013e 6472 1e3d 5fb1 9f3c
00000030: e06c 73bd c3d8 573e 9a46 7abd 8c06 22bd
00000040: 221e 2b3e a2ed 363e e580 f1bd 0821 323e
00000050: 0020 fbb8 6c1c 09bd 7867 71bd 1122 c9bd
00000060: a0b2 943d d2db 29be 78b3 363e d07f 24be
00000070: 08ac dd3d 7b2a 01be 3b02 253d 6596 88bd
00000080: 5d82 a4bd 44bc 2a3d f6b9 e1bd 8f79 d4bd
00000090: 2329 e6bc d95e 603e 4ad2 c2bd c611 16bb
000000a0: 8d67 033d 4708 223e 902f c33d a607 3e3e
000000b0: 2b0a 343e 2005 8abc dc1a 0b3d ebec 18be
000000c0: b83e a13c d07c aabc 649e 5fbd b0a7 423d
000000d0: 6c3b 01be 04e8 413d 78d7 b83d 0036 f83a
000000e0: 4260 a2bd 38d0 bbbc 5e68 12be 78f9 a33d
000000f0: 9c36 183d 0597 503e bb16 dabc 7419 563e
00000100: 3dcb 8abd 5e72 613e 0d1f 003e 81da 1a3e
00000110: 1979 503d 1f4c c93d 441a 393e ef93 963d
00000120: f1df ba3d 1346 a33d 065f 763d 05a9 a73d
00000130: bcb2 0e3e ea04 243e f456 013e 28a6 cc3c
00000140: b0ac 083d b000 8c3c c071 74bb f014 dc3c
00000150: 1ebd 1a3e 5fac 11be d427 0abd 6098 ac3b
00000160: 770e 0ebe 4cd9 ec3d 6119 12be ad09 a2bd
00000170: cbad d4bd 413a 5d3e 354c c53d 13b4 2d3e
00000180: f8f1 a0bd 94e3 b83c 0de3 e6bd 8c21 88bd
00000190: 0e27 62bd 8352 213e 144a d63c f821 0d3e
000001a0: 79e9 aa3c b862 f2bd 528b 333c 3416 f5bd
000001b0: 60ca 15bc 7ce0 d2bd 4467 85bd 9085 a03c
000001c0: 2a4b c9bd 58a3 303e 9b58 d1bd d87a 953c
000001d0: d9da a9bd 2054 3d3d 1c54 333e 94a5 4abd
000001e0: 8846 1ebe f4b7 753d 5006 b2bc 09cd fc3d
000001f0: 09df b13d 5c52 183d 3787 2a3b 1ec3 03be
00000200: 27ab 8fbd 078b 1fbe 377e 0bbe c1f7 cabd
00000210: ae66 9cbd 91b4 c03c 16b9 c03d 39b4 eebd
00000220: b162 c2bd 5e51 183d 725d 7cbd f8da d03c
00000230: 8604 a9bd ae43 04be b819 ab3d cdaa 36be
00000240: e843 29be 2838 893d e43b 113d f02e 1d3e
00000250: e4e5 20be 188a 02be 4892 a93d 6068 14bd
00000260: ff49 23be 780d fa3d 1760 45bc 7ba9 ae3d
00000270: c6da 9a3a 9745 01bc 0c80 473e 1cf2 453c
00000280: 36e6 383d 73ad 193e f0b1 533e 3c1d 0d3e
00000290: b2d1 36bd 7ab0 7ebd a2f9 4f3e 776a 03bd
000002a0: b0a5 cfbc 7033 ad3d c3d0 1cbe bc8c 273e
000002b0: 6c0b ef3d e8de eb3d 00df 37bd 0443 bb3d
000002c0: 605c d3bb e06a dc3d 3440 bc3d 7601 113e
000002d0: 4038 a13b dc32 be3d 67a9 f0bd 64fe 5b3d
000002e0: a519 e8bd 15e0 573e 6996 373e aab1 52ba
000002f0: dd0a 4d3e 257d 533e 5008 df3d ea57 033e
00000300: 8fc1 1a3e 6d82 c73d 90c5 2e3e 8d95 f4bd
00000310: 19d5 6b3e 29a6 3e3e afc7 443e 200c dbbd
00000320: 10d4 123c 2d4d 2ebe 3852 123e 0a31 233e
00000330: 9475 873d 3206 8d3d b013 b63d c21d 8b3d
00000340: 522a 77bd f4cb 47bd a04b 33be b8fb 063d
00000350: 4015 a93d d016 3bbd bf00 b8bd bc5a 43bd
00000360: 4134 ee3d 1aca 1abe b142 edbd 9822 cf3d
00000370: 7b8e 433d e46e 18bd 9ba0 b03d 3827 e93d
00000380: 0228 1d3d 8d3c 22be 2f25 0dbe 51db f03d
00000390: 781c e83c 4fbe 373d ca34 4f3d 8401 1bbe
000003a0: 5ced 6bbd c0b5 79bd dc59 353d a439 f23d
000003b0: 2a90 063e 6a1e acbd 5740 a4bd f4bb 913d
000003c0: fb0c 9cbd c054 af3c ae2b 02be afc7 34be
000003d0: 9e59 033e 644f ef3d 660b 28be d379 913d
000003e0: e4d7 6f3e b999 93bd 25d1 8e3b 7e07 033d
000003f0: 1030 ae3d b41b c33d 6898 f33d 974f 7a3d

fc1.bias f4 [64]
0.06899472 0.16122884 0.00973043 0.1922504 -0.09152541 0.057469435 -0.017153211 -0.080550544
0.10267231 -0.082567826 0.0055104406 0.038242742 -0.002253116 0.23631878 0.16417667 0.17342088
-0.11895681 0.07470754 -0.0641465 0.13435914 0.14856052 0.17508683 -0.05479209 -0.033650152
-0.066112965 -0.09317211 -0.009157041 0.18841557 0.19641288 0.17798622 -0.12945683 0.07543237
-0.10349568 0.22601774 -0.15109876 -0.026191376 -0.06408099 0.002617089 0.13484916 0.025174994
0.20238784 0.004205985 -0.06357401 0.010637325 -0.06002022 -0.09378638 -0.11514105 0.117765464
-0.1288652 0.16327906 0.20055063 -0.0038244654 0.073710434 -0.11239208 0.17635651 0.05562599
0.03473645 -0.005964053 0.12820043 0.11023139 0.16009723 0.14123832 0.05528202 0.05061561
00000000: 1b4d 8d3d 2c19 253e 626c 1f3c 4add 443e
00000010: ad71 bbbd 1265 6b3d e484 8cbc aff7 a4bd
00000020: dc45 d23d 5219 a9bd ed90 b43b 6ca4 1c3d
00000030: 04a9 13bb 8dfd 713e ee1d 283e 3e95 313e
00000040: a19f f3bd 4400 993d 3d5f 83bd 7195 093e
00000050: 4020 183e f649 333e ac6d 60bd bed4 09bd
00000060: 3c66 87bd 05d1 bebd 6a07 16bc 03f0 403e
00000070: 7520 493e 0542 363e 5590 04be 497c 9a3d
00000080: 8bf5 d3bd 3271 673e a2b9 1abe 4c8f d6bc
00000090: e53c 83bd 7883 2b3b e615 0a3e ca3b ce3c
000000a0: c23e 4f3e 5cd2 893b 1733 82bd 2d48 2e3c
000000b0: c3d7 75bd 1313 c0bd 12cf ebbd 052f f13d
000000c0: 3df5 03be a032 273e 255d 4d3e e2a3 7abb
000000d0: 7ff5 963d d22d e6bd cd96 343e 14d8 633d
000000e0: cf47 0e3d 1a6e c3bb f946 033e ffc0 e13d
000000f0: 87f0 233e c7a0 103e 666f 623d 5052 4f3d

fc2.weight f4 [64, 64]
-0.055243608 -0.01566019 -0.1346991 0.07013943 0.073474295 0.070162825 -0.03752431 0.013147228
-0.09277322 -0.02099424 0.09990944 -0.03365948 -0.079142906 -0.050815906 -0.1108774 -0.053612452
-0.13297287 -0.12380641 0.08413637 -0.057003867 0.07391331 -0.008031508 0.09255061 -0.122011006
0.026044594 0.046132304 -0.04267184 -0.047891635 0.09352493 0.04478191 0.011263432 -0.03413804
-0.10663845 -0.0033177976 0.0009610951 0.029843807 -0.034214105 0.03960817 -0.03343468 -0.027160414
-0.07978533 0.0053133946 -0.034163635 -0.13806213 0.10236496 -0.029049281 0.0061076214 -0.12339897
-0.11692825 0.087814145 -0.03580178 0.04981689 0.024032649 -0.032559834 0.030245809 -0.07533453
0.053464614 -0.044422228 -0.011815659 -0.09285038 0.091169484 0.054857865 0.06691176 0.0066566095
-0.013780404 -0.06347988 0.02917243 0.08805662 -0.009687707 0.014544533 -0.018830677 -0.12507588
-0.09224187 0.000115949886 0.06250416 -0.07004172 -0.048673604 -0.0041882466 -0.13832164 -0.07520373
-0.07307366 -0.017945442 0.07481207 0.02062038 -0.08980117 0.00015948045 0.046268173 0.02194975
0.102384806 -0.121906936 0.01573132 0.008127645 0.048978053 -0.011179747 -0.032227002 -0.031814385
-0.0014638595 0.03744529 -0.07323933 -0.054116633 -0.06381268 -0.12151386 -0.014524185 -0.059337307
-0.11826863 -0.14730321 0.08733101 -0.016184488 0.09531578 -0.027313506 0.09729934 0.080868185
-0.025487645 -0.10069998 0.092592165 -0.040064123 -0.06827151 0.03564773 -0.09084004 -0.14143845
-0.12696464 -0.11246955 -0.067492455 -0.06308645 -0.072107494 0.09161575 0.025773006 -0.07411299
-0.088361256 -0.056899402 -0.03629547 0.105602294 -0.020516496 0.028870102 0.020473937 -0.0030337193
0.027193438 -0.016567752 -0.11985839 0.0697115 -0.077905215 0.032032628 -0.04369154 -0.033031873
-0.06456151 -0.114987016 -0.03142299 -0.0938945 0.054968994 -0.04452391 -0.029431209 -0.063645095
0.037230078 -0.05139541 0.0026700376 0.017762253 0.100380935 -0.016365198 0.10550547 -0.07479155
0.00486233 -0.12577988 0.123372555 -0.02429226 0.084152475 0.02940533 -0.13434552 -0.027948752
-0.042890664 -0.075940326 -0.1212684 -0.104976386 -0.12577504 -0.04977059 -0.06566613 -0.02240778
-0.13520311 0.08029891 0.07395386 0.11024002 0.07975814 -0.0907575 -0.121053904 0.05295854
-0.08258112 -0.045257695 0.055937026 0.09803929 -0.07167648 0.06716679 0.107998416 0.041276086
-0.039840277 0.1659129 0.07195973 0.16072358 0.11865027 0.038912997 -0.0035388293 0.07529217
0.06377898 0.06780603 -0.0366448 0.1354652 0.05737035 0.016705917 0.02131126 -0.055547606
0.15442227 0.021568704 -0.07080923 -0.011177115 0.06031923 0.0108689405 0.16478021 0.06170902
0.05442161 -0.009247375 0.08783406 0.010251514 0.027271705 0.07687264 -0.027787918 0.12311014
-0.033107333 0.039225534 0.033583254 -0.04956215 0.1272391 -0.036630895 0.10730129 0.17021762
0.13185896 0.047769684 0.15600605 -0.02628876 0.093467794 0.08948948 -0.06800057 0.11053173
-0.022582341 0.034037173 -0.02172767 0.0070559797 0.07411614 0.087313905 0.032911412 0.1378956
-0.0341343 -0.01715067 -0.010140677 0.051701766 0.009063807 -0.009115364 0.17160103 0.1737072
00000000: 1f47 62bd cc49 80bc 90ee 09be 43a5 8f3d
00000010: b179 963d 87b1 8f3d 17b3 19bd 7967 573c
00000020: e3ff bdbd 1dfc abbc 529d cc3d 86de 09bd
00000030: ad15 a2bd 5724 50bd b113 e3bd bb98 5bbd
00000040: 0a2a 08be 378e fdbd b04f ac3d e37c 69bd
00000050: dd5f 973d 9696 03bc 2d8b bd3d e8e0 f9bd
00000060: 795b d53c 3af5 3c3d abc8 2ebd 052a 44bd
00000070: 008a bf3d 3c6d 373d 428a 383c 54d4 0bbd
00000080: 4265 dabd 686f 59bb 00f2 7b3a 007b f43c
00000090: 1724 0cbd 2d3c 223d cef2 08bd 847f debc
000000a0: 7e66 a3bd fc1b ae3b 2bef 0bbd 2960 0dbe
000000b0: b8a4 d13d c2f8 edbc 7122 c83b 99b8 fcbd
000000c0: 1478 efbd e7d7 b33d e3a4 12bd cc0c 4c3d
000000d0: 1ee0 c43c 765d 05bd 0fc6 f73c fd48 9abd
000000e0: b6fd 5a3d 15f4 35bd 7796 41bc 5728 bebd
000000f0: 11b7 ba3d a4b2 603d 0809 893d b01f da3b
00000100: 34c7 61bc bd01 82bd 05fb ee3c 0757 b43d
00000110: 30b9 1ebc 314c 6e3c cb42 9abc e413 00be
00000120: 4ee9 bcbd 1f2a f338 2e02 803d 0972 8fbd
00000130: f95d 47bd 8f3d 89bb 30a4 0dbe 6a04 9abd
00000140: a5a7 95bd 5202 93bc 1237 993d 12ec a83c
00000150: ade9 b7bd 353a 2739 b283 3d3d f6cf b33c
00000160: 20af d13d 58aa f9bd f8de 803c d029 053c
00000170: 369d 483d 422b 37bc 7600 04bd cd4f 02bd
00000180: f9de bfba 3b60 193d 80fe 95bd 67a9 5dbd
00000190: 39b0 82bd 42dc f8bd d9f6 6dbc ad0b 73bd
000001a0: d336 f2bd a7d6 16be 9ada b23d 5595 84bc
000001b0: eb34 c33d 93c0 dfbc e044 c73d 389e a53d
000001c0: 77cb d0bc cb3b cebd f6a0 bd3d 471a 24bd
000001d0: efd1 8bbd 5b03 123d 580a babd 3ed5 10be
000001e0: 0503 02be 6f56 e6bd 7c39 8abd 7833 81bd
000001f0: 18ad 93bd 0aa1 bb3d e921 d33c 8dc8 97bd
00000200: bff6 b4bd 590f 69bd 8faa 14bd 0446 d83d
00000210: 3612 a8bc fe80 ec3c f5b8 a73c 5dd1 46bb
00000220: c6c4 de3c 18b9 87bc 5178 f5bd e7c4 8e3d
00000230: c58c 9fbd a534 033d e6f5 32bd 6e4c 07bd
00000240: d338 84bd 507e ebbd 65b5 00bd c24b c0bd
00000250: 2b27 613d b45e 36bd b819 f1bc 5c58 82bd
00000260: 917e 183d fe83 52bd ccfb 2e3b 2582 913c
00000270: 8594 cd3d 4f10 86bc 4013 d83d 502c 99bd
00000280: 2e54 9f3b 71cc 00be c0aa fc3d 9000 c7bc
00000290: 2258 ac3d 72e3 f03c df91 09be c8f4 e4bc
000002a0: 1fae 2fbd 9a86 9bbd 915b f8bd dcfd d6bd
000002b0: 2ccb 00be 3fdc 4bbd f77b 86bd 8590 b7bc
000002c0: af72 0abe c173 a43d 1f75 973d 85c5 e13d
000002d0: 3c58 a33d 11df b9bd 1ceb f7bd 0eeb 583d
000002e0: 4a20 a9bd 2260 39bd 391e 653d d3c8 c83d
000002f0: 1ecb 92bd be8e 893d 462e dd3d 1d11 293d
00000300: 8f2f 23bd 12e5 293e 9f5f 933d b994 243e
00000310: eafe f23d 3c63 1f3d b4eb 67bb c832 9a3d
00000320: 8e9e 823d e3dd 8a3d dc18 16bd 64b7 0a3e
00000330: 2cfd 6a3d d9da 883c f494 ae3c e385 63bd
00000340: df20 1e3e dab0 b03c 6e04 91bd 3820 37bc
00000350: 4c11 773d a413 323c 25bc 283e 99c2 7c3d
00000360: 32e9 5e3d 4d82 17bc 58e2 b33d f7f5 273c
00000370: e968 df3c 676f 9d3d 7da3 e3bc 2b21 fc3d
00000380: 8e9b 07bd f4aa 203d 988e 093d ae01 4bbd
00000390: f74a 023e 470a 16bd c7c0 db3d 874d 2e3e
000003a0: 0906 073e 25aa 433d 0dc0 1f3e 875b d7bc
000003b0: 0b6c bf3d 4346 b73d e243 8bbd 765e e23d
000003c0: 9afe b8bc 906a 0b3d 3afe b1bc d935 e73b
000003d0: 34ca 973d a2d1 b23d 1ece 063d 8134 0d3e
000003e0: 68d0 0bbd 907f 8cbc 1525 26bc 3bc5 533d
000003f0: 5d80 143c 9c58 15bc 2eb8 2f3e 4de0 313e

fc2.bias f4 [64]
-0.061236158 0.020542677 -0.062030595 0.09400943 0.114896424 0.027924627 0.026940122 0.1645239
-0.05807392 -0.032381438 -0.010796533 -0.13891423 -0.065632015 -0.01436379 -0.09457088 -0.03868493
-0.079851024 -0.036888078 -0.035243105 0.14250812 0.07621216 -0.067497164 0.011124452 -0.043990716
-0.048655458 0.06978677 0.07999647 0.08854032 -0.12681231 -0.028177833 0.08764571 0.053906474
0.15295278 0.16229886 -0.039444383 0.10409125 -0.0025300116 0.055468436 0.027802054 0.03170636
0.007258864 0.031466752 0.11239006 -0.06288522 -0.028010868 0.101322055 0.004496105 0.039691776
-0.042546436 0.057639226 0.17296697 0.06613213 0.039582808 0.15795687 0.15948425 0.12053674
-0.036404192 -0.084764 0.03497187 -0.082847945 -0.076861165 -0.06913816 0.07590625 -0.056435645
00000000: c4d2 7abd 1e49 a83c cb13 7ebd 0488 c03d
00000010: d14e eb3d 30c2 e43c 88b1 dc3c f478 283e
00000020: ebde 6dbd 66a2 04bd f1e3 30bc 883f 0ebe
00000030: 146a 86bd 1a56 6bbc 61ae c1bd 1774 1ebd
00000040: ef88 a3bd f417 17bd 135b 10bd a6ed 113e
00000050: 1f15 9c3d f43b 8abd 5543 363c 9c2f 34bd
00000060: f24a 47bd 5eec 8e3d 30d5 a33d a154 b53d
00000070: 16db 01be 33d5 e6bc 987f b33d 09cd 5c3d
00000080: a79f 1c3e ac31 263e 6f90 21bd cb2d d53d
00000090: 8dce 25bb df32 633d 22c1 e33c 87de 013d
000000a0: c4db ed3b 48e3 003d c32c e63d f7c9 80bd
000000b0: 0c77 e5bc f081 cf3d 1054 933b d893 223d
000000c0: 2c45 2ebd 1c17 6c3d 411e 313e 4870 873d
000000d0: 9521 223d 72bf 213e d74f 233e f7db f63d
000000e0: 901c 15bd bf98 adbd aa3e 0f3d 2fac a9bd
000000f0: 6369 9dbd 4f98 8dbd bc74 9b3d 1029 67bd

fc3.weight f4 [8, 64]
-0.04549649 -0.061770007 0.07459759 0.015946148 0.0066184388 0.04700432 -0.16824913 -0.15665367
0.08747827 -0.029230507 -0.1389675 -0.075637594 0.12379733 -0.012584978 0.0725077 -0.07153143
-0.11538506 0.06442272 -0.085715204 0.04556393 -0.09118834 -0.10575204 -0.061072584 -0.09299964
-0.13019454 0.013885165 -0.13566492 -0.079011865 0.07400593 0.016201617 0.060355674 -0.17712845
0.01736402 -0.17856999 -0.007966545 -0.1602802 -0.16496666 0.058704887 -0.025353692 0.02908603
0.03895868 -0.10707701 0.0202212 -0.11213977 -0.049000807 0.061709914 0.10257463 -0.009888249
0.0981071 -0.06403164 0.025019245 -0.1143405 -0.096531846 -0.11407587 -0.035152167 -0.036763337
-0.01001057 -0.01969246 -0.12734587 -0.004982633 -0.01997748 0.056007322 -0.13075884 -0.010558948
0.0018225985 0.08233413 0.06990587 -0.08741225 -0.011796416 -0.13027306 -0.06282809 -0.16620699
-0.09340861 -0.18239933 0.043511383 0.079794 -0.001216352 -0.023829697 -0.13312522 0.008065339
-0.011861114 -0.095833234 0.020719688 -0.04350404 -0.041738052 0.020764897 -0.10952499 0.0049285293
-0.010822974 -0.16243121 -0.03401567 -0.038100608 -0.021434614 0.041465003 0.0017016937 -0.104135565
-0.11889113 0.020557273 -0.12836494 0.03859317 -0.054112468 -0.09567184 0.08596147 0.052596733
0.011765909 0.0037260624 -0.012982653 -0.16230515 0.09966347 0.008402006 0.053934984 0.041903332
0.02736774 -0.06150458 -0.06999231 -0.04880294 -0.02366295 -0.15725696 -0.058749154 0.019064697
0.013355359 -0.09433216 0.056735214 0.06317636 -0.09233346 -0.0007353516 -0.12666495 -0.11015122
0.10872901 0.08081932 -0.0387398 -0.11561626 -0.050527576 -0.11711409 -0.111550294 -0.023741068
0.0749522 -0.119150184 -0.055596977 -0.00069433375 0.07773204 -0.025918651 -0.070152186 -0.10824773
0.079870775 -0.16631316 -0.16004817 0.0094597135 -0.136716 -0.0039620986 0.031305153 0.0015340745
0.013880497 -0.12104214 -0.1706682 0.075291455 0.026607139 0.047738478 -0.037092842 -0.12977308
-0.030843271 0.02531195 -0.1373119 -0.096777126 -0.15483363 -0.021296818 -0.01538737 -0.12604472
-0.07209045 -0.10440817 -0.08178574 -0.06573961 -0.091002375 -0.07036635 -0.14136 -0.12326339
0.048178807 -0.023746802 -0.032213796 -0.08323947 -0.10648051 -0.10288471 -0.024910333 -0.0743657
-0.1236531 0.086165786 0.06902476 -0.099648625 0.037420902 -0.14074932 0.028881812 0.1148555
-0.015452777 -0.01536611 0.08906582 0.0013663543 -0.092609785 -0.11667562 -0.02607479 -0.1633138
-0.026358033 -0.1511026 -0.17347345 0.014997083 0.09040661 -0.046387393 0.106196 0.035605833
-0.0047256406 0.025978902 -0.1280715 0.049529817 -0.075032145 -0.0599781 -0.042404484 -0.114587024
0.037682876 -0.057782527 -0.1351051 0.081462435 0.118249856 0.017353695 0.020259617 -0.17356123
-0.111314036 -0.07962239 0.0126387505 -0.16839346 0.061222352 -0.05204146 0.11020765 0.07134658
-0.14128463 -0.0811586 -0.11474782 -0.112559475 0.07217371 -0.054019477 0.014565567 -0.062196407
0.06760198 0.02513092 -0.10655338 -0.12083155 0.014888373 -0.0033827117 -0.10913487 -0.12053773
0.11928831 0.07870246 0.02134867 0.01375084 0.036210705 -0.01817526 -0.12967932 0.08292508
00000000: 875a 3abd 8c02 7dbd 9fc6 983d 7fa1 823c
00000010: 7ddf d83b 9a87 403d 8049 2cbe d269 20be
00000020: cf27 b33d d174 efbc 7f4d 0ebe e2e7 9abd
00000030: 7489 fd3d 3931 4ebc eb7e 943d 127f 92bd
00000040: 014f ecbd 0ff0 833d 748b afbd 3ea1 3a3d
00000050: f4c0 babd 8794 d8bd 3f27 7abd 9876 bebd
00000060: b851 05be 9a7e 633c bfeb 0abe f9d0 a1bd
00000070: 6c90 973d 41b9 843c 8337 773d 2961 35be
00000080: fd3e 8e3c 0ddb 36be 1d86 02bc 7e20 24be
00000090: 05ed 28be 8974 703d 8cb2 cfbc d345 ee3c
000000a0: 2393 1f3d 314b dbbd eea6 a53c 89a9 e5bd
000000b0: 12b5 48bd 89c3 7c3d a612 d23d 5302 22bc
000000c0: 60ec c83d 0523 83bd 29f5 cc3c 5a2b eabd
000000d0: 7db2 c5bd 9ca0 e9bd b8fb 0fbd 2795 16bd
000000e0: 6003 24bc 1552 a1bc f566 02be 5b45 a3bb
000000f0: d0a7 a3bc ef67 653d a5e5 05be 70ff 2cbc
00000100: 42e4 ee3a cc9e a83d cf2a 8f3d 3205 b3bd
00000110: c145 41bc 4d66 05be 03ac 80bd 2a32 2abe
00000120: 034d bfbd e4c6 3abe fe38 323d 096b a33d
00000130: 006e 9fba 7f36 c3bc fa51 08be 7c24 043c
00000140: 1e55 42bc 3744 c4bd 56bc a93c 4b31 32bd
00000150: 85f5 2abd 251b aa3c a34e e0bd 807f a13b
00000160: d852 31bc 5e54 26be 0454 0bbd 620f 1cbd
00000170: a597 afbc 35d7 293d 5e0b df3a 0745 d5bd
00000180: 317d f3bd ba67 a83c 1972 03be df13 1e3d
00000190: 09a5 5dbd 99ef c3bd 910c b03d ac6f 573d
000001a0: cdc5 403c f430 743b 32b5 54bc 5233 26be
000001b0: 5d1c cc3d 91a8 093c eeea 5c3d d4a2 2b3d
000001c0: 5032 e03c 3aec 7bbd 2158 8fbd 97e5 47bd
000001d0: ced8 c1bc f807 21be f4a2 70bd 912d 9c3c
000001e0: 70d0 5a3c 3831 c1bd 2f63 683d 9c62 813d
000001f0: 5319 bdbd 9cc4 40ba 75b4 01be f696 e1bd
00000200: 51ad de3d 9a84 a53d a0ad 1ebd 38c8 ecbd
00000210: 01f6 4ebd 83d9 efbd 7b74 e4bd a17c c2bc
00000220: 8a80 993d 0305 f4bd a8b9 63bd f303 36ba
00000230: fa31 9f3d 5a53 d4bc f3ab 8fbd fcb0 ddbd
00000240: 4a93 a33d ff4d 2abe abe3 23be eafc 1a3c
00000250: 47ff 0bbe 7ed4 81bb d539 003d 0013 c93a
00000260: 066b 633c f1e4 f7bd a5c3 2ebe 6832 9a3d
00000270: 37f7 d93c 6c89 433d aaee 17bd 3ce3 04be
00000280: 07ab fcbc 025b cf3c 7e9b 0cbe 1633 c6bd
00000290: b58c 1ebe aa76 aebc 4f1b 7cbc de11 01be
000002a0: 28a4 93bd f3d3 d5bd 487f a7bd 7da2 86bd
000002b0: 745f babd 3c1c 90bd adc0 10be 8471 fcbd
000002c0: 2457 453d a788 c2bc 9df2 03bd 7579 aabd
000002d0: 7412 dabd 38b5 d2bd c110 ccbc 0b4d 98bd
000002e0: d63d fdbd b077 b03d da5c 8d3d 9414 ccbd
000002f0: a946 193d 9720 10be 8d99 ec3c 5c39 eb3d
00000300: a52d 7dbc 23c2 7bbc 2468 b63d 3e17 b33a
00000310: 33aa bdbd a1f3 eebd cc9a d5bc bc3b 27be
00000320: cdec d7bc a4ba 1abe 06a3 31be 53b6 753c
00000330: 1a27 b93d b500 3ebd 4a7d d93d 6cd7 113d
00000340: 8cd9 9abb b5d1 d43c 2d25 03be c7df 4a3d
00000350: 74aa 99bd 99ab 75bd 53b0 2dbd 9aac eabd
00000360: 5c59 1a3d 5fad 6cbd fe58 0abe c7d5 a63d
00000370: fb2c f23d 5629 8e3c 7ff7 a53c 09ba 31be
00000380: 9df8 e3bd 1011 a3bd c312 4f3c 566f 2cbe
00000390: 4ac4 7a3d 6d29 55bd 8cb4 e13d 281e 923d
000003a0: ebac 10be 7b36 a6bd e800 ebbd 9585 e6bd
000003b0: cfcf 933d 8743 5dbd 6aa4 6e3c a9c1 7ebd
000003c0: e872 8a3d 5cdf cd3c a938 dabd 8876 f7bd
000003d0: 5dee 733c 7cb0 5dbb 1a82 dfbd 7cdc f6bd
000003e0: 6e4d f43d c12e a13d 68e3 ae3c 344b 613c
000003f0: ad51 143d 48e4 94bc a8ca 04be a0d4 a93d

fc3.bias f4 [8]
-0.1315614 -0.0079043005 -0.15935689 -0.023658197 -0.018891897 -0.09525806 -0.13361754 -0.032802816
00000000: 08b8 06be 0a81 01bc 742e 23be d6ce c1bc
00000010: 2ec3 9abc a816 c3bd 09d3 08be 3f5c 06bd
