matchmaking_model.pth (torch, 29095 bytes, 6 tensors)

fc1.weight f4 [64, 31]
0	0x3e475ee7	0.19469796
1	0xbd939c3e	-0.07207535
2	0xbdae7e51	-0.08520187
3	0xbdb209ce	-0.08693276
4	0x3dee5e38	0.116390646
5	0x3e053a3c	0.13010496
6	0x3e57d85b	0.21078627
7	0xbd885f2a	-0.06658776
8	0x3e42fd2d	0.19041891
9	0x3dee41c8	0.116336405
10	0x3c6f59f1	0.014608846
11	0x3e123a0e	0.14279959
12	0x3dacf3ad	0.08444915
13	0x3e04350e	0.12910864
14	0x3e58b985	0.2116452
15	0x3dee927d	0.11649034
16	0x3df03eb7	0.11730712
17	0x3e13b30c	0.1442377
18	0xbd71589e	-0.058922403
19	0xbcc42235	-0.023942092
20	0x3e3098c8	0.17245781
21	0xbdd7fc4c	-0.10546169
22	0x3e1d5780	0.1536541
23	0xbd3889aa	-0.04505316
24	0x3dee3e1a	0.11632939
25	0xbd41f558	-0.04735312
26	0x3c0fa293	0.008766788
27	0x3d7d32c3	0.06181599
28	0xbda0690c	-0.07832536
29	0xbe08675c	-0.13320678
30	0x3db2ffe8	0.087402165
31	0x3e23cdb2	0.15996435
32	0x3dfa4819	0.12220783
33	0xbe045fef	-0.12927221
34	0x3cf3a069	0.029739575
35	0x3e3009f6	0.171913
36	0xbda8831d	-0.08228133
37	0x3debd9fb	0.11516186
38	0xbe1c4b66	-0.15263137
39	0xbd941882	-0.07231237
40	0x3d9c7f72	0.07641496
41	0x3e19d986	0.15024385
42	0x3b5ac691	0.0033382515
43	0xbd912ece	-0.070890054
44	0xbde94f58	-0.11392087
45	0x3dfaa90c	0.122392744
46	0x3e25118f	0.1611998
47	0xbde1e120	-0.11029267
48	0x3dcdec4b	0.10054835
49	0xbc7575c1	-0.014981688
50	0x3e08a0d2	0.13342598
51	0x3e2cf153	0.16888933
52	0x3e3c34f4	0.18379575
53	0x3e408c9e	0.18803641
54	0x3d930eb1	0.071805365
55	0x3a5e4077	0.0008478234
56	0x3cd5dbc8	0.026105776
57	0x3bedbf0a	0.0072554396
58	0x3dde2332	0.10846557
59	0x3da60e7a	0.0810823
60	0xbe1611bb	-0.14655201
61	0x3de9db3e	0.1141877
62	0x3e459cdb	0.19298117
63	0xbe1a56fd	-0.15072246
64	0xbe1eaae8	-0.15494883
65	0x3c7586f1	0.014985786
66	0xbc9e0f63	-0.019294446
67	0x3daf85e8	0.085704625
68	0xba0cb9d4	-0.0005368267
69	0xbc1b6b0f	-0.009485974
70	0xbd928871	-0.071549304
71	0x3dcf8ace	0.10133897
72	0x3e0b87b3	0.13625984
73	0xbdcb6c18	-0.099327266
74	0x3dfc5680	0.12321186
75	0xbd95fccd	-0.073236085
76	0xbe1a4c65	-0.15068205
77	0xbdd6db81	-0.10491086
78	0x3dfe1b8c	0.12407598
79	0xbdc0faa3	-0.09422805
80	0xbdb98e0c	-0.090602964
81	0x3dc8fce8	0.09813863
82	0xbdf01651	-0.117230065
83	0x3dc1cec1	0.09463263
84	0xbe23819a	-0.15967408
85	0x3c856d15	0.016287366
86	0x3d9c48f5	0.07631103
87	0x3d88d779	0.06681723
88	0x3c5f2e87	0.013621933
89	0xbdb7b3a8	-0.089698136
90	0xbde471ae	-0.11154495
91	0xbe18bac3	-0.14914994
92	0xbe15a063	-0.14611964
93	0x3d892184	0.06695846
94	0xbdf69b2f	-0.12041318
95	0xbe0ac7ac	-0.13552731
96	0x3e1980a7	0.14990483
97	0x3d9a87ec	0.07545456
98	0x3d6196a0	0.055075288
99	0x3d76b196	0.060227953
100	0x3cd2b119	0.025719212
101	0x3dd83f19	0.1055891
102	0x3e03256c	0.12807244
103	0xbde225a5	-0.110423364
104	0x3da69012	0.08132948
105	0x3e15f7a3	0.14645247
106	0xbdde3e8b	-0.10851773
107	0xbbdc6971	-0.006726437
108	0x3cee9340	0.029122949
109	0x3e00b0e5	0.1256748
110	0x3e1c71b1	0.15277745
111	0x3e522816	0.20523104
112	0x3d3c8093	0.046021055
113	0x3e515ed3	0.20446329
114	0xbc935bd8	-0.01798813
115	0x3d836543	0.064157985
116	0xbd181235	-0.03712674
117	0xbdbd7598	-0.09250945
118	0x3e37a002	0.17932132
119	0xbd7953b1	-0.06087083
120	0xbdf23a94	-0.11827579
121	0x3dc13bdc	0.094352454
122	0x3e157254	0.14594394
123	0x3d46ec04	0.048564926
124	0x3e364388	0.17799199
125	0x3d6daf54	0.058028534
126	0x3e4d6cd4	0.20061046
127	0xbde6a94b	-0.11262759
128	0x3cb7af61	0.022422494
129	0x3dbf68ea	0.09346183
130	0x3d6020a6	0.054718636
131	0xbd981942	-0.074266925
132	0xbd8f4a4e	-0.06996594
133	0x3e5bb7ed	0.21456881
134	0x3d2f8633	0.04285259
135	0xbd80e8a5	-0.062943734
136	0x3e2f421a	0.1711506
137	0xbbe9104a	-0.0071125375
138	0xbd31a3d6	-0.043369137
139	0xbdadfd63	-0.08495595
140	0x3e2473cb	0.16059797
141	0x3e1cffd5	0.15331967
142	0xbd1092fe	-0.035296433
143	0x3e4bd079	0.19903745
144	0x3da2ba31	0.079456694
145	0x3dbc3f9d	0.09191821
146	0x3e40baf1	0.18821312
147	0x3d98b24e	0.07455884
148	0xbd894b1a	-0.067037776
149	0x3df397dc	0.11894199
150	0xbd9d44cf	-0.0767914
151	0x3e24f15c	0.16107696
152	0xbd6fae91	-0.05851609
153	0x3e295925	0.16537912
154	0xbd9fa6ff	-0.07795524
155	0xbe33da5e	-0.17563769
156	0x3e05fe78	0.13085353
157	0x3e2abbdf	0.1667323
158	0xbc9db726	-0.019252371
159	0x3d677d54	0.056516007
160	0xbd451559	-0.04811606
161	0x3d998df1	0.07497776
162	0xbdefa2b4	-0.11700955
163	0xbd9e08dd	-0.07716534
164	0x3db625ef	0.08893954
165	0xbe5ea527	-0.21742688
166	0xbd536616	-0.05161103
167	0x3d2eeb35	0.04270478
168	0x3de20c59	0.110375114
169	0x3e216b77	0.15763651
170	0xbdeb7cae	-0.1149839
171	0xbe0a5be3	-0.13511615
172	0xbde42f33	-0.11141815
173	0xbe225a67	-0.15854798
174	0xbd0ecc77	-0.03486296
175	0x3d56ecec	0.05247204
176	0x3d9a3a3c	0.075306386
177	0xbd8d546c	-0.06900868
178	0x3cb73fbf	0.022369264
179	0x3de267c9	0.11054952
180	0xbd865c00	-0.06560516
181	0xbd15de6d	-0.036589075
182	0xbd7d2494	-0.06180246
183	0x3d43fc0a	0.047847785
184	0xbdd49d9b	-0.10381623
185	0x3e325287	0.17414294
186	0xbc9ae795	-0.018909255
187	0x3dff2466	0.12458114
188	0xbe065072	-0.13116625
189	0x3daafd3e	0.08349083
190	0xbcdf2496	-0.027239125
191	0xbdafc399	-0.08582229
192	0x3e045c6a	0.12925878
193	0x3e14044f	0.14454769
194	0xbd02ef47	-0.031966474
195	0xbdb78b19	-0.08962078
196	0x3e04e071	0.12976243
197	0x3e18cbdf	0.1492152
198	0x3d475b68	0.048671156
199	0x3c59c145	0.013290708
200	0xbcf8fd13	-0.030394113
201	0x3e2daf45	0.16961391
202	0xbd0e2dc5	-0.034711618
203	0xbce3d317	-0.027810616
204	0x3e5a5fb7	0.21325575
205	0xbd83fb35	-0.06444398
206	0xbd3cc082	-0.046082027
207	0x3c0b828d	0.008515012
208	0x3e3855ab	0.1800143
209	0xbd2fa736	-0.042884074
210	0xbe00eea4	-0.12591034
211	0x3db8bc13	0.09020247
212	0xbd911edf	-0.07085966
213	0xbde0f314	-0.109838635
214	0x3e5f6e88	0.21819508
215	0xbdec9445	-0.11551718
216	0x3e343868	0.17599642
217	0xbd965c3f	-0.07341813
218	0xbdb24286	-0.087040946
219	0xbd8633b1	-0.06552828
220	0x3dd7b678	0.1053285
221	0xbe1614ed	-0.1465642
222	0xbcc0b5eb	-0.023524245
223	0xbdfcff7d	-0.12353418
224	0xbd8d933c	-0.06912848
225	0xbdbdd02a	-0.0926822
226	0xbd806dba	-0.06270929
227	0xbc515ed3	-0.0127789555
228	0x3e001786	0.12508973
229	0x3cca07db	0.024661949
230	0xbe410895	-0.1885093
231	0xbe24f8a3	-0.16110472
232	0xbda9a2ea	-0.082830265
233	0x3c4782e8	0.012177207
234	0x3ca41977	0.020031674
235	0xbd84bc5d	-0.0648124
236	0x3d350446	0.04419353
237	0x3d9d5fc8	0.076842844
238	0xbe28685b	-0.16446058
239	0x3d5e5a92	0.054285593
240	0x3c878074	0.016540743
241	0xbe16d5dc	-0.14730018
242	0x3dd4cd06	0.103906676
243	0xbe14485b	-0.14480726
244	0xbda5187a	-0.08061309
245	0x3d9e49df	0.077289335
246	0xbd7ccca1	-0.061718587
247	0xbc72f9b6	-0.014830044
248	0xbb1ff9fd	-0.002441048
249	0x3de45e86	0.111508414
250	0x3c292299	0.01032319
251	0x3e138749	0.14407076
252	0xbcb61fa6	-0.022231888
253	0x3d1d4bc6	0.03840234
254	0x3de48aac	0.11159262
255	0xbde14d26	-0.11001043

fc1.bias f4 [64]
0	0x3da4f43c	0.080543965
1	0x3cad0771	0.021121712
2	0x3e2ee5dc	0.17079872
3	0xbd9773e1	-0.07395149
4	0x3dcc12a4	0.09964493
5	0x3ddb4aaf	0.10707604
6	0x3e4237a1	0.18966533
7	0x3cae18f7	0.021252139
8	0xbe014dcd	-0.12627335
9	0x3e16352b	0.1466872
10	0x3df342e0	0.1187799
11	0xbddadc6a	-0.10686572
12	0x3dc216d7	0.094770126
13	0x3e2c9d79	0.16856946
14	0xbdc5e3ae	-0.09662567
15	0xbd20bdbd	-0.03924345
16	0x3e008f1f	0.12554596
17	0x3d386903	0.045022022
18	0x3dcaf44b	0.099098764
19	0xbdec982f	-0.11552464
20	0xbe3d23a5	-0.18470629
21	0x3e2bfb5b	0.16795103
22	0x3d87b469	0.066262074
23	0xbd49b80d	-0.04924779
24	0x3df427b9	0.11921639
25	0xbe195b99	-0.14976348
26	0xbdccf1ac	-0.10007033
27	0x3e317519	0.17329825
28	0x3dde0a00	0.10841751
29	0xbdb025e1	-0.08600975
30	0x3e2c9f21	0.16857578
31	0x3d0852f4	0.033282235
32	0xbd0de95d	-0.03464638
33	0xbd735f19	-0.059416864
34	0xbd44f1ff	-0.048082348
35	0xbda9db0b	-0.08293732
36	0xbdd6ee03	-0.10494616
37	0x3cca3538	0.02468358
38	0x3d671781	0.0564189
39	0x3da07711	0.0783521
40	0x3d9261c3	0.07147553
41	0xbdc16af9	-0.094442315
42	0x3d8adcf4	0.06780425
43	0xbe1ac17f	-0.15112875
44	0xbd285801	-0.041099552
45	0xbdc24e06	-0.09487538
46	0x3e2d87a1	0.1694627
47	0x3d18f5cc	0.037343785
48	0xbcd11f3f	-0.025527595
49	0x3d52bf24	0.051451817
50	0xbb3255b7	-0.0027211735
51	0x3dd74458	0.105110824
52	0xbdc16a38	-0.09444088
53	0x3d120b6a	0.035655417
54	0xbe093dcf	-0.13402484
55	0x3e3d1159	0.18463649
56	0x3de53648	0.11191994
57	0x3db1b3d3	0.08676877
58	0xbe094184	-0.13403898
59	0x3c8fffb9	0.017577993
60	0xbe090ae4	-0.1338306
61	0x3d9717c2	0.07377578
62	0x3d1880e9	0.037232313
63	0x3e226c0b	0.15861528

fc2.weight f4 [64, 64]
0	0xbc94a4ee	-0.01814505
1	0x3d2c0dbb	0.042005282
2	0x3dc015c6	0.09379153
3	0xbd2e678a	-0.04257921
4	0xbd0cea61	-0.03440321
5	0x3d66afa8	0.056319863
6	0xbde64e8b	-0.1124545
7	0x3e015701	0.12630846
8	0x3c4348e9	0.011919239
9	0xbcbe41fd	-0.023224825
10	0xbcb39c24	-0.02192504
11	0x3c736811	0.014856354
12	0xbafb3449	-0.0019165362
13	0xbdd8afc6	-0.10580401
14	0x3dc99949	0.0984369
15	0xbd18ba0d	-0.037286807
16	0xbd9020dd	-0.07037518
17	0xbcf8f59b	-0.030390551
18	0x3d162f40	0.036666155
19	0xbd987319	-0.07443828
20	0xbd98cb3b	-0.07460638
21	0x3d6af6b1	0.05736417
22	0x3da569b1	0.080768
23	0xbcfdd515	-0.030985394
24	0xbce438e8	-0.027859166
25	0x3d95bb70	0.073111415
26	0x3d959c43	0.07305195
27	0x3da91101	0.08255196
28	0xbd696769	-0.056983385
29	0xbdbf2348	-0.09332901
30	0x3e1098d6	0.14120802
31	0xbca78a56	-0.020451706
32	0x3d51e956	0.051247917
33	0x3c7b9842	0.015356125
34	0x3d74fae3	0.059809577
35	0x3d2289dc	0.039682254
36	0x3d0ba1c6	0.034089826
37	0xbdd73e2d	-0.10509906
38	0x3dc0990d	0.09404192
39	0x3d1c02ab	0.038088482
40	0xbe0cab50	-0.13737226
41	0x3cb417b9	0.021983968
42	0xbc37686a	-0.011194328
43	0xbd66329c	-0.05620061
44	0x3d1f6bdd	0.038921226
45	0xbcfc6c49	-0.030813353
46	0xbd7c7d8c	-0.06164317
47	0xbbcb19d4	-0.0061981473
48	0x3cb78fb4	0.02240739
49	0x3b1b7372	0.0023719934
50	0x3b6f9cc1	0.0036561938
51	0x3c9a70f6	0.018852692
52	0xbc153500	-0.0091068745
53	0x3cf978bf	0.030453084
54	0xbd927eb3	-0.07153072
55	0xbd534d67	-0.05158749
56	0x3cc3f467	0.023920251
57	0xbd91d0bb	-0.0711989
58	0xbd7f670c	-0.062354133
59	0x3c50668f	0.012719764
60	0xbc90f11d	-0.017693097
61	0x39b02136	0.0003359408
62	0xbd96d5fd	-0.07365034
63	0xbdb03876	-0.08604519
64	0xbd961a7a	-0.07329269
65	0x3de039cc	0.10948524
66	0xbe16ff48	-0.1474582
67	0x3e02c519	0.127705
68	0x3e161f51	0.14660384
69	0xbd916aad	-0.07100425
70	0x3da924dc	0.082589835
71	0x3d8dbb9b	0.069205485
72	0x3d5c6fb7	0.053817477
73	0xbda3af84	-0.07992461
74	0x3e0b66d3	0.13613443
75	0x3e219ab0	0.15781665
76	0x3ba79f17	0.0051154005
77	0xbd98322e	-0.07431446
78	0x3cc89fe1	0.024490299
79	0x3d64f2e8	0.055895716
80	0x3d74bd8f	0.05975109
81	0x3db3aa0c	0.08772668
82	0x3d5d9392	0.054095812
83	0x3e1303bf	0.14356898
84	0xbd373624	-0.044729367
85	0x3c1dddfe	0.009635447
86	0xbacd0b2c	-0.0015643588
87	0x3dfcc4c6	0.12342219
88	0x3e0f2b2a	0.1398131
89	0xb9805dcd	-0.0002448395
90	0x3d55986d	0.052147318
91	0xbd2f20c9	-0.042755876
92	0xbd7bafbe	-0.061446898
93	0x3dbafe24	0.09130505
94	0x3dca58e8	0.09880239
95	0xbc8e6f34	-0.01738701
96	0x3db8b098	0.090180576
97	0x3dcdfeaf	0.10058343
98	0x3e1c3cba	0.1525754
99	0x3d979140	0.07400751
100	0x3bb2d7aa	0.005457838
101	0x3b686888	0.0035462696
102	0x3e265f07	0.16247188
103	0x3e12263b	0.14272396
104	0x3a9ad97e	0.0011814085
105	0x3e28db62	0.16489938
106	0xbc99a8ed	-0.018757308
107	0x3e0a2040	0.13488865
108	0x3d90bd2a	0.0706733
109	0xbd547f5c	-0.051879272
110	0x3de29ee9	0.11065466
111	0xbd88e757	-0.066847496
112	0xbd434389	-0.04767183
113	0xbd32cc57	-0.043651905
114	0xbd88f214	-0.06686798
115	0x3d228fa5	0.03968777
116	0x3e2bcd04	0.16777426
117	0x3ca29d09	0.01985027
118	0x3d97f35d	0.07419465
119	0x3dd672b6	0.10471098
120	0xbc31afbb	-0.01084512
121	0x3dc057f1	0.093917735
122	0x3da25376	0.07926075
123	0xbd844345	-0.06458143
124	0x3d7d2959	0.06180701
125	0x3dae3d72	0.085078135
126	0x3dfa3556	0.12217204
127	0x3d82f1c7	0.063937716
128	0xbde605f2	-0.11231603
129	0xbbcce48f	-0.0062528322
130	0x3d4e33b1	0.050342266
131	0xbdc1eabd	-0.09468601
132	0x3daf5b37	0.0856232
133	0x3d5e57bd	0.054282892
134	0x3d32ecea	0.04368297
135	0x3cb3e084	0.021957643
136	0xbc029755	-0.007970651
137	0xbbd6ad32	-0.006551408
138	0xbdde3e4e	-0.108517274
139	0x3d52af7f	0.051436897
140	0x3c62dcd4	0.013846595
141	0xbe0b21b8	-0.13587081
142	0xbd26a9fc	-0.040689453
143	0xbe11c5d5	-0.14235623
144	0xbe0ae567	-0.13564073
145	0xbb740144	-0.00372322
146	0x3cdbce86	0.026831876
147	0x3d127fe8	0.035766512
148	0x3dadd28a	0.08487423
149	0x3da86276	0.08221905
150	0x3d5b1e59	0.05349574
151	0xbdcaa82f	-0.0989536
152	0xbcb50693	-0.022097861
153	0xbe07cafe	-0.13261029
154	0x3d82bb05	0.063833274
155	0xbe051fcd	-0.13000412
156	0x3d3e0df2	0.046400018
157	0xbdb2b748	-0.087263644
158	0xbd8cf207	-0.068821006
159	0x3e02971b	0.12752955
160	0x3d817d8a	0.06322773
161	0xbdb8baaa	-0.09019978
162	0xbc9d4864	-0.019199558
163	0xbe0d5753	-0.13802843
164	0x3d9796c9	0.07401807
165	0xbe194d46	-0.14970884
166	0x3cf88874	0.030338503
167	0xbc210c9a	-0.009829665
168	0x3d8af7aa	0.067855194
169	0x3d9c5a0d	0.07634363
170	0xbd9cf2a0	-0.076634645
171	0xbd47caa0	-0.048777223
172	0x3da2a55f	0.07941698
173	0xbd724bfc	-0.059154496
174	0xbd5ed395	-0.054401
175	0x3d833abf	0.06407689
176	0xbd7b5753	-0.061362576
177	0xbe11749e	-0.14204642
178	0xbc864a72	-0.01639292
179	0x3db0bac7	0.08629375
180	0xbdf3a6a6	-0.1189702
181	0xbdd3280d	-0.103103735
182	0xbda9e70f	-0.08296024
183	0x3d0988f9	0.033577893
184	0xbd903cdc	-0.07042858
185	0x3b26f5eb	0.0025476168
186	0xbda665a1	-0.08124853
187	0xbda1173a	-0.07865758
188	0xbd5b3677	-0.05351874
189	0x3dc036db	0.09385463
190	0x3c3a6e93	0.011378902
191	0x3da10893	0.078629635
192	0xbcd3ae6f	-0.025840012
193	0x3d1a0020	0.037597775
194	0x3de918b7	0.11381667
195	0x3d2e3583	0.0425315
196	0x3dd0208a	0.10162456
197	0xbcbdcf3a	-0.023170102
198	0xbd90dcc1	-0.070733555
199	0xbde6200c	-0.11236581
200	0xbd3b6740	-0.045752764
201	0xbd2ec764	-0.042670622
202	0x3d8da0df	0.06915449
203	0xbd1ebdf3	-0.03875537
204	0x3ddcf458	0.10788792
205	0x3d0a4fda	0.03376756
206	0x3dce11c2	0.10061981
207	0xbdf0d2f7	-0.11758988
208	0x3de73fb7	0.112914495
209	0x3d687a1d	0.05675708
210	0xbde64a0c	-0.11244592
211	0xbdcb5eff	-0.099302284
212	0xbdf6d0b7	-0.12051528
213	0x3dad02db	0.0844781
214	0x3d5ca100	0.05386448
215	0xbd227cd9	-0.039669845
216	0xbca71514	-0.020395793
217	0x3dde0fbe	0.10842846
218	0xbd551ad9	-0.052027557
219	0x3d0113d6	0.031513058
220	0xbd24814b	-0.040162366
221	0x3b98e66e	0.0046661412
222	0xbdb27ad2	-0.08714832
223	0xbd800fd6	-0.062530205
224	0xbd3d763c	-0.046255335
225	0xbdb26e55	-0.087124504
226	0xbc4b9b66	-0.012427187
227	0xbdbcbb88	-0.09215456
228	0xbd545885	-0.05184223
229	0xbcb35b13	-0.021894014
230	0x3d5c3afe	0.053767197
231	0x3c2ff28e	0.010738982
232	0x3d58ca8f	0.05292755
233	0xbe04d4c4	-0.12971789
234	0x3d109b2f	0.035304245
235	0xbdc97669	-0.09837038
236	0xbd957db8	-0.072993696
237	0xbdce91ac	-0.100863785
238	0xbd373e89	-0.044737373
239	0xbde4d063	-0.11172559
240	0x3d7ac28e	0.061220698
241	0xbdbb1e31	-0.09136618
242	0x3bb421c5	0.0054971897
243	0xbc9cd60b	-0.019145032
244	0xbdcf024e	-0.101078615
245	0xbd9903f2	-0.07471456
246	0xbcbd8bf8	-0.023138031
247	0xbde4f057	-0.11178654
248	0xbd7b33d5	-0.061328728
249	0xbd8df0f5	-0.069307245
250	0x3b423295	0.00296322
251	0xbdca67dd	-0.098830916
252	0x3e04803b	0.12939541
253	0xbd73c3af	-0.05951279
254	0xbd7b0c01	-0.061290745
255	0xbd35633d	-0.044284094

fc2.bias f4 [64]
0	0xbd8cb826	-0.06871061
1	0x3e0ffa87	0.14060412
2	0x3d439adc	0.047755107
3	0xbde15b64	-0.110037595
4	0xbd103cb9	-0.03521416
5	0x3dcff656	0.10154407
6	0xbc81c0f2	-0.015839074
7	0xbe04a752	-0.12954453
8	0xbd617ac9	-0.055048738
9	0xbd4b2c0e	-0.04960256
10	0x3d4b5cdc	0.049649104
11	0xbd4509a6	-0.048104905
12	0x3d53df55	0.051726658
13	0xbb904754	-0.004403034
14	0x3dbdb370	0.092627406
15	0x3d3adce5	0.045620818
16	0xbd485497	-0.048908796
17	0x3ca4b8a8	0.020107582
18	0xbd11a187	-0.035554435
19	0xbdce4d04	-0.10073283
20	0xbccf5ec3	-0.02531374
21	0x3daec133	0.085329436
22	0xbd6aecf0	-0.057354867
23	0x3db4e874	0.088333994
24	0x3d74208c	0.05960135
25	0x3bf606cf	0.007508136
26	0x3c2e6a54	0.010645468
27	0x3dd6acb6	0.10482161
28	0xbd658602	-0.056036003
29	0xbcba84fb	-0.022768488
30	0x3d6387f6	0.055549584
31	0x3dfdbb7d	0.12389276
32	0x3d76cabb	0.060251933
33	0xbcc5eff0	-0.024162263
34	0xbdf0dcb2	-0.11760844
35	0x3d00ca27	0.031442787
36	0x3dcc8a92	0.09987368
37	0xbd5ef896	-0.05443629
38	0x3dbb7215	0.09152619
39	0x3d565e4b	0.05233602
40	0xbdde1b66	-0.108450696
41	0x3c9d70ac	0.019218765
42	0xbdd8e003	-0.10589602
43	0xbcab266f	-0.02089235
44	0xbd86ae06	-0.06576161
45	0xbc4aab59	-0.012369954
46	0x3c15002c	0.009094279
47	0x3e125049	0.14288439
48	0xbc94e41b	-0.018175175
49	0xbd9154e0	-0.07096267
50	0x3d000a58	0.031259865
51	0xbcaf0a0b	-0.021367094
52	0xbd9b4a71	-0.07582558
53	0x3e16d89a	0.14731064
54	0x3dbc3b7e	0.09191035
55	0x3dec1e00	0.115291595
56	0x3d847e3e	0.06469391
57	0xbd28df84	-0.041228786
58	0xbdc49474	-0.09598628
59	0x3e0a9a78	0.13535488
60	0xbc97a991	-0.018513473
61	0x3d863c66	0.06554489
62	0x3b1d5603	0.0024007566
63	0xbd40308e	-0.046921305

fc3.weight f4 [8, 64]
0	0xbd1991cc	-0.03749256
1	0x3da172e0	0.07883239
2	0x3cdae962	0.026722614
3	0x3dcbf119	0.09958095
4	0x3da0d6ec	0.07853493
5	0x3cbbd23c	0.022927396
6	0x3dc2a07a	0.09503265
7	0xbd4ad088	-0.049515277
8	0x3c3a9677	0.011388413
9	0xbca1b17e	-0.019737955
10	0xbdf05086	-0.117341086
11	0x3cdafae4	0.026730962
12	0xbdaece89	-0.08535487
13	0xbbf287fc	-0.0074014645
14	0xbd8a659b	-0.06757661
15	0xbda548e3	-0.08070543
16	0xbbeea44b	-0.007282769
17	0x3d980654	0.07423082
18	0x3e207f26	0.15673503
19	0x3ddb25aa	0.10700543
20	0x3e048c05	0.12944038
21	0xbcd9f8fe	-0.026607987
22	0xbc573bc0	-0.013136804
23	0x3cdaa708	0.026690975
24	0xbd3d3557	-0.046193447
25	0x3e13cb27	0.14432965
26	0xbdbb385e	-0.091416106
27	0xbd1e9379	-0.03871486
28	0x3b3cc2e4	0.0028802687
29	0x3dc3e2b3	0.09564724
30	0xbdb89d20	-0.09014344
31	0x3dbde4b3	0.092721365
32	0x3e07642f	0.13221811
33	0xbdb5fe34	-0.08886376
34	0xbd8e61fe	-0.06952284
35	0x3d75bb44	0.059993044
36	0x3dec2bca	0.115317896
37	0x3de85584	0.11344436
38	0xbda39cdd	-0.07988904
39	0x3e003959	0.12521876
40	0xbda04441	-0.078255184
41	0x3dceac50	0.1009146
42	0xba4cf925	-0.0007819108
43	0x3dc4c673	0.09608164
44	0x3b82377d	0.0039739
45	0x3e22a813	0.15884428
46	0x3e184078	0.14868343
47	0x3cb3530a	0.021890182
48	0xbd599170	-0.053117216
49	0x3d82b997	0.06383055
50	0xbdbca953	-0.092119835
51	0xbc6fd5fa	-0.014638418
52	0x3d9a8480	0.075448036
53	0x3dec0a98	0.11525458
54	0x3db349d7	0.08754318
55	0xbdf4a712	-0.11945929
56	0xbdcd6215	-0.10028473
57	0x3c103199	0.0088008875
58	0x3e1d149b	0.15339892
59	0x3d78f1b8	0.060777396
60	0x3c8c0aae	0.017094936
61	0xbc25f810	-0.0101299435
62	0x3cd88a78	0.026433215
63	0xbbd56f22	-0.006513492
64	0xbd25627f	-0.040377136
65	0x3caebbb8	0.021329746
66	0x3d8f287d	0.069901444
67	0x3d01175a	0.03151641
68	0x3dd13871	0.102158435
69	0x3ddaf0ca	0.10690458
70	0x3e247fda	0.16064397
71	0x3c8a4484	0.016878374
72	0x3d662791	0.056190077
73	0x3d1d0842	0.038337953
74	0x3dc4ee04	0.096157104
75	0x3d8312c5	0.064000644
76	0x3e1b44d1	0.1516297
77	0x3dd27d7d	0.10277841
78	0xbd989fb2	-0.074523345
79	0xbde39c7d	-0.11113832
80	0xbdc32609	-0.09528739
81	0x3dd26d9e	0.10274814
82	0x3d1b0441	0.037845854
83	0x3dc74fa4	0.09731987
84	0xbd46ec75	-0.048565347
85	0xbbdaf519	-0.00668205
86	0xbdf35e4f	-0.11883222
87	0x3dbfc44f	0.09363615
88	0x3c9de826	0.019275736
89	0xbc88873f	-0.016666053
90	0xbd85bab1	-0.06529749
91	0xbc7b3126	-0.015331542
92	0x3e1761ea	0.14783445
93	0x3df8f33b	0.121557675
94	0x3d2f9500	0.042866707
95	0x3dc155fd	0.09440229
96	0x3d70f2f8	0.058825463
97	0xbdd084ea	-0.10181601
98	0xbc90f86b	-0.01769658
99	0xbc9fa3c2	-0.019487265
100	0x3d949d58	0.072565734
101	0xbd1e4c6f	-0.03864711
102	0x3d8cc348	0.068731844
103	0x3d443590	0.047902644
104	0x3bcd2fc1	0.006261796
105	0xbd693560	-0.056935668
106	0x3daca69e	0.08430217
107	0x3e1fd881	0.15609933
108	0xbc8c07c6	-0.01709355
109	0xbcae3b48	-0.021268502
110	0xbd88a81b	-0.066726886
111	0x3d681f2b	0.05667035
112	0x3d81a873	0.06330957
113	0x3dda770f	0.1066724
114	0xbdccb5b8	-0.099955976
115	0x3db21d93	0.08697047
116	0xbd9cd1c6	-0.076571986
117	0x3d7992ac	0.060930893
118	0xbd68ca2f	-0.056833442
119	0x3c20146a	0.009770492
120	0x3c45d677	0.012075058
121	0x3e042d93	0.1290801
122	0xbdb4aa41	-0.08821536
123	0x3de6462a	0.112438515
124	0x3bd42e47	0.0064752433
125	0xbd795022	-0.060867436
126	0x3caad2e4	0.020852514
127	0xbdc38900	-0.09547615
128	0xbc353d18	-0.011061929
129	0x3db68d03	0.089136146
130	0xbd42db00	-0.047572136
131	0xbd5032da	-0.050829746
132	0xbd5b1b74	-0.05349298
133	0x3e107391	0.14106585
134	0x3d19c962	0.03754557
135	0xbd7799e5	-0.0604495
136	0xbd6b16b8	-0.057394713
137	0x3d0fa811	0.03507239
138	0xbcaa71dd	-0.020806247
139	0x3e2cc87c	0.16873354
140	0xbbd666b4	-0.006543005
141	0x3e16056f	0.1465051
142	0x3dee54d9	0.11637277
143	0x3e0e179b	0.13876192
144	0xbd9d0fa2	-0.07668997
145	0x3cdd1296	0.026986402
146	0xbdea55f4	-0.114421755
147	0x3e197e02	0.14989474
148	0xbcc93530	-0.024561495
149	0x3d621ad0	0.05520135
150	0xbd4e5ed9	-0.050383423
151	0xbcf3716a	-0.029717166
152	0x3ca6e999	0.02037506
153	0x3dce01f5	0.10058967
154	0x3dd0bc3b	0.10192152
155	0x3c9d7a88	0.019223467
156	0xbd997860	-0.07493663
157	0xbcccae6d	-0.024985516
158	0x3df2d795	0.11857525
159	0x3dd9596e	0.106127605
160	0xbc97f740	-0.018550515
161	0xbd550f20	-0.052016377
162	0xbda7282d	-0.0816196
163	0x3d506487	0.05087712
164	0x3cbacb2c	0.022801958
165	0xbc323ee4	-0.010879252
166	0xbd181430	-0.037128627
167	0xbd92ac08	-0.071617186
168	0xbdcfa1c9	-0.1013828
169	0x3dfc659b	0.12324067
170	0x3bce8f7f	0.006303727
171	0xbcd52b77	-0.026021702
172	0x3bed63d8	0.0072445683
173	0x3d950ada	0.072774604
174	0xbdca567e	-0.09879778
175	0x3da1abfb	0.07894131
176	0x3db4dc9a	0.08831139
177	0xbc9c610f	-0.01908925
178	0x3e1c9fac	0.15295285
179	0x3e2a6cff	0.16643141
180	0x3decd7a0	0.11564565
181	0x3db07fa6	0.08618097
182	0xbd006567	-0.031346705
183	0xbdccafd0	-0.09994471
184	0xbd7405df	-0.05957591
185	0x3dc56610	0.096386075
186	0xbd95bc7e	-0.07311343
187	0xbd7a43a0	-0.06109965
188	0x3d8eb136	0.06967394
189	0x3daa8a89	0.08327205
190	0x3d0f6d46	0.03501632
191	0x3d6840ff	0.05670261
192	0x3d7caa72	0.061685987
193	0x3da5b831	0.08091772
194	0xbd2c1763	-0.04201449
195	0x3d385979	0.045007203
196	0x3e1e5bf9	0.15464772
197	0x3bc63ac7	0.0060494873
198	0x3e2575b9	0.16158189
199	0x38910ef0	6.916921e-05
200	0xbd8e87ef	-0.06959521
201	0xbc8fecb9	-0.017568933
202	0xbde11a42	-0.109913364
203	0x3c90dd3f	0.017683623
204	0x3d8d25e4	0.06891993
205	0x3cafc97a	0.021458376
206	0x3d0489a0	0.032357812
207	0xbd359546	-0.04433181
208	0x3ce11b3c	0.027478807
209	0x3e05aeed	0.1305501
210	0x3d99f035	0.07516519
211	0xbce44cc1	-0.02786863
212	0xbdcaece6	-0.09908466
213	0xbda53a84	-0.080678016
214	0xbceaa4f2	-0.028643105
215	0xbcffa9f1	-0.031208964
216	0x3ceedf17	0.029159112
217	0x3dfad40b	0.12247475
218	0xbd682531	-0.056676093
219	0xbd898196	-0.0671417
220	0xbcf0686a	-0.029346664
221	0x3b97124f	0.004610337
222	0xbcff1c8a	-0.031141538
223	0xbd9f172d	-0.07768092
224	0x3de43e25	0.11144666
225	0xbde6b727	-0.11265402
226	0x3db25759	0.087080665
227	0xbd873be5	-0.06603221
228	0xbdaa6ea2	-0.08321883
229	0xbd116404	-0.035495773
230	0xbdba8a84	-0.09108451
231	0xbcb6e46e	-0.02232572
232	0xbd4cfc52	-0.05004532
233	0x3d864b56	0.06557338
234	0xbca516d5	-0.020152489
235	0x3d9bf6a6	0.07615404
236	0x3d5401d7	0.051759567
237	0xbd0131c3	-0.031541597
238	0x3d2d2f9d	0.042281736
239	0x3dc8bcae	0.09801613
240	0x3d8d0ea1	0.06887556
241	0xbd7bf28c	-0.061510608
242	0x3dda7764	0.10667303
243	0x3d84d68a	0.064862326
244	0x3de70196	0.11279599
245	0x3d06530e	0.03279405
246	0x3da77732	0.081770316
247	0xbdb819e4	-0.08989313
248	0x3db2ab01	0.08724023
249	0x3da5a5e9	0.080882855
250	0xbd5389cb	-0.05164508
251	0x3e15bed2	0.14623573
252	0x3d3de28f	0.04635864
253	0x3d67ef3e	0.056624644
254	0x3d9de561	0.07709766
255	0x3e02ca08	0.12772381

fc3.bias f4 [8]
0	0x3d391e5d	0.045194972
1	0x3dcb5911	0.099290974
2	0x3ccb8376	0.024842959
3	0xbcea6e94	-0.02861718
4	0x3e0a9249	0.13532366
5	0xbcc09647	-0.023509158
6	0xbd8cc298	-0.06873053
7	0xbd9d9cab	-0.07695898
