matchmaking_model.pth (torch, 29095 bytes, 6 tensors)

fc1.weight f4 [64, 31]
0	0xbdd2c754	-0.10291925
1	0x3a5df2f4	0.0008466684
2	0x3dac05cb	0.083995424
3	0x3d88c6c6	0.06678538
4	0x3ac80a66	0.0015261888
5	0x3d300ca9	0.042980824
6	0xbd8faf90	-0.07015908
7	0xbd159812	-0.03652198
8	0xbe1093de	-0.14118907
9	0xbd11f7ee	-0.035636835
10	0x3dbc9bfe	0.09209441
11	0xbdc54e78	-0.09634107
12	0x3ce68bb5	0.02814279
13	0x3e161acc	0.1465866
14	0x3e34c533	0.1765335
15	0x3d8e1ead	0.06939445
16	0xbdb342a2	-0.087529436
17	0x3d96bd5e	0.07360338
18	0x3def30f1	0.11679257
19	0x3d93b7c6	0.072127864
20	0xbe01a0b6	-0.12658963
21	0x3e309b69	0.17246784
22	0x3e095a9e	0.13413474
23	0xbe460864	-0.19339138
24	0xbca498a8	-0.020092323
25	0xbde44baa	-0.11147244
26	0xbd80c5b0	-0.06287706
27	0x3bca64d1	0.006176569
28	0xbe1ce590	-0.15321946
29	0xbdea9bfc	-0.11455533
30	0x3e148fed	0.14508028
31	0x3e0fb931	0.14035489
32	0x3e2dae4e	0.16961023
33	0x3e30855c	0.17238373
34	0x3d7ce4b2	0.06174154
35	0x3de8e312	0.11371435
36	0x3db6a2a5	0.08917741
37	0x3db7bbb8	0.089713514
38	0xbc56ac4d	-0.013102603
39	0xbe18273b	-0.14858715
40	0x3e184a6f	0.14872144
41	0xbd8e4f75	-0.06948749
42	0x3e128c81	0.1431141
43	0x3e396d64	0.18108135
44	0xbe219f14	-0.1578334
45	0x3e31bbf0	0.17356849
46	0x3d8f205d	0.06988595
47	0x3d90c4ae	0.07068764
48	0xbbbee68e	-0.005825824
49	0x3d28142d	0.041034866
50	0xbdf658f0	-0.12028682
51	0x3e4371ad	0.19086333
52	0xbda32018	-0.07965106
53	0x3e4d4084	0.20044142
54	0x3df5885a	0.119888976
55	0xbd49b02c	-0.049240276
56	0xbdb91d6d	-0.09038816
57	0x3e2fc03f	0.1716318
58	0x3dd5abaf	0.10433137
59	0x3dbde6c8	0.09272534
60	0x3c996adf	0.018727718
61	0x3e066b5e	0.13126895
62	0x3dc25d08	0.094904006
63	0x3d6b02e8	0.05737582
64	0x3e50e4f7	0.20399843
65	0xbdbe6f3f	-0.09298562
66	0x3dd83746	0.105574176
67	0xbd9641e8	-0.07336789
68	0x3e419673	0.18905048
69	0x3def8440	0.116951466
70	0xbcfa8fc8	-0.030586138
71	0xbc9f9611	-0.019480737
72	0x3c963921	0.018337788
73	0x3dca4555	0.09876505
74	0xbb4eb2e7	-0.003153974
75	0x3e171224	0.14753014
76	0xbb6094b5	-0.0034268324
77	0xbde4f79a	-0.11180039
78	0x3e19c583	0.15016751
79	0x3e3f07a8	0.18655264
80	0xba426a52	-0.00074163557
81	0xbcc0d5b6	-0.023539405
82	0x3d671a8a	0.056421794
83	0xbdfe2d09	-0.124109335
84	0x3c3373f8	0.010952942
85	0x3e408dbe	0.1880407
86	0x3d8169bc	0.06318995
87	0xbce1259a	-0.02748375
88	0x3e068a87	0.13138781
89	0xbd8855ec	-0.06657013
90	0xbd6fbb09	-0.05852798
91	0x3e04e38a	0.12977424
92	0xbdf91d8f	-0.12163841
93	0xbbb9e138	-0.0056726
94	0x3e26c955	0.1628774
95	0x3c2cbf16	0.010543605
96	0xbd473fe7	-0.048644926
97	0xbdbb85e2	-0.091563955
98	0x3d12f969	0.035882387
99	0x3dcedfb2	0.1010126
100	0xbd4b81b0	-0.049684227
101	0x3e0f1e9e	0.13976523
102	0xbdf709d5	-0.12062422
103	0x3db3c93d	0.087786175
104	0x3dd408ee	0.10353266
105	0xbdb26fbc	-0.08712718
106	0x3c5b807c	0.013397332
107	0xbd5570cb	-0.05210952
108	0xbe1e8509	-0.15480436
109	0x3df03979	0.11729712
110	0xbd7578a7	-0.059929516
111	0xbd0a7f64	-0.033812895
112	0xbd4791fb	-0.048723202
113	0x3d50c1ce	0.050966077
114	0x3d26f7c9	0.04076365
115	0x3e5222e9	0.2052113
116	0x3dca7f04	0.098875076
117	0x3d862f77	0.06552022
118	0x3e244221	0.16040851
119	0xbd18d554	-0.03731282
120	0x3e32cf46	0.17461881
121	0x3db12667	0.08649903
122	0xbda88433	-0.0822834
123	0x3d728e40	0.05921769
124	0x3c12da4e	0.008963181
125	0x3ab59301	0.0013853015
126	0xbe075b4b	-0.13218419
127	0xbd7b95e9	-0.061422262
128	0x3d69e67e	0.05710458
129	0xbc9e73fd	-0.019342417
130	0xbe1e4ccb	-0.15458982
131	0x3dd715da	0.10502215
132	0xbdb2427f	-0.087040894
133	0x3d831f5e	0.06402467
134	0xbdc72f6f	-0.09725844
135	0x3e0fcc60	0.14042807
136	0x3d6bbbd8	0.05755219
137	0x3c19d188	0.009388335
138	0xbde68aa6	-0.11256914
139	0xbd52d47c	-0.051472172
140	0x3e33619c	0.17517704
141	0x3d433175	0.047654588
142	0x3e0a9be6	0.13536033
143	0x3e2f8df3	0.17143993
144	0x3c91f2b7	0.01781593
145	0x3e5254d7	0.20540176
146	0x3d648e4a	0.05579976
147	0xbdb7af00	-0.089689255
148	0x3e376f38	0.1791352
149	0x3e1a52f8	0.15070713
150	0xbd69ded9	-0.05709729
151	0x3e46b6b8	0.19405639
152	0x3deb7c9d	0.114983775
153	0xbdee1908	-0.11625868
154	0x3e2e25a7	0.1700655
155	0xbdb56266	-0.08856659
156	0x3cf06bc5	0.029348264
157	0x3db5a320	0.08869004
158	0xbd3bee83	-0.04588176
159	0x3da5097d	0.0805845
160	0xbd43e402	-0.047824867
161	0x3ca574c1	0.020197274
162	0xbc11ddf7	-0.008903018
163	0x3c8d2529	0.017229633
164	0x3e270f80	0.16314507
165	0x3e3e13a0	0.18562174
166	0xbdd5cb04	-0.10439113
167	0x3d91af6f	0.071135394
168	0x3d830050	0.06396544
169	0x3de0915d	0.10965226
170	0x3d782cf2	0.06058974
171	0x3e4e15ec	0.2012555
172	0x3d89411d	0.067018725
173	0x3c4b03c3	0.012391034
174	0x3e4077be	0.18795678
175	0xbd3456dd	-0.04402815
176	0x3d14462c	0.036199734
177	0x3d02d0dd	0.03193747
178	0xbd87d755	-0.06632868
179	0x3e0ffea1	0.14061977
180	0x3d4c7d87	0.0499244
181	0x3d8e1a63	0.069386266
182	0x3dd37cb1	0.103265174
183	0x3e40dcb8	0.18834198
184	0xbcfc7e95	-0.030822078
185	0xbd2c0a8a	-0.04200224
186	0x3d6bc0bd	0.057556856
187	0xbe001d31	-0.12511136
188	0x3e24aa53	0.16080599
189	0x3e1ffc17	0.15623508
190	0xbde262b5	-0.11053983
191	0x3db07104	0.08615306
192	0xbdb49eea	-0.08819373
193	0xbd7118df	-0.05886161
194	0xbd9eade0	-0.07748008
195	0x3de1779e	0.11009143
196	0x3e25c25c	0.16187423
197	0x3d2fc1d0	0.042909443
198	0xbda08072	-0.07836999
199	0x3a2e2768	0.0006643445
200	0x3dd4cbeb	0.10390457
201	0x3d058b54	0.032603577
202	0x3dc26764	0.094923764
203	0xbd401c0d	-0.04690175
204	0xbc33b2c3	-0.010967913
205	0xbddd9c4c	-0.10820827
206	0xbd9f8d79	-0.07790656
207	0x3e17af1e	0.14812896
208	0xbc3526a9	-0.011056581
209	0x3e208c37	0.15678488
210	0x3cb7c313	0.022431886
211	0x3e2a3b20	0.16624117
212	0x3d30d006	0.043167137
213	0xbca506d6	-0.020144861
214	0xbdd253ff	-0.10269927
215	0x3e291318	0.1651119
216	0xbd70328d	-0.05864196
217	0xbdc37432	-0.09543647
218	0xbd4149c4	-0.04718949
219	0xbcbfbb1c	-0.02340465
220	0xbdbf0471	-0.09327019
221	0xbe107a69	-0.14109196
222	0xbd20ff8c	-0.03930621
223	0xbdcb3c35	-0.09923593
224	0x3e38cdce	0.18047258
225	0x3dff7e99	0.124753185
226	0xbe03ddb1	-0.12877537
227	0xbd5b2175	-0.053498704
228	0x3d1e477d	0.038642395
229	0xbd2fed04	-0.042950645
230	0xbe0fcd90	-0.1404326
231	0xbdabdfa6	-0.08392267
232	0x3ddbd714	0.10734382
233	0xbde10dca	-0.10988958
234	0xbb914b94	-0.0044340584
235	0x3e06ebc5	0.13175876
236	0xbdfbea1a	-0.12300511
237	0xbbcfe51b	-0.00634445
238	0x3dd4f580	0.10398388
239	0x3e2ebb3d	0.17063613
240	0x3dae3678	0.08506483
241	0xbd4743ef	-0.04864877
242	0x3ccfbc22	0.025358263
243	0x3d58209a	0.052765466
244	0xbd999aca	-0.07500227
245	0x3da47201	0.08029557
246	0xbc70dae1	-0.014700622
247	0xba85a455	-0.001019607
248	0x3e0058f6	0.12533936
249	0x3e2c44cf	0.16823123
250	0x3c8e2ac8	0.017354384
251	0x3dd8702c	0.1056827
252	0xbcb97963	-0.02264089
253	0x3e4805ef	0.19533513
254	0x3d86935f	0.065710776
255	0x3cfbc196	0.030731957

fc1.bias f4 [64]
0	0x3dd8bf36	0.105833456
1	0x3d994bc8	0.07485157
2	0x3acc109b	0.0015568914
3	0x3e1c3d23	0.15257697
4	0x3ce9ea93	0.028554237
5	0x3e18572c	0.14877003
6	0xbdf0fc56	-0.11766879
7	0x3e473ffb	0.19458
8	0x3e4f01ec	0.20215577
9	0x3e2fd604	0.17171484
10	0x3e09ec9e	0.13469169
11	0xbdf03abd	-0.117299534
12	0xbd87bfb4	-0.06628361
13	0x3dcbacbd	0.099450566
14	0x3d14e742	0.036353357
15	0x3d9f0b53	0.07765832
16	0x3d2bbc0b	0.04192738
17	0x3e467097	0.19378887
18	0xbd86e1b4	-0.06586018
19	0xbd9b16c5	-0.07572702
20	0xbde414bd	-0.11136768
21	0xbcf766de	-0.030200418
22	0x3d4b600b	0.04965214
23	0x3d1e55f8	0.038656205
24	0x3dcce401	0.10004426
25	0x3e1c5b54	0.15269214
26	0x3dac935f	0.08426546
27	0xbdfff0e1	-0.12497116
28	0xbc0fb516	-0.008771202
29	0xbd7900a6	-0.060791634
30	0x3e1ba3c7	0.15199195
31	0x3d6c1023	0.057632577
32	0xbe439c90	-0.19102693
33	0x3e07d4e8	0.13264811
34	0xbda0f40e	-0.0785905
35	0x3be69daf	0.0070378403
36	0xbd98d815	-0.074630894
37	0xbe19bbc4	-0.15013033
38	0xbe1fc800	-0.15603638
39	0xbdfbfcb9	-0.123040624
40	0xbcc3a6dc	-0.023883276
41	0x3decc4a5	0.115609445
42	0xbda05a00	-0.07829666
43	0xbdf8858f	-0.12134849
44	0x3c4d55db	0.012532677
45	0xbe05b225	-0.13056238
46	0x3dccf79a	0.10008164
47	0xbd5bcf73	-0.053664636
48	0x3d4f93f1	0.050678197
49	0x3b6c3286	0.0036040857
50	0x3d8168b2	0.06318797
51	0x3e35d1c5	0.17755802
52	0x3e2efbe1	0.17088272
53	0x3dff985f	0.12480234
54	0xbdfecc0c	-0.124412626
55	0x3e1675ca	0.1469337
56	0xbdedeff5	-0.11618034
57	0xbd7be047	-0.061493184
58	0xbd844254	-0.064579636
59	0xbdc77e7e	-0.09740923
60	0x3de5df7d	0.11224268
61	0x3e207c36	0.15672383
62	0xbd6663ce	-0.056247525
63	0x3d224285	0.03961422

fc2.weight f4 [64, 64]
0	0xbdf74433	-0.12073555
1	0x3dd4b12d	0.10385356
2	0xbc9d62f2	-0.01921222
3	0xbd84522e	-0.06460987
4	0xbcb6f0f3	-0.02233169
5	0xbd90f594	-0.0707809
6	0xbde60b1e	-0.11232589
7	0xba04a478	-0.0005059908
8	0x3def1ced	0.11675439
9	0xbd93391f	-0.07188629
10	0xbd1abc37	-0.037777152
11	0xbdd94260	-0.10608363
12	0x3da94e12	0.08266844
13	0x3ded3452	0.11582245
14	0xbddcf6cd	-0.10789261
15	0x3d98ce10	0.07461178
16	0x3dd834fd	0.10556982
17	0x3da36f85	0.07980255
18	0x3dbf2fd3	0.093352936
19	0x3dd03105	0.101656
20	0x3dae4a01	0.08510209
21	0xbc97e749	-0.018542903
22	0xbd34fa5d	-0.044184078
23	0x3d1cad4e	0.038251214
24	0x3d6fa2b5	0.05850478
25	0x3e185b25	0.14878519
26	0x3d15fc30	0.036617458
27	0x3d5b1684	0.05348827
28	0x3deaadb9	0.11458916
29	0x3d00bc5e	0.03142964
30	0xbce3e2cf	-0.027818112
31	0x3daf5892	0.08561815
32	0xbdbb268e	-0.09138213
33	0x3bf80979	0.0075694886
34	0x3d367d3e	0.044553034
35	0xbdb17257	-0.08664387
36	0xbc118729	-0.008882322
37	0x3db6e2ab	0.08929952
38	0x3d2b586b	0.04183237
39	0x3cad29e7	0.021138145
40	0xbdfad411	-0.1224748
41	0x3dc226a4	0.09480026
42	0x3de0a249	0.109684534
43	0x3ccd9255	0.02509419
44	0xbc784925	-0.015154158
45	0xbdd0ba9a	-0.101918414
46	0xbde0da59	-0.109791465
47	0x3d4d15aa	0.05006949
48	0x3c4ccb31	0.0124996165
49	0xbdbd1255	-0.09232012
50	0x3c8d5192	0.01725081
51	0xbdae693d	-0.08516166
52	0x3dac6c50	0.084190965
53	0x3e09d807	0.13461314
54	0xbca8c791	-0.020602973
55	0xbd3b8547	-0.0457814
56	0xbd30cb79	-0.043162797
57	0x3dcd6ca6	0.10030489
58	0xbc00acc0	-0.007853687
59	0xbded2612	-0.11579527
60	0x3c041964	0.008062694
61	0x3b4ba374	0.0031072767
62	0x3c88da16	0.016705554
63	0x3d2ab1d2	0.04167349
64	0x3ded0495	0.115731396
65	0xbd3ec513	-0.046574663
66	0x3d8f990c	0.07011613
67	0x3e13f59f	0.14449166
68	0x3d219e06	0.039457344
69	0x3e0df343	0.13862328
70	0xbce554ef	-0.027994601
71	0x3c786d6b	0.015162806
72	0xbc941a83	-0.018079048
73	0x3dbc17bc	0.091842145
74	0xbbf402f5	-0.0074466416
75	0xbdbb3478	-0.09140867
76	0xbd29b990	-0.04143673
77	0x3e0df24f	0.13861965
78	0xbdaaa3bf	-0.08332013
79	0x3dd031f8	0.10165781
80	0xbd8b0507	-0.06788068
81	0x3cb9b080	0.02266717
82	0x3da675a5	0.08127908
83	0xbdd45864	-0.10368422
84	0xbd14e42d	-0.036350418
85	0xbc46d4b8	-0.012135677
86	0xbd57cc6e	-0.052685194
87	0xbdb37a0d	-0.08763514
88	0x3d59aacf	0.05314141
89	0xbe10e9a0	-0.14151621
90	0xbdc87f08	-0.09789854
91	0x3ddd71b1	0.108127005
92	0xbe0a17c5	-0.1348563
93	0xbd15ec29	-0.036602173
94	0xbdd4b5e4	-0.103862554
95	0xbdc24195	-0.09485165
96	0xbdc16520	-0.09443116
97	0xbd05be7e	-0.03265237
98	0xbc84bcde	-0.01620334
99	0x3e1486cb	0.14504544
100	0x3e14ec93	0.14543371
101	0x3dd5ed0f	0.10445606
102	0xbe1619a0	-0.14658213
103	0x3e169a81	0.14707376
104	0xbc35bbea	-0.0110921655
105	0x3df784d7	0.12085884
106	0x3de410d0	0.11136019
107	0x3baf7862	0.005354927
108	0x3d92167c	0.07133195
109	0x3c3b3cc4	0.011428062
110	0xbdd6390a	-0.10460098
111	0xbd83b05c	-0.06430122
112	0xbdad2e2c	-0.08456072
113	0xbc239be1	-0.009985895
114	0x3e0b8fbb	0.13629048
115	0x3db48459	0.08814306
116	0x3d9fa6d8	0.07795495
117	0xbe2701a8	-0.16309226
118	0x3dc1ab71	0.09456528
119	0x3d98a3e2	0.07453133
120	0xbca6b399	-0.02034931
121	0x3d47c288	0.048769504
122	0xbd3d1afa	-0.046168305
123	0xbd66e454	-0.056370094
124	0x3e0cf216	0.13764223
125	0x3e27794b	0.16354863
126	0x3d844779	0.06458945
127	0xbc3a03f3	-0.011353481
128	0x3d89a7dd	0.067214705
129	0xbd8ecaf5	-0.06972305
130	0xbdebc6d2	-0.11512531
131	0x3dca1956	0.09868114
132	0xbcb6e127	-0.022324158
133	0x3cd689a7	0.026188685
134	0x3d491a6e	0.04909747
135	0xbdde7c34	-0.108635336
136	0xbdd17b72	-0.102286234
137	0x3df870be	0.12130879
138	0x3dea4975	0.11439792
139	0x3d5d0f6c	0.053969786
140	0xbdd115f5	-0.10209266
141	0x3cecb6d4	0.028895773
142	0x3ce0c728	0.027438715
143	0x3cff3a23	0.031155651
144	0x3c9b3cd5	0.018949905
145	0xbd41657a	-0.047215916
146	0x3daeec1a	0.085411265
147	0xbdfc3461	-0.12314678
148	0x3db0b5fd	0.086284615
149	0x3d172807	0.036903407
150	0xbd9a4c8e	-0.07534133
151	0x3ddc0594	0.107432514
152	0x3c9328e6	0.017963838
153	0x3cdd644b	0.027025362
154	0xbac223d2	-0.0014811701
155	0x3cda2984	0.026631124
156	0xbbadf38c	-0.005308574
157	0xbd7db261	-0.061937694
158	0x3d2c5c79	0.042080376
159	0x3b8c6f09	0.0042856974
160	0xbcd675eb	-0.026179275
161	0x3d967998	0.07347411
162	0x3d4d141e	0.050068013
163	0xbcd19e39	-0.025588142
164	0xbb6a623c	-0.0035764119
165	0xbdc4e5bb	-0.0961413
166	0x3cecb70a	0.028895874
167	0xbddfe167	-0.10931664
168	0x3dc3af79	0.09554953
169	0xbcf269b5	-0.02959142
170	0x3dbd8d4f	0.09255468
171	0x3d9b5e36	0.07586329
172	0xbd1b1a32	-0.03786678
173	0xbcafe62b	-0.021472057
174	0xbdf2e266	-0.11859588
175	0xbcd95727	-0.026530815
176	0x3d831f1a	0.064024165
177	0xbc9f2817	-0.019428296
178	0xbdf292d7	-0.11844414
179	0x3d71f938	0.059075564
180	0xbcca5f17	-0.024703545
181	0x3d7f5c27	0.062343743
182	0xbdd683fa	-0.10474391
183	0xbd663525	-0.056203026
184	0x3dc675f2	0.09690465
185	0x3c2d9074	0.010593522
186	0x3d106b48	0.03525856
187	0x3dc5552e	0.09635387
188	0xbc8bec5a	-0.017080475
189	0xbdb1220d	-0.08649073
190	0xbdc304da	-0.0952241
191	0x3d01bdeb	0.03167526
192	0x3da82dcb	0.08211859
193	0xba9ba835	-0.0011875691
194	0x3b8751b9	0.004129615
195	0x3e191f92	0.1495345
196	0x3ddf7a03	0.10911944
197	0x3d4f68b5	0.050636966
198	0x3d2a6956	0.041604362
199	0x3d9525d4	0.07282606
200	0x3e207783	0.1567059
201	0xbdb6da36	-0.08928339
202	0x3d75d051	0.06001312
203	0xbd81e558	-0.06342572
204	0xbd9cc3da	-0.07654543
205	0x3ddbef9e	0.10739063
206	0x3d8e84b9	0.069589086
207	0x3d9fc8ff	0.07802009
208	0x3df46b6c	0.119345516
209	0x3e268c2f	0.16264413
210	0x3dfc76d9	0.12327356
211	0xbcc5e6ab	-0.024157843
212	0x3d3206ff	0.043463703
213	0xbd1a1261	-0.037615184
214	0x3e20c53a	0.15700236
215	0x3dd0601f	0.10174584
216	0xbd3ec5a3	-0.0465752
217	0xbd6e560f	-0.05818754
218	0x3d4afde3	0.04955853
219	0xbd94e0a8	-0.07269412
220	0x3b945385	0.004526558
221	0x3d717a90	0.058954775
222	0x3db1c624	0.086803705
223	0xbda2b270	-0.079441905
224	0x3e050fd2	0.12994316
225	0x3c906d6b	0.0176303
226	0xbe3c1dd9	-0.18370761
227	0xbd5a4a88	-0.053293735
228	0x3d4433b7	0.04790088
229	0x3e0123cd	0.12611313
230	0x3de7e7a3	0.11323478
231	0x3d303740	0.04302144
232	0xbe265224	-0.16242272
233	0xbd4fec8f	-0.05076271
234	0x3dd39bfe	0.103324875
235	0xbd9048f4	-0.07045165
236	0x3d113ce0	0.035458446
237	0xbcc794a9	-0.024362879
238	0x3de3ef45	0.111296214
239	0xbd40919b	-0.04701386
240	0xbd915b31	-0.070974715
241	0x3ddff62c	0.109356254
242	0x3e07ad18	0.13249624
243	0xbd3b4a12	-0.045724936
244	0x3da1752a	0.078836754
245	0x3e0ce4b0	0.13759112
246	0xbda8820e	-0.08227931
247	0xbdc713f7	-0.09720605
248	0xbd8db37e	-0.06919001
249	0xbce3aa2b	-0.027791103
250	0x3c2dff38	0.010619931
251	0x3d56fc9b	0.052486997
252	0xbd8f5bff	-0.06999969
253	0x3dc920b8	0.09820694
254	0x3ccdb554	0.025110878
255	0x3b809a5e	0.003924652

fc2.bias f4 [64]
0	0x3d9f157b	0.07767769
1	0x3e0a8567	0.13527451
2	0x3ca9f47a	0.020746458
3	0x3c69e71d	0.014276293
4	0xbd883313	-0.06650367
5	0x3bf75170	0.00754755
6	0x3c78f065	0.015194033
7	0x3da8b776	0.082381174
8	0x3d80d04f	0.06289732
9	0x3dc25088	0.09488016
10	0xbdac692f	-0.084185
11	0x3d859044	0.06521657
12	0x3db7f79d	0.08982775
13	0x3c3f5751	0.011678533
14	0x3d760290	0.060061038
15	0xbccb3f55	-0.024810473
16	0xbd87cc50	-0.066307664
17	0x3c7edc88	0.015555508
18	0x3cf372cf	0.029717831
19	0xbccfd15d	-0.025368387
20	0xbce7adcb	-0.028281113
21	0xbc927de1	-0.01788229
22	0x3cf4c105	0.029877195
23	0xbd80bce6	-0.062860295
24	0xbdc00ca4	-0.09377411
25	0x3b07855d	0.0020678856
26	0x3df08244	0.11743596
27	0x3cd4e864	0.025989719
28	0xbe09d5da	-0.13460484
29	0x3dfa33e1	0.12216926
30	0x3d368379	0.044558976
31	0xbd61edfe	-0.055158608
32	0x3d2b0a6d	0.04175799
33	0x3c60ea0f	0.013727679
34	0x3dd433a3	0.103614114
35	0xbd736aca	-0.059428014
36	0x3de31b36	0.110891744
37	0x3d47d2bb	0.048784953
38	0xbd9b3007	-0.0757752
39	0x3d99c313	0.075079106
40	0x3d822984	0.06355575
41	0xbd705c3e	-0.05868172
42	0x3e1b0e26	0.15142116
43	0xbdc1b7cc	-0.094588846
44	0x3e0a3c33	0.13499527
45	0xbd4e060e	-0.050298743
46	0xbdcf129b	-0.101109706
47	0xbc458aaa	-0.012056986
48	0x3e061183	0.13092618
49	0x3dcf1109	0.10110671
50	0x3df26878	0.11836332
51	0xbca7eeb1	-0.02049956
52	0x3de4f720	0.11179948
53	0x3dbd0263	0.09228971
54	0x3d577cd4	0.05260928
55	0x3d782216	0.060579382
56	0x3daf36ed	0.08555398
57	0x3c83829d	0.016053492
58	0x3dac3f97	0.08410566
59	0x3db6df41	0.08929301
60	0xbd956abe	-0.0729575
61	0x3d961749	0.0732866
62	0xbcada534	-0.021196939
63	0xbddc964f	-0.107708566

fc3.weight f4 [8, 64]
0	0x3da7f8e6	0.082017705
1	0x3e200100	0.15625381
2	0x3c2f787a	0.010709876
3	0x3bbf7602	0.005842925
4	0x3cbb1062	0.02283496
5	0x3daa2284	0.083073646
6	0x3df8c40e	0.121467695
7	0xbd2af2ff	-0.041735645
8	0x3e033771	0.12814118
9	0xbdd68b0c	-0.1047574
10	0x3c86b3aa	0.016443092
11	0xbc91e8dc	-0.017811231
12	0x3cbf9370	0.023385733
13	0x3d7d1e9e	0.061796777
14	0x3d06b8fe	0.032891266
15	0x3d83feef	0.06445109
16	0xbd9624c8	-0.07331234
17	0xbdbfaaac	-0.09358725
18	0xbdc84c82	-0.09780218
19	0x3e113d84	0.14183623
20	0xbdcce9b0	-0.1000551
21	0xbda66d54	-0.081263214
22	0x3da5ec6b	0.08101734
23	0x3e0d7595	0.13814385
24	0x3d92b5ea	0.071636036
25	0x3dfecfa8	0.12441951
26	0x3dd04804	0.10169986
27	0x3de33779	0.11094565
28	0x3d4d13cc	0.050067708
29	0xbd1d27c9	-0.03836802
30	0xbd938639	-0.07203335
31	0x3de6616c	0.112490505
32	0x3c01d601	0.007924558
33	0x3deeeeb0	0.1166662
34	0xbdf57a8b	-0.11986264
35	0x3e1f61d7	0.15564667
36	0xbd851e5f	-0.064999335
37	0x3e028f4a	0.12749973
38	0x3cad2c64	0.021139331
39	0x3d7ec0c9	0.062195573
40	0x3bcdad1d	0.00627674
41	0xbd74822a	-0.059694447
42	0x3df16d0b	0.117883764
43	0x3e0e4cc4	0.13896471
44	0x3c8ebc9d	0.017423922
45	0x3e094e90	0.13408875
46	0xbba4f67a	-0.005034265
47	0x3e0a3584	0.13496977
48	0x3e0a9da1	0.13536693
49	0x3d6f0d8f	0.05836254
50	0xbd8ee1b8	-0.06976646
51	0xbdb385d5	-0.08765761
52	0x3df833f8	0.12119287
53	0x3ded9041	0.1159978
54	0x3e0c9c5e	0.13731524
55	0x3dca6868	0.09883195
56	0xbde058b3	-0.10954418
57	0x3c851c27	0.016248776
58	0xbd8fab02	-0.07015039
59	0xbc96f13a	-0.018425573
60	0xbd1c826b	-0.038210314
61	0xbd13b7d3	-0.03606398
62	0xbdc13680	-0.09434223
63	0xbd92aa0a	-0.071613386
64	0x3d804f1c	0.06265089
65	0xbd07136f	-0.032977518
66	0xbdb1ae43	-0.08675816
67	0x3db4797a	0.08812232
68	0x3da87e34	0.08227196
69	0xbc93040e	-0.01794627
70	0xbae9e049	-0.0017843331
71	0x3e0ff85a	0.14059582
72	0x3ca31f45	0.019912371
73	0xbda856c2	-0.08219673
74	0xbda48750	-0.08033621
75	0xbdbc9db2	-0.092097655
76	0x3ddf43c2	0.10901596
77	0x3da37324	0.07980946
78	0x3da088d1	0.07838596
79	0xbd23fb23	-0.040034425
80	0xbd267ed7	-0.040648308
81	0x3df7a895	0.12092701
82	0xbd877422	-0.066139475
83	0x3e19a057	0.15002571
84	0xbdc2b0f1	-0.09506405
85	0x3de657de	0.11247228
86	0x3d9fa3fd	0.0779495
87	0x3da9f19a	0.08298035
88	0x3b1600d6	0.0022888682
89	0xb94cf7b9	-0.0001954724
90	0x3d96afe9	0.07357771
91	0x3e1021e1	0.14075424
92	0xbd1c6963	-0.038186442
93	0xbd398b29	-0.04529873
94	0x3d689c5c	0.05678974
95	0x3d18efc4	0.037338033
96	0x3e03588d	0.12826748
97	0x3ca03b5c	0.019559555
98	0xbdc3e4c4	-0.09565118
99	0x3c76b9c8	0.015058942
100	0x3c274d93	0.010211366
101	0x3e2201cf	0.15821002
102	0xbd7d135d	-0.061786044
103	0x3e090997	0.13382564
104	0x3e15fa07	0.14646159
105	0xbcd30a1a	-0.025761653
106	0xbdb129b4	-0.08650532
107	0xbd603407	-0.054737117
108	0x3dcbcb3f	0.099508755
109	0x3e032545	0.12807186
110	0x3e011088	0.12603962
111	0xbd7d3efe	-0.061827652
112	0x3d39ab79	0.045329545
113	0x3caf0b7d	0.021367783
114	0x3b62f3a8	0.0034630094
115	0x3d2d5cfe	0.042325012
116	0x3d88b011	0.06674207
117	0x3b633e34	0.0034674527
118	0x3de7760b	0.11301812
119	0x3d0e6972	0.03476853
120	0xbd55dac0	-0.05221057
121	0x3d8ecc9b	0.06972619
122	0x3d2bc9b2	0.0419404
123	0x3c80c3f8	0.015718445
124	0xbc3e588a	-0.011617789
125	0xbc80628d	-0.015671993
126	0xbd165433	-0.036701392
127	0xbd6a2c1c	-0.057170972
128	0xbce00515	-0.027346173
129	0x3d9e7eb9	0.07739014
130	0x3d794833	0.06085987
131	0xbdbe11ad	-0.09280715
132	0x3d985399	0.0743782
133	0xbde2f717	-0.11082285
134	0xbda7037b	-0.08154961
135	0xbdab8c8f	-0.08376419
136	0x3d7239d7	0.05913719
137	0xbdda5236	-0.10660212
138	0x3d93c758	0.07215756
139	0xbaca4a17	-0.0015433457
140	0x3e0f48ea	0.13992658
141	0xbce8d58f	-0.028422145
142	0x3e0191b5	0.12653239
143	0x3dc25b1d	0.09490035
144	0xbc457733	-0.012052345
145	0x3d3209dc	0.043466434
146	0xbbd32980	-0.006444156
147	0xbd35089a	-0.044197656
148	0xbb93b8ba	-0.004508105
149	0xbda15043	-0.07876637
150	0x3e0fca7e	0.14042088
151	0x3cf2e77e	0.0296514
152	0x3d81697a	0.06318946
153	0xbdaa4113	-0.08313193
154	0x3dc1edad	0.09469161
155	0xbdbc3130	-0.09189069
156	0x3dae6994	0.08516231
157	0x3d59c8d6	0.053170048
158	0x3d6defd9	0.058090065
159	0x3de2b487	0.11069589
160	0x3e132408	0.14369214
161	0x3dbd7e30	0.09252584
162	0x3d944e52	0.07241501
163	0x3dd9d074	0.106354624
164	0xbd8cb2b7	-0.06870025
165	0x3da7b245	0.08188299
166	0x3ded5644	0.115887195
167	0xbc8963a3	-0.016771143
168	0xbba919e6	-0.005160558
169	0x3db8812f	0.09009015
170	0x3c8b6bb0	0.017019123
171	0x3d963215	0.07333771
172	0xbd4e2545	-0.05032851
173	0x3e07b74c	0.13253516
174	0x3de4b3d0	0.11167109
175	0xbd2dbc92	-0.042416163
176	0x3c613592	0.013745682
177	0x3dfa8cdf	0.122339
178	0x3d1c7763	0.038199794
179	0x3e09203e	0.13391206
180	0xbda9eea0	-0.08297467
181	0x3df58871	0.11988915
182	0xbdd31aec	-0.10307869
183	0xbd2517c1	-0.040305857
184	0xbdd74811	-0.105117925
185	0x3d95614d	0.07293949
186	0x3dace908	0.08442885
187	0x3c53fe92	0.012939112
188	0x3da72463	0.08161237
189	0x3e0a9b94	0.13535911
190	0xbdf642de	-0.12024473
191	0x3dcc96e2	0.09989716
192	0xbdc1f03d	-0.0946965
193	0x3dc86c52	0.097862855
194	0xbdc831cb	-0.09775122
195	0x3d4b859b	0.049687963
196	0xbd966a65	-0.07344512
197	0xbe1b06fc	-0.15139383
198	0xbdd26577	-0.10273259
199	0xbd8c0d09	-0.06838424
200	0xbd694b82	-0.056956775
201	0x3dddbe5b	0.10827323
202	0xbdc1b512	-0.094583645
203	0x3d71b61d	0.059011567
204	0x3da06fe1	0.07833839
205	0x3d140a78	0.036142796
206	0x3c875e1a	0.016524363
207	0xbd363d89	-0.04449228
208	0xbb11ad5d	-0.0022228577
209	0x3d888fa0	0.06668019
210	0xbd144b25	-0.036204476
211	0x3db85dda	0.09002276
212	0x3ddbeca4	0.10738495
213	0xbd9083f7	-0.0705642
214	0x3c79df27	0.015250958
215	0x3def38ae	0.11680733
216	0x3d08ccf5	0.033398587
217	0xbdcd1ecf	-0.10015642
218	0x3dcdf792	0.10056986
219	0x3d23a47a	0.03995178
220	0x3df64ccf	0.12026369
221	0xbde0edb4	-0.10982838
222	0x3d95894e	0.073015794
223	0x3e16697a	0.14688674
224	0x3d98c5b3	0.07459583
225	0xbd409c9c	-0.047024354
226	0xbe07183e	-0.13192841
227	0xbd5511c4	-0.052018896
228	0x3d8f570a	0.06999023
229	0xbd42b56b	-0.047536295
230	0x3e0c5d1d	0.13707395
231	0xbcf699df	-0.030102668
232	0x3de37421	0.11106134
233	0x3dca7124	0.09884861
234	0x3dd04cd8	0.10170907
235	0x3e056e60	0.13030386
236	0x3dd263c7	0.10272937
237	0x3d934b7d	0.071921326
238	0x3da5896e	0.08082853
239	0xbbfeed29	-0.0077797365
240	0xbd35905c	-0.044327125
241	0x3d833368	0.06406289
242	0x3dabfeac	0.08398184
243	0x3e0aeb5d	0.13566346
244	0x3e0e5aad	0.13901778
245	0x3cae9632	0.021311853
246	0xbd3971c5	-0.045274515
247	0xbdaccecd	-0.084378816
248	0xbd5058ae	-0.05086582
249	0x3ded09d3	0.115741394
250	0x3aebb681	0.0017983468
251	0x3dde6151	0.108584054
252	0x3e191183	0.14948086
253	0xbdc11a1b	-0.09428807
254	0xbddbd5ae	-0.107341155
255	0x3cbd2c08	0.023092285

fc3.bias f4 [8]
0	0xbcf6fc01	-0.030149462
1	0x3dbe0b13	0.09279456
2	0x3d9eb2a3	0.07748916
3	0x3e10e00a	0.14147964
4	0xbd22fa63	-0.03978957
5	0xbca853e1	-0.02054781
6	0x3dba4bf1	0.09096516
7	0xbd801a55	-0.062550224
