matchmaking_model.pth (torch, 29095 bytes, 6 tensors)

fc1.weight f4 [64, 31]
0	0x3d404b4a	0.0469468
1	0x3dd22618	0.10261172
2	0x3e098033	0.1342781
3	0xbdefad14	-0.11702934
4	0x3ce5e980	0.028065443
5	0x3d98828e	0.07446776
6	0x3e28a782	0.16470149
7	0xbe048f43	-0.12945275
8	0x3d86200f	0.065490834
9	0x3dbee9cc	0.09321937
10	0xbdb195d5	-0.08671156
11	0x3d39ae06	0.045331977
12	0x3be521ab	0.006992539
13	0x3c142674	0.009042371
14	0x3dec5d0c	0.11541185
15	0x3e5e4631	0.21706463
16	0x3e5b62f7	0.21424471
17	0xbde0e461	-0.1098106
18	0x3df3f392	0.11911692
19	0x3c34e75b	0.011041488
20	0x3e1bf985	0.15231903
21	0x3e25c20f	0.16187309
22	0x3e427351	0.18989302
23	0x3e63a2f0	0.22230124
24	0xbd85263d	-0.06501434
25	0x3e324b06	0.17411432
26	0x3e0de005	0.13854988
27	0xbcfbccb8	-0.030737266
28	0x3d788843	0.060676824
29	0xbdbf3b0c	-0.09337434
30	0x3e09d4ae	0.13460037
31	0x3dc829c1	0.09773589
32	0x3d8892ce	0.06668626
33	0x3df7c98c	0.12098989
34	0x3e2ab442	0.16670325
35	0xbdc4c5e7	-0.096080594
36	0x3d373f44	0.04473807
37	0x3d023d13	0.031796526
38	0x3e2664fa	0.16249457
39	0x3dbcc86a	0.092179134
40	0xbd111b82	-0.035426624
41	0xbd081e04	-0.03323175
42	0x3daa0324	0.0830138
43	0xbc3f6742	-0.011682333
44	0xbdbd98e0	-0.09257674
45	0x3e46deae	0.19420883
46	0x3dddcb06	0.10829739
47	0xbd98227c	-0.074284524
48	0xbcf33bc7	-0.02969159
49	0x3d85eb74	0.0653905
50	0xbb7fd6f6	-0.0039038039
51	0x3d8e3e9a	0.06945534
52	0xbd9ceb20	-0.07662034
53	0xbdfa496d	-0.12221036
54	0xbd39e772	-0.04538674
55	0x3e42321a	0.18964425
56	0x3e5a27b0	0.21304202
57	0x3e2ae677	0.16689478
58	0x3caa3fda	0.0207824
59	0x3d281b47	0.04104164
60	0x3e07d3ba	0.13264361
61	0x3ce4aaf8	0.027913556
62	0x3d290a98	0.04126987
63	0x3da187b1	0.07887209
64	0x3df1a5ef	0.117992274
65	0xbe38fdfe	-0.1806564
66	0x3ca70067	0.020385934
67	0x3e04b087	0.12957965
68	0xbccadbad	-0.024762953
69	0x3d2b6f95	0.04185446
70	0xbdbff6cb	-0.09373244
71	0xbe247720	-0.16061068
72	0xbdfa71c7	-0.122287326
73	0x3d3550bb	0.044266444
74	0x3d8ad8cd	0.06779633
75	0x3db4fe25	0.08837537
76	0x3df9ed2a	0.122034386
77	0x3d858c99	0.065209575
78	0x3e135a6b	0.1438996
79	0x3d51187f	0.051048752
80	0x3c82b22a	0.015954096
81	0x3e1cd386	0.15315065
82	0xbbd1f6ff	-0.006407618
83	0xbd8874f6	-0.066629335
84	0xbe1864cd	-0.14882202
85	0xbcfbd3e9	-0.030740695
86	0xbdebba72	-0.11510171
87	0xbe0e739d	-0.1391129
88	0x3d83480e	0.06410228
89	0xbd5c6bcd	-0.053813744
90	0xbe525275	-0.20539267
91	0xbe194356	-0.14967093
92	0xbb5c14e1	-0.003358178
93	0xbd8b630b	-0.06806
94	0x3dd80980	0.10548687
95	0xbe3d93c6	-0.18513402
96	0x3c95bed4	0.01827947
97	0x3da97d0a	0.082758024
98	0xbd2ed984	-0.042687908
99	0x3c1817aa	0.009282986
100	0x3da192f4	0.07889357
101	0xbd9ec5e7	-0.077525906
102	0x3c9fe23a	0.019517053
103	0x3d882b7c	0.06648919
104	0xbe1ac5b0	-0.15114474
105	0xbcbe2059	-0.023208784
106	0xbd07a4eb	-0.033116262
107	0xbca6f5b2	-0.020380829
108	0x3d726186	0.059175037
109	0x3da1a6a9	0.07893116
110	0x3d8b616d	0.06805692
111	0xbd4254b3	-0.047444057
112	0x3e022d58	0.1271261
113	0xbd64d75f	-0.055869456
114	0xbe4b3f11	-0.19848277
115	0xbe36e1ae	-0.17859527
116	0x3da43dad	0.08019576
117	0xbcafc06d	-0.02145406
118	0x3e04dea8	0.12975562
119	0x3d8189f7	0.06325143
120	0xbe346673	-0.17617206
121	0xbdfcc9de	-0.123431906
122	0xbe4a5ec5	-0.19762714
123	0x3dcfb48d	0.10141859
124	0xbdaa977e	-0.08329676
125	0x3e39088e	0.1806967
126	0x3da00342	0.078131214
127	0x3e554364	0.20826489
128	0xbdea4367	-0.11438637
129	0xbdd6baa4	-0.104848176
130	0x3e0143f1	0.12623574
131	0x3c4aca4e	0.012377335
132	0xbcfea08b	-0.031082412
133	0x3e1e4996	0.15457758
134	0x3cd35d46	0.025801312
135	0x3e382144	0.1798144
136	0x3e0e6376	0.13905129
137	0xbd0dd982	-0.03463126
138	0xbdc1b372	-0.094580546
139	0x3e0280be	0.12744424
140	0x3e425b09	0.1898004
141	0xbdc56cd7	-0.096399
142	0xbdb160e2	-0.08661057
143	0x3dd3e9c5	0.103473224
144	0xbb9f07fe	-0.0048532477
145	0xbdd3dbbd	-0.10344646
146	0x3d5db00d	0.054122973
147	0xbe0115ac	-0.12605923
148	0x3e588dd3	0.21147852
149	0xbbd04ddc	-0.006356938
150	0x3e3c4bea	0.18388334
151	0x3bcc0b91	0.0062269648
152	0x3dbd8a32	0.09254874
153	0x3e1846c9	0.14870752
154	0xbdf689d2	-0.12038006
155	0x3dae3c00	0.08507538
156	0xbdfa3f78	-0.12219137
157	0x3dfa0379	0.122076936
158	0x3d9d81c8	0.076907694
159	0xbdb31cd0	-0.0874573
160	0x3e274fc9	0.1633903
161	0xbd05e5e1	-0.032689933
162	0x3d3ea29f	0.046541806
163	0x3e3b5905	0.18295677
164	0xbdc181db	-0.09448596
165	0xbd61c606	-0.05512049
166	0x3c3ec1d8	0.011642896
167	0x3dc89f51	0.09796012
168	0x3d9240ce	0.07141267
169	0xbcd46104	-0.025925167
170	0x3e27af9b	0.16375582
171	0x3c074197	0.008255384
172	0xbdbc99e0	-0.09209037
173	0xbdddeb06	-0.10835843
174	0xbbc7ce99	-0.0060976264
175	0x3e1b35b9	0.15157212
176	0x3e61e09a	0.22058335
177	0x3dd87437	0.10569041
178	0xbd370716	-0.044684492
179	0x3e145ffe	0.14489743
180	0x3de4acd4	0.11165777
181	0x3d6bd01e	0.057571523
182	0x3d93f297	0.07224005
183	0xbd1749bd	-0.036935557
184	0xbbbd1b50	-0.005771078
185	0x3db82d08	0.08992964
186	0x3dfc6f71	0.12325943
187	0x3e1cbd48	0.1530658
188	0xbd42b578	-0.047536343
189	0xbdb2a133	-0.087221526
190	0xbdbc962a	-0.09208329
191	0xbdcb2ea4	-0.09921005
192	0x3e4ada24	0.19809777
193	0x3dfdf90e	0.12401019
194	0x3c2220bd	0.009895501
195	0x3d338df0	0.043836534
196	0xbe017e57	-0.12645851
197	0x3d7213f0	0.059101045
198	0xbc61eecb	-0.013789843
199	0xbd7c51ee	-0.06160157
200	0xbdaf17c4	-0.08549455
201	0xbd96a53b	-0.07355734
202	0x3d86b831	0.065781005
203	0x3e4c0200	0.19922638
204	0x3d8572a3	0.06516006
205	0x3db91635	0.09037439
206	0xbd3a34f1	-0.045460645
207	0x3e4970d4	0.19671947
208	0x3e2158c3	0.15756516
209	0xbdf5ba72	-0.11998452
210	0x3d1867cf	0.037208375
211	0x3d39d033	0.04536457
212	0x3dd43e58	0.103634536
213	0x3dae7343	0.08518078
214	0x3e4db08f	0.20086883
215	0x3e467e6f	0.19384168
216	0xbca2d5a1	-0.019877257
217	0xbe15d891	-0.14633395
218	0x3d64632b	0.055758636
219	0x3cb4a6d9	0.022052215
220	0x3d3a48a8	0.045479447
221	0x3c9ade57	0.018904848
222	0x3e0c4d49	0.13701357
223	0xbcc65997	-0.024212642
224	0xbd8f5464	-0.06998518
225	0x3e43784c	0.19088858
226	0xbaf15d21	-0.0018414595
227	0xbd84557e	-0.06461619
228	0x3b44d881	0.0030036273
229	0x3e030bc0	0.12797451
230	0x3e19310e	0.14960119
231	0xbe032f41	-0.12810995
232	0xbd3c9c38	-0.04604742
233	0xbdf0d366	-0.11759071
234	0x3e573264	0.21015316
235	0xbe0541f7	-0.13013445
236	0xbc938272	-0.018006537
237	0x3e12b3f0	0.14326453
238	0x3e0abab0	0.13547778
239	0x3d29fea1	0.0415026
240	0xbd6705a8	-0.05640188
241	0x3df5b135	0.1199669
242	0x3e574420	0.21022081
243	0x3e1f1df4	0.1553877
244	0x3e11600f	0.141968
245	0x3d9d21eb	0.07672485
246	0xbd7dde7d	-0.06197976
247	0x3e33ac63	0.17546229
248	0xbd90f44c	-0.07077846
249	0x3cc890be	0.024483081
250	0xbddc502b	-0.10757478
251	0x3d6cd31b	0.057818513
252	0x3e0344db	0.12819235
253	0x3ce91ed7	0.028457088
254	0xbd770cce	-0.060314946
255	0x3dd390f3	0.10330381

fc1.bias f4 [64]
0	0x3dc9db80	0.098563194
1	0x3e0cbedf	0.13744687
2	0x3d46a17f	0.04849386
3	0xbdcfeb62	-0.101523176
4	0x3d38e790	0.04514271
5	0x3dbfea86	0.09370904
6	0x3d74d0ce	0.059769444
7	0xbdf4905b	-0.11941596
8	0xbd13139a	-0.035907365
9	0x3d1a62c5	0.03769185
10	0x3e3cf040	0.18451023
11	0xbd1eb8e7	-0.038750555
12	0x3e025389	0.12727179
13	0x3e136f48	0.14397919
14	0xbdad0411	-0.08448041
15	0xbd714e5f	-0.05891263
16	0xbd4f1771	-0.050559465
17	0xbddf39f1	-0.10899723
18	0x3e0e77dc	0.1391291
19	0xbdffcaac	-0.124898285
20	0x3e43be2e	0.19115517
21	0xbcb43e22	-0.022002283
22	0xbd656b60	-0.056010604
23	0x3deff3b7	0.11716407
24	0xbd8ac0cd	-0.06775055
25	0x3bc479d0	0.0059959665
26	0xbdc0b0f0	-0.09408748
27	0xbca40f6e	-0.020026889
28	0x3d9aeef8	0.07565111
29	0xbca3bd24	-0.01998765
30	0x3e4cd3af	0.20002626
31	0x3bf9f894	0.00762851
32	0xbdd2ac81	-0.10286809
33	0x3e301aaf	0.17197679
34	0xbe06d3d0	-0.13166738
35	0x3dc8c23c	0.09802672
36	0x3e277f3b	0.16357128
37	0x3c56ba57	0.01310595
38	0xbabbea81	-0.0014336855
39	0x3e169313	0.14704542
40	0xbc892447	-0.016740931
41	0xbd9b31f5	-0.07577888
42	0x3d913f4a	0.070921496
43	0xbc2bdae3	-0.010489198
44	0xb8f0a500	-0.000114748254
45	0xbd3390c0	-0.043839216
46	0xbd7d8c25	-0.06190123
47	0x3dc9f031	0.09860266
48	0x3d226873	0.03965039
49	0x3d4db34d	0.050219823
50	0x3d4f3812	0.050590582
51	0x3d940230	0.0722698
52	0x3e0e6079	0.13903989
53	0x3e1100a4	0.141604
54	0x3d041c75	0.0322537
55	0xbe2930ce	-0.16522524
56	0x3dc7c59c	0.09754488
57	0x3e2b7d73	0.16747074
58	0x3c3d1466	0.011540508
59	0x3ddb56da	0.10709925
60	0x3e0cc9ea	0.13748899
61	0xbddf3ca6	-0.1090024
62	0xbdf10d53	-0.117701195
63	0x3d6b8357	0.057498302

fc2.weight f4 [64, 64]
0	0x3cb8582e	0.022502985
1	0xbda3a835	-0.07991067
2	0xbce66a54	-0.028126873
3	0x3c31ec4c	0.01085956
4	0xbda009f6	-0.078144
5	0xbd75526f	-0.059893068
6	0xbd3f5ad4	-0.04671748
7	0xbda536b2	-0.08067073
8	0xbd5c36c0	-0.05376315
9	0x3c5ec221	0.013596089
10	0xbbcc0c2c	-0.006227037
11	0x3d5e1321	0.05421746
12	0x3d81b395	0.06333081
13	0x3cd41a22	0.025891367
14	0x3d1844b0	0.03717488
15	0x3d94c173	0.0726346
16	0xbd90b61d	-0.07065985
17	0x3c83cfe6	0.016090345
18	0x3d88ca9c	0.0667927
19	0x3d62d346	0.055377267
20	0x3d51d47b	0.051228028
21	0xbd93fa21	-0.07225443
22	0xbd3c2b08	-0.045939475
23	0x3daad533	0.08341446
24	0xbdb27354	-0.08713403
25	0xbd74b3d8	-0.059741825
26	0x3d8fe204	0.07025531
27	0xbc9b2791	-0.018939765
28	0xbd6fa93a	-0.058510996
29	0x3d9785b8	0.07398552
30	0x3c241dbc	0.010016855
31	0xbdad8a7d	-0.0847368
32	0xbd566d32	-0.05235023
33	0xbd6e9b69	-0.05825368
34	0xbcf068f9	-0.02934693
35	0xbce70d09	-0.028204458
36	0x3cae4b4b	0.021276137
37	0xbda8aa32	-0.08235587
38	0xbd4dd2fe	-0.050250046
39	0xbdb91d2e	-0.09038769
40	0xbdb53be6	-0.08849315
41	0xbdf41a41	-0.1191907
42	0xbb9734b2	-0.004614436
43	0xbd7d3569	-0.061818514
44	0xbd84366f	-0.06455695
45	0xbda943e0	-0.08264899
46	0xbd315efe	-0.043303482
47	0xbd3f5f14	-0.046721533
48	0xbc0070ec	-0.007839423
49	0xbdf1a836	-0.11799662
50	0x3ccb92e9	0.024850326
51	0x3d795ae3	0.060877692
52	0x3b8d2ad5	0.0043080845
53	0x3db9d81c	0.09074423
54	0xbc331afd	-0.0109317275
55	0xbd961103	-0.073274635
56	0xbd638321	-0.055544976
57	0xbbcadbe5	-0.0061907643
58	0x3e0e90af	0.1392238
59	0xbde86f87	-0.11349397
60	0x3ac2a89b	0.0014851274
61	0x3d3d2459	0.046177242
62	0x3db2f6e9	0.087385006
63	0x3c6e75ad	0.014554423
64	0x3d8ac77b	0.06776329
65	0xbd57a319	-0.052645776
66	0xbd38bbfc	-0.04510115
67	0x3cdfb9d6	0.027310293
68	0xbd5b0ad1	-0.053477112
69	0x3db43754	0.087996155
70	0x3d13e68d	0.036108542
71	0xbc0a3e76	-0.008437743
72	0x3c41b7da	0.011823619
73	0xbd8486d5	-0.0647103
74	0xbbf1df26	-0.0073813377
75	0xbc060f94	-0.008182425
76	0xbd12c7b7	-0.035834994
77	0x3dc36ca7	0.09542208
78	0xbe323b27	-0.17405377
79	0xbd8a4061	-0.067505606
80	0x3dc6c62b	0.09705766
81	0x3d661ad5	0.056177933
82	0x3d6f7a4e	0.05846625
83	0x3d1a933a	0.037738062
84	0x3d12f3b4	0.035876945
85	0x3dc6e1b0	0.09711015
86	0x3cbab326	0.022790503
87	0x3d7444b4	0.059635833
88	0xbd89eb9a	-0.067343906
89	0x3d0ca53c	0.034337267
90	0x3d76ae16	0.060224615
91	0xbd5494c4	-0.051899686
92	0x3e0fb2bb	0.14033024
93	0x3dca4faa	0.09878476
94	0x3d97f101	0.07419015
95	0xbd0c0deb	-0.03419296
96	0xbd55d7d2	-0.052207775
97	0x3d111e15	0.03542908
98	0x3d9a7a23	0.07542827
99	0x3e08544b	0.13313405
100	0x3e00f8a8	0.12594855
101	0x3d9fd6af	0.078046195
102	0xbcc6e05c	-0.024276905
103	0x3dd9b5c8	0.10630375
104	0x3de23aad	0.11046348
105	0x3e2d537e	0.16926381
106	0x3d90e982	0.07075788
107	0xbc277a38	-0.01022201
108	0xbe20d9fb	-0.15708153
109	0x3e2936ad	0.16524763
110	0xbd8c386b	-0.068466984
111	0xbd9c63c0	-0.07636213
112	0x3de8e355	0.11371485
113	0xbd102479	-0.035191033
114	0x3d5a3f4b	0.053283017
115	0x3d9c8e90	0.07644379
116	0xbb6c960b	-0.0036100175
117	0x3db9f319	0.0907957
118	0x3d606c38	0.054790705
119	0xbde4a847	-0.11164909
120	0xbde8aaae	-0.113606796
121	0xbd98a267	-0.07452851
122	0x3d8f8a11	0.07008756
123	0x3dfc8131	0.12329329
124	0xbd78326f	-0.060594972
125	0x3d57b020	0.0526582
126	0x3d49e8d0	0.049294293
127	0xbddb7a1b	-0.10716649
128	0xbdb994b8	-0.09061569
129	0x3b39ca55	0.002834936
130	0xbdd3dd4b	-0.10344943
131	0x3d64f72d	0.055899788
132	0x3d27375c	0.04082428
133	0xbd8e3e78	-0.06945509
134	0xbdfcb270	-0.12338722
135	0xbd33133f	-0.043719526
136	0xbdc639a3	-0.09678962
137	0xbc5e1b3b	-0.013556297
138	0xbc38125b	-0.011234845
139	0xbe04e977	-0.12979685
140	0xbcbea748	-0.023273125
141	0x3d3a3a86	0.04546597
142	0xbdbdd4c9	-0.09269101
143	0x3d838eac	0.06423697
144	0xbd1340d9	-0.035950515
145	0x3bbcbe97	0.005760025
146	0xbd9aba6a	-0.07555087
147	0x3da7f900	0.0820179
148	0xbccaccb6	-0.024755817
149	0x3d851510	0.06498158
150	0xbcb1c85b	-0.021701982
151	0xbdcfcd07	-0.10146528
152	0x3d96c0c3	0.07360985
153	0xbdbb6ac6	-0.09151225
154	0xbdff530e	-0.12467013
155	0x3d139240	0.036028147
156	0xbe0ece0e	-0.13945791
157	0x3d60884c	0.054817483
158	0x3ba668ee	0.0050784266
159	0x3d3666c3	0.044531595
160	0x3da44e1f	0.08022713
161	0x3d95f5f5	0.07322303
162	0x3dd6e64a	0.10493143
163	0xbc8740f7	-0.01651047
164	0x3dba948b	0.091103636
165	0x3dac772b	0.08421167
166	0x3df7dd40	0.12102747
167	0x3a9fbe7f	0.001218751
168	0x3dc10e54	0.09426561
169	0x3df84768	0.12122995
170	0xbb7bbabe	-0.0038410868
171	0xbde9c511	-0.114145406
172	0x3a71d630	0.0009225337
173	0xbd82367c	-0.06358048
174	0x3dca8100	0.09887886
175	0xbe0bc990	-0.13651109
176	0xbda88b6a	-0.08229716
177	0x3d184196	0.037171923
178	0xbd4b92f6	-0.0497007
179	0xbccaa710	-0.024737865
180	0xbd019793	-0.031638693
181	0x3c94c385	0.018159637
182	0xbd60314f	-0.054734524
183	0xbd13a97f	-0.036050316
184	0xbd9f8aee	-0.077901706
185	0xbdc37908	-0.09544569
186	0xbc3e11e8	-0.011600949
187	0x3d6f812a	0.05847279
188	0xbde6b928	-0.112657845
189	0xbdc52592	-0.096263066
190	0xbdf84e83	-0.1212435
191	0x3d80e59e	0.06293796
192	0xbd7d9100	-0.06190586
193	0x3dab4305	0.08362392
194	0xbd962618	-0.073314846
195	0x3dcefa34	0.10106316
196	0x3dc6e848	0.09712273
197	0x3c9574bd	0.018244142
198	0xbda6aa70	-0.08137977
199	0x3c017e46	0.007903641
200	0x3c3a3aaf	0.01136653
201	0xbdd17a3a	-0.10228391
202	0x3c73cd7b	0.014880533
203	0x3d2c9835	0.042137343
204	0x3dc11933	0.094286345
205	0x3db4f55d	0.08835862
206	0x3bc431e5	0.005987393
207	0x3dd3bf98	0.10339278
208	0x3dd10eff	0.102079384
209	0x3c9810eb	0.018562755
210	0xbdc61796	-0.096724674
211	0x3d3b77b9	0.045768473
212	0x3c0ec32a	0.008713523
213	0xbdd34bf8	-0.10317224
214	0x3da68ec4	0.08132699
215	0x3dae2592	0.0850326
216	0x3c8ad6c0	0.016948104
217	0x3c95bda6	0.018278908
218	0x3d8bb97f	0.0682249
219	0xbd5ba19a	-0.053620912
220	0xbd8ca101	-0.068666466
221	0xbd9486a7	-0.072522454
222	0xbdde1211	-0.1084329
223	0xbd020108	-0.031739265
224	0xbda31c26	-0.07964353
225	0xbcf04bf2	-0.029333089
226	0x3d9f207a	0.07769866
227	0x3db95f8c	0.09051427
228	0xbdc534f9	-0.09629244
229	0xbdcfa460	-0.10138774
230	0xbd3ff872	-0.046867795
231	0x3db45ee2	0.0880716
232	0xbbfae732	-0.007656955
233	0xbd8bcd2a	-0.06826241
234	0xbc04ea1f	-0.008112459
235	0x3d2b66ba	0.041846015
236	0x3d958570	0.07300842
237	0xbdee0ec9	-0.11623914
238	0xbcfa6dfd	-0.030570025
239	0xbdd139ba	-0.102160886
240	0x3d622bea	0.05521766
241	0xbd819e08	-0.0632897
242	0x3d847ef7	0.06469529
243	0x3cb50ee1	0.022101821
244	0xbd9f43af	-0.077765815
245	0xbd3b1fb0	-0.045684516
246	0x3cf3d49c	0.029764466
247	0x3ce18e18	0.027533576
248	0xbc6b0f8c	-0.014346968
249	0x3dcd691e	0.10029815
250	0x3b59d707	0.0033239739
251	0x3d2516bb	0.04030488
252	0xbce79958	-0.028271362
253	0x3d353c40	0.044246912
254	0xbdec09df	-0.1152532
255	0x3d39f285	0.0453973

fc2.bias f4 [64]
0	0xbdf04df1	-0.11733616
1	0xbc642161	-0.013923974
2	0xbc54e9f0	-0.012995228
3	0xbe0bbfbf	-0.13647364
4	0xbca103ca	-0.019655127
5	0x3c93f9d7	0.018063469
6	0xbdfabfd8	-0.122436225
7	0x3de5383f	0.11192369
8	0xbda433db	-0.08017703
9	0x3d9b7fa5	0.07592706
10	0xbd294973	-0.041329812
11	0xbe087bf1	-0.1332853
12	0xbc4e6763	-0.0125978915
13	0xbdbff468	-0.09372789
14	0x3d8b8c94	0.068139225
15	0x3db5a0d2	0.08868565
16	0x3d58dede	0.052946918
17	0xbdb06694	-0.08613315
18	0xbc177b2e	-0.009245677
19	0x3d6b11bb	0.057389956
20	0x3dc09489	0.09403331
21	0x3dfa4f36	0.122221395
22	0x3dcfcdd7	0.10146683
23	0xbbedde4b	-0.0072591654
24	0xbd7fa069	-0.06240884
25	0x3bd7b0a7	0.006582338
26	0x3d4424dd	0.047886718
27	0x3da803c1	0.08203841
28	0xbc83942c	-0.016061865
29	0xbd944e55	-0.07241503
30	0x3d617bb9	0.05504963
31	0x3dc5e670	0.09663093
32	0xbd278191	-0.04089505
33	0xbde29f1b	-0.11065503
34	0xbd9268cb	-0.07148894
35	0x3dc0962c	0.09403643
36	0x3d00299a	0.031289674
37	0xbba2c4f7	-0.0049673277
38	0xbddef9b2	-0.10887469
39	0xbcad075e	-0.021121677
40	0xbcad6633	-0.021166896
41	0xbdd97edd	-0.106199004
42	0x3d07cb5e	0.03315293
43	0xbc48d4cd	-0.012257767
44	0x3c0f254c	0.00873692
45	0xbcc037da	-0.023464132
46	0xbdba5d6d	-0.09099851
47	0x3d1e020b	0.038576167
48	0x3b35fe19	0.0027769862
49	0xbdf64f50	-0.120268464
50	0xbd087b7a	-0.03332088
51	0x3e0edb42	0.13950828
52	0xbc483e1c	-0.012221839
53	0x3da859b7	0.08220237
54	0x3df1cec0	0.118070126
55	0x3de7e3fd	0.11322782
56	0xbe0d32e3	-0.13788943
57	0x3dc55490	0.0963527
58	0x3d8d1070	0.06887901
59	0xbda3209e	-0.079652056
60	0x3e1eb64b	0.15499227
61	0xbcfe78b6	-0.031063419
62	0xbdcce945	-0.1000543
63	0xbd50c1b8	-0.050965995

fc3.weight f4 [8, 64]
0	0x3c10aeaa	0.008830706
1	0xbd419fb6	-0.047271453
2	0xbcc0ed38	-0.023550615
3	0x3d0949dc	0.033517703
4	0x3e167fc3	0.14697175
5	0x3db39382	0.08768369
6	0xbda960db	-0.08270427
7	0x3da83448	0.08213097
8	0xbddd03bf	-0.1079173
9	0x3d1bbfb7	0.03802463
10	0x3decab49	0.115561076
11	0xbd7158c6	-0.05892255
12	0x3c91310e	0.017723586
13	0x3e1cc91e	0.15311095
14	0xbddd769b	-0.10813638
15	0x3c1563cc	0.009118032
16	0xbdd92e22	-0.10604502
17	0x3d248674	0.040167287
18	0xbd195abc	-0.037440047
19	0xbcdcc15b	-0.026947668
20	0x3d1d757d	0.038442124
21	0xbda2e51b	-0.07953855
22	0x3dd44652	0.10364975
23	0xbd8759e3	-0.066089414
24	0x3cc2ac90	0.023763925
25	0x3c85b30c	0.016320728
26	0xbb2f2f30	-0.0026731007
27	0xbd2f9497	-0.042866316
28	0x3d7cac88	0.061687976
29	0x3d26c543	0.040715467
30	0xbd815347	-0.06314712
31	0xbcf49dbd	-0.029860372
32	0xbc945af0	-0.018109769
33	0x3dc7029d	0.09717295
34	0x3d2a0d4b	0.041516583
35	0x3ddb1453	0.10697236
36	0x3d1a6939	0.037698004
37	0xbd46b580	-0.048512936
38	0xbdc75603	-0.09733202
39	0x3df1ac5b	0.11800452
40	0xbd934a91	-0.07191957
41	0xbd94e389	-0.072699614
42	0x3bdd9113	0.006761679
43	0xbd142fa9	-0.036178265
44	0x3d989f55	0.07452265
45	0xbe2a6c43	-0.16642861
46	0x3dd0da3d	0.10197876
47	0x3d7517a5	0.059837002
48	0x3d726f24	0.059188023
49	0xbda5ac81	-0.08089543
50	0x3e2018cc	0.1563446
51	0xbd2eb369	-0.042651568
52	0x3e1d8fc9	0.15386881
53	0x3e241677	0.16024195
54	0xbb599504	-0.0033200392
55	0x3e1817be	0.14852807
56	0xbc88b852	-0.016689453
57	0x3dda122b	0.106479965
58	0x3dc5cfc2	0.09658767
59	0x3dbeebef	0.093223445
60	0xbd9a8664	-0.07545164
61	0x3e0655a7	0.13118611
62	0xbda627bd	-0.08113048
63	0x3d06b265	0.032884974
64	0xbda071d6	-0.078342125
65	0xbcbcd82e	-0.023052301
66	0xbd0c07ec	-0.034187242
67	0xbcca885f	-0.02472323
68	0x3db4ff43	0.0883775
69	0x3d0a60ca	0.03378371
70	0x3dd95276	0.10611431
71	0xbd2cbda0	-0.042173028
72	0x3e0fd059	0.14044322
73	0x3d74a2cd	0.05972557
74	0xbd4192f1	-0.047259275
75	0x3de576ce	0.11204301
76	0xbda72409	-0.0816117
77	0x3d12c2cf	0.035830315
78	0xbd9e3ce3	-0.07726457
79	0xbd1ee393	-0.03879125
80	0xbd9e9ac9	-0.07744367
81	0xbd401431	-0.046894256
82	0x3e0a0960	0.13480139
83	0x3d5dad03	0.054120075
84	0x3d68b984	0.056817546
85	0x3db40e25	0.0879176
86	0x3e2c2bf8	0.16813648
87	0x3d845437	0.06461375
88	0x3c950633	0.018191433
89	0x3aaf5947	0.0013378047
90	0x3e04ebe7	0.12980615
91	0xbca0e3ea	-0.019639928
92	0xbcb9464f	-0.022616534
93	0xbbee2117	-0.007267128
94	0xbb75e2e3	-0.0037519268
95	0x3d68e928	0.05686298
96	0x3d160816	0.036628805
97	0xbdcc3d39	-0.09972615
98	0x3dcbcdd0	0.09951365
99	0xbda5ce76	-0.0809602
100	0xbcb7f7a9	-0.02245696
101	0x3daeb19b	0.08529969
102	0xbcf0887a	-0.029361952
103	0x3d266f8c	0.040633723
104	0xbb5ec1da	-0.0033990056
105	0x3ca761d3	0.020432388
106	0xbdc1050c	-0.09424791
107	0xbd72a0e9	-0.059235487
108	0xbd0e89a9	-0.03479925
109	0x3cd94061	0.026519956
110	0x3dab6b2e	0.08370052
111	0xbd6c4b96	-0.057689272
112	0x3e08865e	0.13332507
113	0xbd5bfa69	-0.053705607
114	0x3d8219a9	0.063525505
115	0xbdd0f4d0	-0.10202944
116	0x3e067328	0.13129866
117	0x3d809d57	0.0628001
118	0x3dd32861	0.10310436
119	0xbd80ce59	-0.06289358
120	0xbd03f12e	-0.03221243
121	0xbd9f54d5	-0.07779852
122	0x3da4bd00	0.080438614
123	0x3df124b2	0.11774577
124	0xbdd47e93	-0.103757046
125	0x3e207509	0.15669645
126	0x3daa63b9	0.08319802
127	0x3cf45012	0.029823337
128	0x3d376574	0.044774488
129	0x3d89727e	0.06711291
130	0xbcc70868	-0.024296
131	0xbdc47a3b	-0.09593626
132	0xba95ab70	-0.001141889
133	0x3e0d2aee	0.13785908
134	0x3c8bf4e2	0.017084543
135	0x3e06ea3f	0.13175295
136	0xbdcd84a0	-0.10035062
137	0x3d6167f4	0.055030778
138	0xbd58627b	-0.052828293
139	0xbc8b2179	-0.016983734
140	0x3d75cf6c	0.060012266
141	0xbd8147b5	-0.06312505
142	0x3d29fc70	0.04150051
143	0xbb23fcea	-0.0025022575
144	0xbd996671	-0.07490242
145	0x3dcd2630	0.10017049
146	0x3e00c1d9	0.12573947
147	0xbdc75569	-0.097330876
148	0x3b535086	0.003224404
149	0x3e228eda	0.15874806
150	0xbd138d66	-0.03602352
151	0x3d330821	0.043708924
152	0x3d69d9e0	0.057092547
153	0xbdd4f40a	-0.10398109
154	0x3c5b2819	0.013376259
155	0xbd22fd86	-0.03979256
156	0x3cb872c2	0.022515658
157	0x3d51c1b3	0.051210117
158	0x3da06f9d	0.078337885
159	0x3e200b0a	0.15629211
160	0x3dc0bbdb	0.094108306
161	0xbda5b67c	-0.08091447
162	0xbd5a04c1	-0.05322719
163	0x3dd269ed	0.1027411
164	0xbd8ec475	-0.06971065
165	0x3cc0943b	0.023508182
166	0xbd8bfe91	-0.06835664
167	0x3e1d0b5f	0.15336369
168	0xbdc4e190	-0.09613335
169	0xbc932d2a	-0.017965872
170	0xbd5e76d7	-0.054312553
171	0xbd282be0	-0.041057467
172	0x3e0322c8	0.12806237
173	0xbd9025d3	-0.070384644
174	0xbd6e1645	-0.058126707
175	0x3d9dc9f1	0.07704533
176	0x3debad91	0.115077145
177	0x3b5635d1	0.0032685886
178	0x3df65809	0.1202851
179	0xbd6541d7	-0.055970993
180	0x3e01310f	0.1261637
181	0x3e16b134	0.14716035
182	0xbd153273	-0.036425065
183	0xbda0b298	-0.07846564
184	0xbd608dcf	-0.05482274
185	0xbbbbcba1	-0.0057310616
186	0xbda3034c	-0.07959613
187	0x3d6b8e76	0.05750891
188	0xbe084e05	-0.13311012
189	0x3dc49919	0.095995136
190	0x3db2e86a	0.08735736
191	0x3d9e3c2d	0.07726321
192	0x3d97cc69	0.07412035
193	0x3dfd0db9	0.12356133
194	0x3e0da74e	0.13833353
195	0xbca6d8b5	-0.020367006
196	0xbd420e7c	-0.047377095
197	0x3d819dff	0.063289635
198	0xbc81f501	-0.015863897
199	0x3db34ba9	0.087546654
200	0xbd06ed31	-0.032941047
201	0x3c6a4ab6	0.014300039
202	0x3dd8064e	0.105480775
203	0x3da890cb	0.08230742
204	0xbdf76f5e	-0.120817885
205	0x3d01f1b2	0.03172464
206	0x3cd99d96	0.0265644
207	0x3e1c8510	0.15285134
208	0x3cb4077c	0.021976225
209	0x3d911483	0.070839904
210	0x3b82f043	0.0039959266
211	0xbddb60b7	-0.10711806
212	0x3ce7ccf4	0.028295971
213	0x3d496ef7	0.04917809
214	0x3c0dd910	0.008657709
215	0xbd3ba0af	-0.045807537
216	0x3c8f46a2	0.017489735
217	0xbcbd008a	-0.023071546
218	0x3def3d64	0.11681631
219	0x3de8d32c	0.11368403
220	0xbe1a6165	-0.15076216
221	0x3d185ef5	0.037199933
222	0x3caee406	0.021348964
223	0xbc16cd82	-0.00920427
224	0x3db753e2	0.08951546
225	0xbd933234	-0.0718731
226	0x3c9f0434	0.019411184
227	0x3da1c932	0.07899703
228	0x3c265f48	0.010154553
229	0xbda0bdda	-0.07848711
230	0x3dc82436	0.09772532
231	0x3da538ef	0.080675
232	0x3ddaa1f8	0.10675424
233	0x3de015b7	0.10941642
234	0xbd8f30c9	-0.06991727
235	0x3de4d6c0	0.11173773
236	0x3dd4f9a8	0.10399181
237	0xbca84237	-0.020539386
238	0x3da0b623	0.0784724
239	0x3cce6599	0.02519493
240	0x3ca706fd	0.020389074
241	0x3de8d868	0.11369401
242	0x3a39faf7	0.00070945866
243	0x3e03450a	0.12819305
244	0x3dc24055	0.094849266
245	0x3dade772	0.0849141
246	0xbafb702c	-0.001918321
247	0x3db32e87	0.08749109
248	0x3db13863	0.08653333
249	0x3ac8911d	0.0015302036
250	0x3d81f6a4	0.06345871
251	0x3de35e72	0.111019984
252	0xbd919020	-0.07107568
253	0xbd6cadff	-0.057783123
254	0x3ccab8d2	0.024746332
255	0x3d383ee5	0.044981856

fc3.bias f4 [8]
0	0xbd3d2e0c	-0.04618649
1	0xbcbad0d1	-0.02280465
2	0xbd05de23	-0.03268255
3	0x3dcb2afa	0.099203065
4	0x3e002802	0.12515262
5	0x3d6f0893	0.058357786
6	0x3ded54dd	0.11588452
7	0xbc6cb299	-0.014446878
