matchmaking_model.pth (torch, 29095 bytes, 6 tensors)

fc1.weight f4 [64, 31]
-0.061240993 0.15205035 -0.060006246 -0.07050367 0.17015089 0.13469106 -0.038923938 0.10770025
-0.014898628 0.1487715 -0.010966211 0.15830584 -0.07786718 0.20015672 -0.05036732 0.0021042712
0.024835516 -0.12071953 0.2001667 -0.066633 0.014107135 0.111914255 -0.105097696 0.17980382
-0.13175064 -0.07635262 -0.03361392 0.04295262 0.16890344 0.10022742 0.18601675 -0.039830104
0.07607525 0.11639743 -0.031152703 -0.03278834 -0.07842397 0.14021559 0.06319523 0.088155
0.056749955 -0.06814358 0.046813615 0.12475997 0.18264116 -0.122004345 0.0050947894 -0.021824896
-0.03408333 -0.07050301 -0.0012306095 0.08819341 -0.04687625 -0.123465806 -0.16841176 -0.117746174
0.10404866 0.089389645 0.120168895 0.109087564 -0.01252708 -0.16300195 -0.15467739 -0.08506879
0.022666855 0.026546154 0.030479675 0.030428795 0.16692275 -0.052740686 0.02392062 -0.005762864
-0.13389471 -0.1516232 -0.099356346 -0.12109139 -0.08107891 -0.06798789 -0.025461493 0.16574563
-0.014860449 0.107686825 0.1843554 0.08702134 -0.07753627 0.10768802 0.18302216 -0.123392455
-0.01963474 0.17943585 0.16482252 0.017293062 -0.049832426 0.13959415 0.09618931 0.06672387
0.09239383 -0.0033978224 -0.05284128 0.04257737 0.13285561 -0.023717236 0.16872628 -0.051033758
-0.068283014 -0.051460277 0.15035166 -0.09733821 0.020448795 -0.07615735 0.15853512 -0.10888832
0.023472348 0.041369162 0.20784794 0.059224024 -0.07145318 -0.048392173 -0.0026872975 -0.044085395
0.1295036 0.10507831 -0.03863992 -0.05670805 -0.10817627 -0.004194295 0.14848141 0.07896126
-0.17332047 -0.06249876 -0.046225734 0.12172736 0.049917955 -0.16678035 -0.0325149 0.034048583
-0.12500815 -0.006627609 0.15461709 0.1360236 0.0030834256 0.09819486 -0.03309849 0.07415908
0.12949821 -0.10641062 0.11906742 0.0042156507 -0.1346684 -0.18198447 -0.07587517 0.12853421
-0.060960125 0.12129753 0.010527411 -0.050883483 0.00323321 -0.09785075 0.07379131 0.20251031
-0.037807867 0.06047628 -0.098075874 0.15306087 -0.030259045 -0.08426732 0.06270909 0.07103621
0.007713711 0.15751442 -0.04696622 0.0144328475 -0.03245111 -0.08145946 -0.024219597 0.030139474
-0.07407123 -0.052532997 0.09222826 0.12966362 0.18530053 -0.07351886 0.19858316 0.18312961
-0.006627675 0.029567776 -0.12989444 -0.18383002 -0.16229717 -0.090168215 -0.18465649 0.1515934
-0.0111462055 0.027763445 0.11666957 0.06851651 0.03090272 -0.11794623 -0.029219147 -0.04568624
0.12260582 -0.027821314 -0.03448356 -0.1175577 0.017125564 -0.016266897 -0.07160349 -0.16543743
-0.16992308 0.11576916 0.116382174 0.101470485 -0.12988897 -0.1723309 0.08350987 0.050889406
-0.026113857 0.050741196 0.11109225 -0.12748381 0.16397445 -0.06888554 0.11195932 0.16644646
-0.034821704 -0.12727475 0.066929944 0.061307162 0.051645577 -0.01784625 -0.0956721 -0.021068474
0.09975604 0.14179716 0.03460714 0.152368 -0.019304719 0.1286954 0.13158664 0.14468756
0.21561252 -0.07249957 0.024105825 0.18668716 0.15885492 -0.0153859155 -0.009390084 0.02732382
-0.06580822 -0.10798154 0.12679887 -0.124656275 0.005820633 0.11944918 0.05963418 -0.1276767
00000000: d6d7 7abd 16b3 1b3e 1cc9 75bd 3a64 90bd
00000010: 093c 2e3e 74ec 093e b56e 1fbd f391 dc3d
00000020: 6019 74bc 8e57 183e 9fab 33bc ed1a 223e
00000030: d478 9fbd e2f5 4c3e f74d 4ebd d0e7 093b
00000040: da73 cb3c cd3b f7bd 80f8 4c3e e276 88bd
00000050: 9d21 673c 4d33 e53d 763d d7bd 7e1e 383e
00000060: a4e9 06be c35e 9cbd c0ae 09bd 16ef 2f3d
00000070: 06f5 2c3e 0944 cd3d 2d7b 3e3e e424 23bd
00000080: 57cd 9b3d c761 ee3d f433 ffbc 114d 06bd
00000090: bf9c a0bd ad94 0f3e 806c 813d 9c8a b43d
000000a0: a472 683d dc8e 8bbd a2bf 3f3d 2882 ff3d
000000b0: 4906 3b3e 6add f9bd 31f2 a63b 20ca b2bc
000000c0: f69a 0bbd e263 90bd 674c a1ba bf9e b43d
000000d0: 5001 40bd a4db fcbd 2274 2cbe e824 f1bd
000000e0: 7717 d53d eb11 b73d 1c1b f63d 4d69 df3d
000000f0: 623e 4dbc fce9 26be c063 1ebe 8c38 aebd
00000100: d7af b93c 5277 d93c 83b0 f93c cf45 f93c
00000110: cced 2a3e 9e06 58bd 2df5 c33c 68d6 bcbb
00000120: b21b 09be 1d43 1bbe 577b cbbd c3fe f7bd
00000130: b30c a6bd 3c3d 8bbd 9f94 d0bc 39b9 293e
00000140: 3e79 73bc e98a dc3d a9c7 3c3e 3f38 b23d
00000150: 56cb 9ebd 898b dc3d 296a 3b3e 2fb5 fcbd
00000160: 09d9 a0bc 08be 373e 3cc7 283e 2eaa 8d3c
00000170: 161d 4cbd c5f1 0e3e e7fe c43d 86a6 883d
00000180: fa38 bd3d 00ae 5ebb 1970 58bd 9c65 2e3d
00000190: 4d0b 083e a64a c2bc 95c6 2c3e c608 51bd
000001a0: f7d7 8bbd 03c8 52bd c9f5 193e 4159 c7bd
000001b0: 3b84 a73c 62f8 9bbd 0857 223e d700 dfbd
000001c0: 1549 c03c b672 293d 17d6 543e e494 723d
000001d0: 0b56 92bd df36 46bd 5f1d 30bb e392 34bd
000001e0: 979c 043e 4c33 d73d e544 1ebd b346 68bd
000001f0: 858b ddbd 4c70 89bb 830b 183e 71b6 a13d
00000200: ec7a 31be b3fe 7fbd 3257 3dbd 324c f93d
00000210: c576 4c3d 78c8 2abe 582e 05bd 8776 0b3d
00000220: 2302 00be 6a2c d9bb f153 1e3e c549 0b3e
00000230: 4c13 4a3b 631a c93d 4892 07bd b7e0 973d
00000240: 2e9b 043e d0ed d9bd 9fd9 f33d 7123 8a3b
00000250: 83e6 09be 235a 3abe 7164 9bbd 799e 033e
00000260: 53b1 79bd d76a f83d 297b 2c3c 336b 50bd
00000270: 43e4 533b f965 c8bd e61f 973d dd5e 4f3e
00000280: 6cdc 1abd fab5 773d 01dc c8bd fdbb 1c3e
00000290: d1e1 f7bc 5894 acbd a06d 803d 6f7b 913d
000002a0: 4cc3 fc3b 764b 213e a75f 40bd c077 6c3c
000002b0: 75eb 04bd 38d4 a6bd 2d68 c6bc 0fe7 f63c
000002c0: a8b2 97bd d72c 57bd 2ce2 bc3d 8ac6 043e
000002d0: 6cbf 3d3e 0e91 96bd 6259 4b3e 5486 3b3e
000002e0: f82c d9bb 1f38 f23c 0c03 05be f03d 3cbe
000002f0: 3b31 26be 1daa b8bd 9716 3dbe 4d3b 1b3e
00000300: 939e 36bc 2a70 e33c 75f0 ee3d 6252 8c3d
00000310: b327 fd3c cb8d f1bd fe5c efbc 7f21 3bbd
00000320: c318 fb3d 86e9 e3bc a23e 0dbd 17c2 f0bd
00000330: e94a 8c3c 2842 85bc daa4 92bd 6e68 29be
00000340: 5100 2ebe 6218 ed3d c759 ee3d c2cf cf3d
00000350: 9d01 05be 8377 30be 3907 ab3d 6971 503d
00000360: baec d5bc 00d6 4f3d 5584 e33d 1e8b 02be
00000370: ebe8 273e dd13 8dbd ee4a e53d f170 2a3e
00000380: 34a1 0ebd 5054 02be 9112 893d 381d 7b3d
00000390: 508a 533d 4d32 92bc bcef c3bd cb97 acbc
000003a0: e54c cc3d 4633 113e 37c0 0d3d 5b06 1c3e
000003b0: ee24 9ebc bac8 033e a6be 063e fa28 143e
000003c0: 87c9 5c3e a87a 94bd 9479 c53c eb2a 3f3e
000003d0: ddaa 223e 3515 7cbc ded8 19bc 34d6 df3c
000003e0: 76c6 86bd 6d25 ddbd 90d7 013e ca4b ffbd
000003f0: 02bb be3b c6a1 f43d f842 743d aebd 02be

fc1.bias f4 [64]
0.19556667 0.115251794 0.15215868 -0.06925934 -0.027674781 0.07503586 0.018817244 0.017502345
0.03542801 0.062125117 0.0614119 0.01737208 0.17710105 0.06719693 -0.19196194 -0.06639315
-0.040174626 0.07858937 -0.0136115365 0.048680164 0.07816728 0.09736158 0.0016464198 0.14775418
0.024667425 0.034246214 -0.07869277 -0.01816944 0.14129111 0.19893245 0.05850248 0.02876603
0.0054493053 0.056711636 -0.008229148 0.13298814 0.13268188 -0.02095478 0.123868875 0.013749559
0.122104 -0.10765871 -0.00911168 0.042331688 -0.010306833 -0.11273651 0.10335621 -0.045509662
-0.08563448 -0.011614047 0.15928699 0.032348577 0.042945687 0.064307824 0.14976206 0.12781103
0.14634882 -0.066133186 -0.10942819 0.15909855 -0.1450781 0.04026093 0.206591 0.1866146
00000000: a142 483e 2209 ec3d 7ccf 1b3e d7d7 8dbd
00000010: 39b6 e2bc 67ac 993d 9f26 9a3c 1461 8f3c
00000020: f61c 113d e876 7e3d 0b8b 7b3d e44f 8e3c
00000030: fa59 353e 8b9e 893d ac91 44be 22f9 87bd
00000040: 268e 24bd 77f3 a03d ec02 5fbc da64 473d
00000050: 2b16 a03d 8265 c73d aecc d73a df4c 173e
00000060: 5713 ca3c c245 0c3d ad29 a1bd 14d8 94bc
00000070: 9eae 103e f3b4 4b3e 4ca0 6f3d bda6 eb3c
00000080: 1690 b23b 764a 683d 8cd3 06bc 0b2e 083e
00000090: c2dd 073e 5ca9 abbc f7ae fd3d d545 613c
000000a0: a911 fa3d 2b7c dcbd 2849 15bc fe63 2d3d
000000b0: fedd 28bc 66e2 e6bd 6cac d33d 5768 3abd
000000c0: 2161 afbd d848 3ebc 211c 233e f17f 043d
000000d0: d1e7 2f3d d2b3 833d 3a5b 193e e5e0 023e
000000e0: 77dc 153e d670 87bd e31b e0bd bbea 223e
000000f0: 5a8f 14be a5e8 243d 978c 533e e617 3f3e

fc2.weight f4 [64, 64]
0.054776594 0.1565306 0.12291268 0.104810625 0.0830541 0.008705227 0.0046827164 -0.035407186
-0.13239922 0.09569813 0.1313856 0.045294125 -0.036851246 0.09852375 0.036174413 -0.12126102
-0.121723 -0.04403157 -0.12464852 -0.096881695 0.08756654 0.09858095 0.121054456 -0.112426564
0.036030956 -0.06997057 0.035379488 0.020913007 -0.11057146 -0.009433837 -0.119208135 0.024880903
0.15160942 0.043352712 0.08542368 0.017040493 -0.05322211 -0.032973707 0.008074241 0.08786263
0.062450323 -0.14895374 0.0130712595 -0.082291394 0.058179323 0.073300175 -0.008864394 -0.025745383
0.0773899 0.0074362373 -0.002692492 -0.12678838 0.11347046 0.019852629 0.09483555 -0.07487455
0.05334093 -0.12820145 0.029751102 -0.114054285 0.094013 -0.036988195 -0.14086954 -0.027409105
-0.034571916 0.024896761 -0.12427028 -0.0049233134 -0.069552064 -0.041435607 0.017095296 0.11150823
0.077035 0.041855156 0.0047438084 -0.098868206 0.027976293 0.09289867 -0.11572612 0.090411246
0.10829777 0.059386373 0.023256999 -0.08277499 -0.07008798 0.069883466 0.0135669205 -0.060729686
-0.06392245 -0.047063097 -0.11654846 0.0071191126 0.018936284 0.016258985 -0.0494461 -0.02967698
-0.11699917 -0.027440455 -0.027706996 0.13405432 -0.015464543 -0.021565981 0.1513457 -0.014846192
0.042505745 0.08917576 0.022536207 0.002386895 0.047304757 -0.025018984 0.013337378 0.08827134
-0.16492076 0.14783822 0.06150445 -0.07183915 -0.012456004 -2.3891567e-05 -0.04281168 -0.037051328
0.13451976 -0.099001534 -0.035371225 0.15709281 0.06454374 0.15901163 0.00878161 -0.121106155
-0.053300295 -0.04215369 -0.030710518 0.10205509 0.029375449 -0.06683108 0.049282942 0.090856746
-0.035338372 0.05576561 -0.045919918 0.104561925 0.05886647 0.07350252 -0.024928503 0.042555675
0.103325054 0.14984295 -0.065914236 -0.013277543 0.11835127 -0.120645836 -0.032769747 0.061457165
0.04607224 0.008109643 0.12472702 0.094568625 0.009616357 -0.044945616 -0.057325475 -0.000885403
0.13224573 0.060868166 0.062694274 -0.039031368 0.028007211 -0.08283949 0.030245474 0.16947874
0.14189772 -0.11035287 0.15786988 0.11561684 0.13001959 -0.07818675 -0.0015488638 0.07361313
-0.061354954 0.088205576 -0.03961054 -0.004338225 -0.04404713 -0.066782266 0.13933133 0.13583586
0.07445201 -0.10595619 -0.027713612 -0.0566404 0.005550872 0.121999264 -0.010941104 0.036804203
-0.11144925 0.05255367 0.036195345 -0.0810706 -0.12175667 0.036455575 0.017774068 -0.017394623
-0.11469442 0.032084014 -0.022889748 0.053102497 -0.05512449 0.030131826 0.11187886 0.025937486
0.025367875 0.06496251 0.019126868 -0.008882661 0.037124325 0.05633895 0.06466508 -0.05050539
0.052804742 -0.0974177 -0.03738214 -0.09762526 -0.11094515 0.052752677 0.0052030403 0.0054375837
0.09114512 -0.08707578 -0.069844045 -0.13427226 0.043392133 -0.024972277 -0.010720705 0.005753568
0.09124866 -0.028576188 -0.12507465 0.082021974 0.078399226 0.024746273 0.042151354 -0.13060132
0.012552726 -0.086911105 0.049526144 -0.0094299475 -0.13906442 -0.06331821 -0.023882063 -0.00079727516
0.075382575 0.054179173 -0.10114441 -0.06956952 -0.10911253 -0.06595036 -0.105263785 -0.0023511297
00000000: 6c5d 603d 8f49 203e a5b9 fb3d f4a6 d63d
00000010: 4518 aa3d 5ea0 0e3c 7971 993b 2007 11bd
00000020: a993 07be 62fd c33d f289 063e 5586 393d
00000030: 55f1 16bd d2c6 c93d 9f2b 143d b357 f8bd
00000040: e949 f9bd 735a 34bd b947 ffbd e969 c6bd
00000050: 1656 b33d cfe4 c93d 66eb f73d e63f e6bd
00000060: 3295 133d bb4c 8fbd 15ea 103d c151 ab3c
00000070: 4a73 e2bd 6190 1abc 6523 f4bd 09d3 cb3c
00000080: 803f 1b3e 9d92 313d 9cf2 ae3d 8198 8b3c
00000090: 6dff 59bd 700f 07bd d249 043c 53f1 b33d
000000a0: e9cb 7f3d 5487 18be d628 563c 6488 a8bd
000000b0: 714d 6e3d 671e 963d f73b 11bc fbe7 d2bc
000000c0: 997e 9e3d aeab f33b 8574 30bb d0d4 01be
000000d0: 3363 e83d fba1 a23c 2439 c23d d457 99bd
000000e0: 057c 5a3d 3e47 03be 95b8 f33c 4b95 e9bd
000000f0: e389 c03d ef80 17bd 1b40 10be 0f89 e0bc
00000100: 489b 0dbd 4bf4 cb3c 6b81 febd bf53 a1bb
00000110: 5071 8ebd 62b8 29bd 6f0b 8c3c 6d5e e43d
00000120: 87c4 9d3d 5070 2b3d f371 9b3b 6a7b cabd
00000130: 8a2e e53c a841 be3d d101 edbd 8829 b93d
00000140: 39cb dd3d 203f 733d 7685 be3c ef85 a9bd
00000150: 498a 8fbd 101f 8f3d ca47 5e3c b1bf 78bd
00000160: c6e9 82bd 3cc5 40bd f6b0 eebd 7247 e93b
00000170: 4420 9b3c 9031 853c fe87 4abd 231d f3bc
00000180: 439d efbd ceca e0bc c8f9 e2bc 8945 093e
00000190: ff5e 7dbc 24ab b0bc 5efa 1a3e 713d 73bc
000001a0: 811a 2e3d c8a1 b63d da9d b83c 746d 1c3b
000001b0: a2c2 413d 9df4 ccbc 0585 5a3c 9bc7 b43d
000001c0: fde0 28be e762 173e 17ec 7b3d 6720 93bd
000001d0: 4414 4cbc c06a c8b7 4d5b 2fbd 22c3 17bd
000001e0: 8cbf 093e 51c1 cabd 6be1 10bd f0dc 203e
000001f0: 822f 843d f2d3 223e bee0 0f3c 8106 f8bd
00000200: 6951 5abd 59a9 2cbd a094 fbbc 4202 d13d
00000210: c8a4 f03c bcde 88bd e9dc 493d 1a13 ba3d
00000220: f8be 10bd 7b6a 643d 8616 3cbd 9024 d63d
00000230: f81d 713d 7d88 963d dc36 ccbc dc4e 2e3d
00000240: 169c d33d 6e70 193e 0bfe 86bd 0d8a 59bc
00000250: 2762 f23d 2a15 f7bd 9239 06bd 82ba 7b3d
00000260: 3fb6 3c3d 4fde 043c e170 ff3d 32ad c13d
00000270: ed8d 1d3c e518 38bd 1ece 6abd 641a 68ba
00000280: 6d6b 073e e650 793d db65 803d 5bdf 1fbd
00000290: 616f e53c c0a7 a9bd 5bc5 f73c d68b 2d3e
000002a0: a34d 113e af00 e2bd a4a8 213e 86c8 ec3d
000002b0: db23 053e 6020 a0bd 3f03 cbba 7bc2 963d
000002c0: 554f 7bbd 20a5 b43d a93e 22bd ab27 8ebb
000002d0: c36a 34bd 24c5 88bd dfac 0e3e 8e18 0b3e
000002e0: 4c7a 983d 8fff d8bd a807 e3bc c4ff 67bd
000002f0: 17e4 b53b c0da f93d 5142 33bc 01c0 163d
00000300: 813f e4bd 8442 573d 9241 143d 5808 a6bd
00000310: 905b f9bd 7152 153d ec9a 913c 2b7f 8ebc
00000320: e8e4 eabd 876a 033d 4883 bbbc 0182 593d
00000330: 38ca 61bd 05d7 f63c be20 e53d da7a d43c
00000340: 4ad0 cf3c 100b 853d f3af 9c3c 9588 11bc
00000350: ad0f 183d acc3 663d 206f 843d bdde 4ebd
00000360: c949 583d ee82 c7bd 041e 19bd c1ef c7bd
00000370: 3637 e3bd 3113 583d 447e aa3b c22d b23b
00000380: 4baa ba3d c954 b2bd 650a 8fbd ab7e 09be
00000390: f3bb 313d a992 ccbc e5a5 2fbc 6d88 bc3b
000003a0: 94e0 ba3d 9c18 eabc 9213 00be 23fb a73d
000003b0: c68f a03d b2b8 ca3c e6a6 2c3d 5abc 05be
000003c0: f3a9 4d3c 73fe b1bd eddb 4a3d 1180 1abc
000003d0: e766 0ebe faac 81bd 51a4 c3bc 3b00 51ba
000003e0: 2e62 9a3d fbea 5d3d cd24 cfbd 777a 8ebd
000003f0: 6476 dfbd fb10 87bd 8a94 d7bd 6915 1abb

fc2.bias f4 [64]
0.10174657 0.029269584 0.012125431 -0.06981283 0.1337992 0.12341277 0.020846842 0.11497827
0.005933633 0.01659387 0.03933127 -0.055763822 0.037722725 -0.09595192 0.111416414 0.13387357
-0.07305691 0.0076867407 -0.08646876 -0.053113118 0.1476734 0.017640017 0.06730542 -0.041857086
0.05101069 -0.087726414 0.113328606 0.015527842 0.104266696 0.10458225 0.024068156 0.037594274
0.12942518 0.0838386 0.13972645 0.126636 -0.076119915 -0.10599544 -0.087392345 -0.051129967
0.10851132 0.020693248 0.060827747 0.020275533 0.0809502 -0.04329168 0.08262617 0.0056915605
-0.07631489 0.06443622 -0.045026023 0.041650943 0.0942119 0.0962983 -0.017751012 -0.019355774
-0.110622056 0.096865185 0.09000593 -0.08348308 -0.0016821821 -0.0010210209 0.017177826 -0.09841011
00000000: 8160 d03d c4c6 ef3c bea9 463c 07fa 8ebd
00000010: a802 093e d6bf fc3d ffc6 aa3c ba79 eb3d
00000020: ec6e c23b deef 873c d319 213d 9b68 64bd
00000030: 2583 1a3d 7182 c4bd 4a2e e43d 2716 093e
00000040: dc9e 95bd 0ee1 fb3b 8916 b1bd 248d 59bd
00000050: b237 173e cc81 903c 6dd7 893d 5672 2bbd
00000060: 96f0 503d e8a9 b3bd d418 e83d 7d68 7e3c
00000070: c789 d53d 382f d63d 952a c53c 74fc 193d
00000080: 0988 043e 92b3 ab3d 7314 0f3e deac 013e
00000090: c2e4 9bbd 2314 d9bd c2fa b2bd a86d 51bd
000000a0: 2f3b de3d e384 a93c 8426 793d e018 a63c
000000b0: 38c9 a53d 9e52 31bd e937 a93d 4580 ba3b
000000c0: fb4a 9cbd 23f7 833d 356d 38bd 2e9a 2a3d
000000d0: 2bf2 c03d 0b38 c53d 926a 91bc 0090 9ebc
000000e0: d18d e2bd 4161 c63d 0755 b83d 2df9 aabd
000000f0: aa7c dcba c7d3 85ba 83b8 8c3c 3d8b c9bd

fc3.weight f4 [8, 64]
-0.086779125 0.10492885 0.0015459727 0.014048041 -0.005139269 -0.02258963 -0.018134987 -0.035794783
0.1571202 -0.018165976 0.1255272 -0.07764033 0.031502686 -0.008032089 -0.0021659236 0.024048872
-0.040036023 -0.09216145 -0.005600193 0.105439745 -0.12562655 0.11633917 -0.09464699 0.033334464
-0.07424635 0.13420759 0.13650979 0.076767966 0.14508724 -0.048704416 0.054340586 0.080367275
0.020983746 -0.08240126 0.10692146 -0.13998093 0.053130224 -0.01581293 0.093451306 0.06763359
0.04299784 0.033037078 0.13167252 0.045331102 -0.005599722 -0.008066031 -0.032160565 0.0050377077
0.08554738 -0.039776485 0.05328165 -0.060273696 -0.0358128 0.08863773 0.11410901 -0.015722735
0.11915877 0.11686628 -0.018485608 -0.107438356 0.0002164738 0.15909189 0.14641568 -0.061374813
-0.051274892 -0.04713074 0.10402243 -0.030764814 0.050795272 0.13658784 0.11477828 0.14245492
-0.035869557 0.09788547 0.039475452 0.055858728 -0.0037176234 -0.028351238 0.09946517 0.068767555
0.10499023 -0.09011938 0.06598757 0.03882655 -0.053962708 -0.046104997 0.004137735 0.055837367
0.08504153 0.12346206 0.14598446 0.122666575 0.12140065 -0.11848338 -0.09345542 0.15057418
-0.030377105 -0.05894276 -0.085275196 0.090047285 -0.03866442 -0.028818363 0.14477862 0.11949735
0.04120871 -0.040740542 0.119760804 -0.057384074 -0.0107983295 -0.02358194 -0.03513464 0.10077203
-0.04056932 -0.042586964 -0.09438296 -0.11669137 0.048459984 0.10839475 -0.082656614 -0.10498697
0.035260987 0.066867664 0.09223987 -0.04982289 0.12000563 0.07204727 0.1086215 0.031973444
-0.07466816 0.10772598 -0.011402952 0.028706053 0.10548767 -0.048923574 -0.03209257 -0.065227784
0.10650047 -0.06970475 0.04052254 -0.0661282 0.12748675 0.02763816 0.16398773 0.13788337
-0.007195161 -0.02740477 0.035083875 -0.05690302 -0.063703075 0.090036996 -0.1087298 0.030777717
-0.025129251 0.15815534 0.020130634 0.05681024 0.15261486 -0.07701231 0.10505319 0.059652973
-0.027404033 0.043591898 0.14855821 0.030369587 -0.05621035 -0.025230432 0.1298695 0.020790976
0.06404188 0.030946754 0.121902324 0.115116715 -8.629245e-05 -0.033212915 0.12190752 -0.07825452
0.11591831 -0.0830822 0.022264622 -0.119354345 -0.00064939295 0.07378765 -0.054340065 0.14388235
0.103347115 0.09188431 -0.018040262 0.07571394 0.15824239 -0.07075945 0.037913226 0.06199538
-0.09496824 -0.03292911 0.12644178 -0.10356386 -0.030657377 0.084209345 0.07478026 0.07275872
0.13815376 -0.07434368 0.1432395 0.09410515 0.13368869 0.032354526 -0.0024710987 0.13920291
-0.08784936 -0.0019240926 0.047860816 -0.07614255 0.060070284 -0.00016942754 -0.042088088 -0.056274537
0.072041206 0.07795321 -0.0032210613 0.08758102 -0.06758925 -0.1591286 0.096349165 0.11025593
0.099290855 0.10622288 0.043526288 0.010122199 0.04924864 -0.036329944 0.080200486 0.13233319
-0.0593194 -0.036839418 -0.047415823 0.075094566 0.005719595 0.09826074 0.055309147 -0.034664687
-0.11794191 0.11793907 0.024201414 0.12715971 0.041575987 -0.03259472 0.04646441 0.1142711
-0.10372034 0.078330055 -0.063168705 -0.013827003 0.086747475 0.08366171 0.016362073 -0.14935206
00000000: 41b9 b1bd f0e4 d63d 3ca2 ca3a c129 663c
00000010: 5067 a8bb e30d b9bc d38f 94bc 8d9d 12bd
00000020: 1ee4 203e d0d0 94bc 348a 003e e501 9fbd
00000030: f608 013d 0699 03bc 2bf2 0dbb 2402 c53c
00000040: d0fc 23bd 24bf bcbd d381 b7bb cbf0 d73d
00000050: 3fa4 00be 3b43 ee3d 48d6 c1bd b889 083d
00000060: 780e 98bd b76d 093e 39c9 0b3e 8638 9d3d
00000070: c091 143e 487e 47bd 3c94 5e3d 9997 a43d
00000080: 1be6 ab3c fec1 a8bd a3f9 da3d 2957 0fbe
00000090: 149f 593d 1e8a 81bc 6663 bf3d 7b83 8a3d
000000a0: 811e 303d e351 073d 29d5 063e 1bad 393d
000000b0: df7d b7bb 6327 04bc ccba 03bd 5b13 a53b
000000c0: 7733 af3d abec 22bd dc3d 5a3d 8de1 76bd
000000d0: 71b0 12bd b387 b53d fcb1 e93d f7cc 80bc
000000e0: 8309 f43d 9757 ef3d 216f 97bc a408 dcbd
000000f0: 3efd 6239 fce8 223e feed 153e 2864 7bbd
00000100: 9f05 52bd 2a0c 41bd b609 d53d 7e06 fcbc
00000110: b40e 503d afdd 0b3e e010 eb3d b4df 113e
00000120: f5eb 12bd 2d78 c83d 03b1 213d 1fcc 643d
00000130: 5fa3 73bb db40 e8bc 65b4 cb3d 01d6 8c3d
00000140: 1e05 d73d 8290 b8bd 7e24 873d 9708 1f3d
00000150: 0008 5dbd 98d8 3cbd d695 873b b9b5 643d
00000160: 412a ae3d add9 fc3d f37c 153e 9d38 fb3d
00000170: e7a0 f83d 6aa7 f2bd 8e65 bfbd 1e30 1a3e
00000180: 68d9 f8bc f76d 71bd c3a4 aebd b66a b83d
00000190: 955e 1ebd 7d14 ecbc d940 143e 07bb f43d
000001a0: 77ca 283d 8edf 26bd 2745 f53d 900b 6bbd
000001b0: 7aeb 30bc ea2e c1bc 57e9 0fbd 9161 ce3d
000001c0: 042c 26bd ab6f 2ebd da4b c1bd e3fb eebd
000001d0: fa7d 463d 11fe dd3d df47 a9bd 6903 d7bd
000001e0: d36d 103d eaf1 883d 42e8 bc3d 1613 4cbd
000001f0: 83c5 f53d 858d 933d f374 de3d 96f6 023d
00000200: 9feb 98bd 709f dc3d 72d3 3abc f528 eb3c
00000210: eb09 d83d 1664 48bd 8073 03bd 2596 85bd
00000220: eb1c da3d 5dc1 8ebd f7fa 253d 396e 87bd
00000230: e38b 023e 6c69 e23c 66ec 273e 4c31 0d3e
00000240: 63c5 ebbb f87f e0bc 1cb4 0f3d 2413 69bd
00000250: c276 82bd 5165 b83d bbad debd 8d21 fc3c
00000260: dcdb cdbc 79f3 213e 00e9 a43c dbb1 683d
00000270: 1247 1c3e a1b8 9dbd 2026 d73d ad56 743d
00000280: 6c7e e0bc 6b8d 323d a51f 183e a4c9 f83c
00000290: d33c 66bd 0db0 cebc 83fc 043e d651 aa3c
000002a0: 6428 833d 0c84 fd3c eda7 f93d 50c2 eb3d
000002b0: e8f7 b4b8 440a 08bd a6aa f93d e843 a0bd
000002c0: 9466 ed3d 0027 aabd 4c64 b63c 0d70 f4bd
000002d0: 063c 2aba fb1d 973d b093 5ebd e555 133e
000002e0: a7a7 d33d d72d bc3d 2cc9 93bc e90f 9b3d
000002f0: 4b0a 223e 55ea 90bd e64a 1b3d deee 7d3d
00000300: b57e c2bd ade0 06bd f479 013e 4a19 d4bd
00000310: 2e25 fbbc f375 ac3d 6526 993d 8602 953d
00000320: 2e78 0d3e 8041 98bd 60ad 123e 33ba c03d
00000330: b0e5 083e 2e86 043d 28f2 21bb 358b 0e3e
00000340: 5eea b3bd d631 fcba b409 443d a0f0 9bbd
00000350: 420c 763d 5ca8 31b9 8f64 2cbd 2180 66bd
00000360: 578a 933d efa5 9f3d 7118 53bb ae5d b33d
00000370: 3c6c 8abd 9cf2 22be b652 c53d dccd e13d
00000380: 0159 cb3d 628b d93d 9f48 323d 94d7 253c
00000390: f1b8 493d b5ce 14bd 2740 a43d 5a82 073e
000003a0: e6f8 72bd eee4 16bd 1837 42bd 2ecb 993d
000003b0: 716b bb3b ed3c c93d d88b 623d 8ffc 0dbd
000003c0: 878b f1bd 0a8a f13d 0b42 c63c 2836 023e
000003d0: 954b 2a3d 0b82 05bd 7751 3e3d f706 ea3d
000003e0: 546b d4bd 826b a03d 985e 81bd a78a 62bc
000003f0: a9a8 b13d d556 ab3d c109 863c bfef 18be

fc3.bias f4 [8]
0.029716121 0.041134547 -0.051039193 -0.0078000776 0.029491525 0.11577087 -0.026245901 0.0027599267
00000000: 396f f33c b37c 283d 790e 51bd cb97 ffbb
00000010: 3698 f13c 4719 ed3d a501 d7bc e3df 343b
