matchmaking_model.pth (torch, 29095 bytes, 6 tensors)

fc1.weight f4 [64, 31]
0	0x3e27595d	0.16342683
1	0x3df22846	0.11824088
2	0x3d141815	0.03615578
3	0x3e57cd2f	0.21074365
4	0x3e1017ab	0.14071529
5	0x3e1e2e85	0.15447433
6	0xbd650b72	-0.05591912
7	0xbcef0479	-0.029176937
8	0xbc9a4439	-0.01883136
9	0x3d45769b	0.048208814
10	0x3e36e837	0.1786202
11	0x3e39a3a3	0.18128829
12	0x3e3feed2	0.18743446
13	0xbd07284c	-0.032997414
14	0xbdad4fe2	-0.08462502
15	0xbd91fb4c	-0.07128009
16	0x3dcc38b7	0.09971755
17	0xbda6e8fa	-0.081499055
18	0x3e0bbe35	0.13646777
19	0xbe16be68	-0.14721072
20	0x3e621906	0.22079858
21	0xbd527f44	-0.0513909
22	0xbdb1df4a	-0.08685167
23	0xbd345346	-0.04402473
24	0xbd164616	-0.036687933
25	0xbd8f2a21	-0.06990457
26	0x3e5a2b1b	0.21305506
27	0xbdacd3bb	-0.08438822
28	0x3d877ba1	0.06615377
29	0x3dcd2097	0.10015982
30	0xbd30c24e	-0.043154053
31	0xbddf5b64	-0.10906103
32	0x3e17d9e4	0.14829212
33	0xbd71d2f8	-0.059039086
34	0x3da8cbbc	0.08241984
35	0xbd8825dd	-0.06647847
36	0x3e4f3bbd	0.20237632
37	0xbc947f7e	-0.0181272
38	0xbe10d9ec	-0.1414563
39	0xbda85043	-0.08218434
40	0xba725db5	-0.0009245531
41	0x3dfbd784	0.12296966
42	0x3bb36481	0.0054746275
43	0xbe00cdf0	-0.12578559
44	0x3dd0d722	0.10197283
45	0x3daabfdf	0.08337378
46	0x3e4dcec2	0.20098403
47	0x3e3e9ad1	0.18613745
48	0xbd8e35be	-0.06943844
49	0x3e0fb1cb	0.14032666
50	0xbdbb45ec	-0.09144196
51	0xbd6fb133	-0.0585186
52	0x3d4847ec	0.048896715
53	0xbcf1160e	-0.029429462
54	0x3d8aeb9d	0.06783221
55	0x3db8144c	0.08988246
56	0xbdd9600d	-0.10614023
57	0x3df73430	0.12070501
58	0x3d3af548	0.045644075
59	0x3d8f9479	0.07010741
60	0x3e4f7546	0.2025958
61	0x3ddf67fa	0.10908504
62	0xbbc689c9	-0.0060589057
63	0x3e1dd51e	0.15413329
64	0xbdf51682	-0.11967184
65	0x3e068e44	0.13140208
66	0xbd222fb7	-0.039596286
67	0x3e4b1ccc	0.19835204
68	0x3e5045bb	0.203391
69	0x3e3787e3	0.1792293
70	0xbdd781d0	-0.10522807
71	0x3e20feb3	0.1572216
72	0x3dacf814	0.08445755
73	0x3dbcae16	0.09212892
74	0xbd50f138	-0.051011294
75	0x3d936484	0.07196906
76	0x3e127384	0.14301878
77	0x3d792438	0.060825557
78	0x3e4156da	0.18880787
79	0xbd877ec9	-0.06615979
80	0x3d81af63	0.063322805
81	0x3cc822f5	0.024430731
82	0x3e0ae17a	0.13562575
83	0xbd3fdfd1	-0.046844307
84	0xbcedd6db	-0.029033115
85	0x3e5aadb5	0.21355326
86	0xbdab652c	-0.083689064
87	0x3e414586	0.18874177
88	0xbdc5e229	-0.09662277
89	0x3d1052a6	0.03523507
90	0xbdbea9fc	-0.09309766
91	0x3d2d83b3	0.042361926
92	0xbd884495	-0.06653706
93	0x3e32075c	0.1738562
94	0x3d22900d	0.03968816
95	0x3ca22749	0.019794123
96	0x3dc6116e	0.09671293
97	0x3e2470b3	0.16058616
98	0xbd66116d	-0.056168962
99	0x3e4e7c37	0.20164572
100	0x3dbb9d42	0.09160854
101	0xbd36f5e0	-0.04466808
102	0xbd9ad2d4	-0.075597435
103	0x3e54a6f0	0.20766807
104	0x3daadbd0	0.08342707
105	0xbc700d1c	-0.014651563
106	0xbd9be4b3	-0.0761198
107	0xbcf1e67b	-0.029528847
108	0xbde138dc	-0.10997173
109	0xbc98274e	-0.01857343
110	0x3c3da3bf	0.011574685
111	0xbd207802	-0.03917695
112	0x3c6fb662	0.014630886
113	0xbe68216a	-0.22668996
114	0xbd9c9650	-0.07645857
115	0x3daab3c2	0.08335067
116	0x3e509d48	0.20372498
117	0x3d0c904e	0.034317307
118	0x3d1812b9	0.03712723
119	0xbcfe1d27	-0.03101976
120	0xbcad2692	-0.021136556
121	0xbe14376c	-0.14474267
122	0x3e1b1e58	0.15148294
123	0xbdbcbadc	-0.09215328
124	0x3e207f0b	0.15673463
125	0x3d6b1485	0.057392616
126	0x3e4cc837	0.19998251
127	0xbb83f87a	-0.0040274234
128	0x3e41382c	0.18869084
129	0xbde1ba04	-0.11021808
130	0x3e0ebb31	0.13938595
131	0x3d9644d4	0.07337347
132	0xbd6a933c	-0.05726932
133	0xbb98251b	-0.004643095
134	0xbc776289	-0.015099176
135	0x3d3c58f1	0.04598326
136	0x3e175774	0.14779454
137	0xbc2e4a4b	-0.01063783
138	0xbdf5b321	-0.11997057
139	0x3e1d8cda	0.15385762
140	0xbd083a45	-0.033258695
141	0x3cfefe14	0.031127013
142	0x3e52bffe	0.20581052
143	0x3e6154ed	0.22005053
144	0x3e3e76f6	0.18600067
145	0x3e480b2d	0.19535513
146	0xbd9dc000	-0.07702637
147	0xbc0e8d6a	-0.008700708
148	0x3e3779b8	0.17917526
149	0x3d013206	0.031541847
150	0x3dba6cbd	0.091027714
151	0x3e109999	0.14121093
152	0xbdf72a84	-0.12068656
153	0xbdb3f075	-0.08786098
154	0x3dcf47ca	0.101211146
155	0xbd9cce42	-0.07656528
156	0xbce6ca0f	-0.02817252
157	0x3d5c3ebe	0.053770773
158	0x3af37a0a	0.0018575799
159	0x3dca8cdc	0.09890148
160	0x3b8339b5	0.004004682
161	0x3d8f47c5	0.06996111
162	0xbc0ab217	-0.0084653115
163	0xbd8251db	-0.06363269
164	0x3e279498	0.16365278
165	0xbc3bf5f3	-0.011472213
166	0xbd8605b3	-0.06544056
167	0x3e3a1460	0.18171835
168	0x3da39553	0.07987466
169	0x3c8f43bc	0.017488353
170	0x3db9d8e7	0.09074574
171	0x3db49479	0.088173814
172	0x3d2d7f06	0.042357467
173	0x3c8ad160	0.01694554
174	0x3e2cb20f	0.16864799
175	0x3d431c37	0.04763433
176	0xbd6e2913	-0.05814464
177	0xbe0c605f	-0.13708638
178	0xbdd04bcb	-0.10170706
179	0xbd4d8aad	-0.05018108
180	0xbc79f54c	-0.015256237
181	0x3e433aa9	0.19065346
182	0x3de8af42	0.11361553
183	0xbd8c90ec	-0.06863579
184	0x3d3566af	0.04428738
185	0xbd793ff6	-0.060852014
186	0xbbe9378e	-0.0071172183
187	0xbe2a3dba	-0.1662511
188	0x3d38fb4e	0.045161538
189	0x3db77d72	0.08959474
190	0x3ba58b2e	0.005051992
191	0xbd94c02f	-0.072632186
192	0xbe0998a0	-0.13437128
193	0xbd632d0f	-0.055462893
194	0xbdbd4bce	-0.09242974
195	0xbd248041	-0.040161375
196	0xbdcc8049	-0.09985406
197	0xbb8bd949	-0.004267846
198	0xbddcd322	-0.10782458
199	0xbd40e413	-0.04709251
200	0xbe45dbb3	-0.1932209
201	0x3dfebe1f	0.124386065
202	0x3df97881	0.121811874
203	0x3c41c5a7	0.011826909
204	0xbe32315a	-0.17401639
205	0xbd610248	-0.054933816
206	0xbcb4a3e6	-0.02205081
207	0x3d88909a	0.066682056
208	0x3d90887d	0.07057283
209	0xbe1eb726	-0.15499553
210	0x3dbfdf16	0.09368722
211	0x3dd28a22	0.10280253
212	0x3d69cb98	0.057078928
213	0xbe281ac4	-0.1641646
214	0xbe0a48d3	-0.13504343
215	0x3db67144	0.089083225
216	0x3d5fcfda	0.054641582
217	0x3dd97af2	0.10619153
218	0x3dedf541	0.11619044
219	0x3cd73aba	0.02627312
220	0x3d660b2c	0.056162998
221	0x3dc4f5a5	0.096171655
222	0xbd25e02e	-0.040496998
223	0x3e182d0c	0.14860934
224	0xbdfc9a20	-0.123340845
225	0x3db828af	0.08992135
226	0x3e05ada5	0.13054521
227	0xbdf64ecc	-0.12026748
228	0xbe1f3e86	-0.15551195
229	0x3d9ede2e	0.07757221
230	0x3e0e8ff0	0.13922095
231	0xbe00f66f	-0.12594007
232	0x3de00050	0.109375596
233	0xbe0aa1af	-0.1353824
234	0xbd1a95f8	-0.037740678
235	0xbbe0a94a	-0.0068561183
236	0xbe182d69	-0.14861073
237	0xbd399276	-0.04530569
238	0x3e2df701	0.16988756
239	0xbd867839	-0.065658994
240	0x3cedbc88	0.029020563
241	0xbe2a1a10	-0.16611505
242	0x3d3df452	0.04637558
243	0xbce07cea	-0.027403314
244	0x3e3f4944	0.18680292
245	0x3c34217f	0.010994314
246	0xbc8ef57b	-0.017451039
247	0xbda7998d	-0.08183584
248	0x3d8e7ffb	0.06958004
249	0x3e4152db	0.18879263
250	0xbd33f2d8	-0.043932766
251	0xbd53d917	-0.051720705
252	0x3e342cf8	0.17595279
253	0x3e409685	0.18807419
254	0x3e09e31b	0.1346554
255	0x3d393a7e	0.045221798

fc1.bias f4 [64]
0	0x3d0910b6	0.033463202
1	0xbded9db2	-0.116023436
2	0x3d4cb895	0.04998072
3	0xbd32ba06	-0.043634437
4	0x3cd99e7a	0.026564825
5	0xbd274a9a	-0.04084263
6	0xbc39560d	-0.01131202
7	0xbdce6539	-0.100779004
8	0x3e2f6da8	0.17131674
9	0xbdd8adb3	-0.105800055
10	0x3d2f437a	0.04278896
11	0xbce3d460	-0.02781123
12	0xbd841ee3	-0.06451204
13	0xbd20b750	-0.03923732
14	0x3d94c8ab	0.07264837
15	0x3e1e6347	0.15467559
16	0x3ca3c06f	0.01998922
17	0xbdd26170	-0.10272491
18	0xbd6c0b50	-0.057627976
19	0xbe261e96	-0.16222605
20	0x3c28cabe	0.010302244
21	0x3e06d080	0.13165474
22	0x3c337393	0.010952848
23	0xbe2add7b	-0.1668605
24	0x3d2c5f1e	0.0420829
25	0xbd792af6	-0.060831986
26	0x3ca6618a	0.020310182
27	0x3db219d2	0.08696331
28	0x3d488e03	0.048963558
29	0xbd8a426b	-0.067509495
30	0xbe1019bf	-0.14072321
31	0x3e0d7d5a	0.13817349
32	0xbe43639d	-0.19080968
33	0x3da75e90	0.08172333
34	0xbb615498	-0.0034382697
35	0xbe0655b8	-0.13118637
36	0xbdb821cf	-0.089908235
37	0x3da42bc9	0.08016164
38	0x3be3d8e0	0.0069533437
39	0x3d215bce	0.039394192
40	0xbc4e0b14	-0.012575883
41	0xbcbcac6f	-0.023031441
42	0x3db9e6b9	0.0907721
43	0x3e026e38	0.12737358
44	0x3e32de3f	0.17467593
45	0x3c9dc73c	0.019260041
46	0x3e47bb24	0.19504982
47	0xbe19308f	-0.1495993
48	0x3e12f06c	0.14349526
49	0x3dee1988	0.116259634
50	0x3dd8221d	0.105533816
51	0x3e1f88a0	0.15579462
52	0x3e1e702a	0.15472475
53	0xbd25570e	-0.040366225
54	0x3e24d953	0.16098528
55	0xbb5ed438	-0.0034001004
56	0x3c877dfe	0.01653957
57	0xbda48312	-0.08032812
58	0x3daacf55	0.08340327
59	0xbdbe57a3	-0.09294059
60	0xbcb87d00	-0.022520542
61	0x3d74c8df	0.059761878
62	0xbc95460d	-0.01822188
63	0x3d1d5961	0.038415316

fc2.weight f4 [64, 64]
0	0xbd85cd27	-0.0653327
1	0xbd3ba26e	-0.045809202
2	0x3da8689d	0.082230784
3	0x3e1767c5	0.14785679
4	0x3dcb26bf	0.099194996
5	0x3cbdf58a	0.023188371
6	0x3c504708	0.012712248
7	0x3da7c3e1	0.08191658
8	0xbd833dd4	-0.06408277
9	0xbdf18a4f	-0.117939584
10	0x3e0653f8	0.13117969
11	0x3cd9ec17	0.026601834
12	0x3cb7bf42	0.022430066
13	0xbce65dd0	-0.028120905
14	0x3d3b1f5d	0.045684207
15	0x3d68acf4	0.056805566
16	0x3dbeb3a8	0.093116105
17	0xbd9f0153	-0.077639244
18	0xbd3129e4	-0.04325284
19	0x3da46937	0.08027881
20	0x3d1843c8	0.037174016
21	0x3c990d60	0.018683136
22	0x3d331082	0.043716915
23	0x3d35ae27	0.044355538
24	0xbd6361e3	-0.055513274
25	0x3de08bf5	0.10964195
26	0x3d619977	0.055077996
27	0x3c8263c2	0.015916709
28	0x3e13c3b6	0.14430127
29	0xbd8e7e11	-0.06957639
30	0x3d83e058	0.064392745
31	0xbd8071b9	-0.06271691
32	0x3db43056	0.08798282
33	0x3d88aeb3	0.06673946
34	0x3c193955	0.009352048
35	0xbda8d3ff	-0.0824356
36	0xbda7a5e8	-0.08185941
37	0xbdb38d69	-0.08767206
38	0x3e017fc7	0.126464
39	0x3d4991a3	0.049211156
40	0xbd941092	-0.07229723
41	0x3e118db5	0.14214213
42	0xbd80ee99	-0.06295509
43	0x3d86678a	0.06562717
44	0x3cb31ac9	0.021863358
45	0xbd7b9e84	-0.06143047
46	0x3dc346dd	0.095350005
47	0x3e06e1ce	0.13172075
48	0x3de12017	0.10992449
49	0xbd62e0f7	-0.055390324
50	0xbdbcb182	-0.092135444
51	0x3d81381c	0.0630953
52	0xbd352dc2	-0.04423309
53	0xbd8fa91d	-0.07014678
54	0xbcb8b059	-0.022545027
55	0x3e1f4491	0.155535
56	0x3d0b4045	0.03399684
57	0xbd953998	-0.07286376
58	0xbd3618aa	-0.044457115
59	0xbd7b7107	-0.06138709
60	0xbd981f9f	-0.07427906
61	0x3dd35116	0.103182
62	0x3d719eed	0.058989454
63	0x3d06f07a	0.03294418
64	0x3e1983fe	0.14991757
65	0x3d44e467	0.048069384
66	0x3d5d5b4d	0.05404215
67	0xbe0b65f3	-0.1361311
68	0xbcc1ed42	-0.023672704
69	0xbdbc2cb8	-0.09188217
70	0x3b343b53	0.002750118
71	0xbdd2627d	-0.102726914
72	0x3df79ba8	0.12090236
73	0x3e23dc8a	0.16002098
74	0xbc16394e	-0.009168936
75	0xbd579a2d	-0.052637268
76	0x3b832da0	0.0040032417
77	0x3db0df7c	0.08636376
78	0xbd1c27cc	-0.03812389
79	0x3cd21e17	0.025649114
80	0x3c15d6e5	0.009145473
81	0x3d4bb93f	0.04973721
82	0x3d6c59a7	0.057702687
83	0xbce67319	-0.028131055
84	0xbd62d721	-0.055380944
85	0xbb76b6ea	-0.0037645646
86	0xbda4ffdf	-0.08056616
87	0x3e19b279	0.15009488
88	0x3e200695	0.15627511
89	0x3d946c05	0.072471656
90	0x3d280ddc	0.041028842
91	0xbd195241	-0.03743196
92	0x3cfb2637	0.03065787
93	0x3d2c844e	0.042118363
94	0xbd5c2c1e	-0.05375301
95	0xbce098bc	-0.02741658
96	0xbd116a8a	-0.035501994
97	0xbbe553aa	-0.006998499
98	0x3d3822cf	0.04495507
99	0xbdf32a47	-0.11873298
100	0x3d5f1503	0.054463398
101	0xbbe7968f	-0.0070675085
102	0xbc709f61	-0.014686436
103	0x3db79a06	0.089649245
104	0xbbc32920	-0.00595583
105	0xbd8523e1	-0.06500984
106	0x3d835fcc	0.06414756
107	0xbd988291	-0.074467786
108	0xbd32c25d	-0.04364239
109	0x3e177f4c	0.14794654
110	0x3de0d8cb	0.1097885
111	0xbc2cf84d	-0.010557246
112	0x3e024202	0.12720492
113	0x3dc0b3e7	0.09409314
114	0xbd042086	-0.03225758
115	0xb9ea0bfc	-0.00044640887
116	0x3db77a99	0.089589305
117	0x3d915cf8	0.070978105
118	0x3c7ba0c8	0.015358157
119	0xbd2c885b	-0.042122226
120	0x3d7ef39a	0.062244035
121	0xbd24b809	-0.040214572
122	0xbd0d07b7	-0.034431186
123	0x3dc3bc61	0.09557415
124	0xbd8e841b	-0.06958791
125	0x3e0da9f4	0.13834363
126	0x3dc1e47e	0.094674096
127	0xb985a00e	-0.00025486987
128	0xbd6840b1	-0.05670232
129	0xbbdf4537	-0.006813671
130	0x3c8518bb	0.016247144
131	0x3c35fbd6	0.011107406
132	0x3d73c190	0.059510767
133	0x3dd6180f	0.104538076
134	0xbd97847f	-0.073983185
135	0xbcbe0d09	-0.023199575
136	0x3c873c58	0.016508266
137	0xbdb38e3b	-0.08767363
138	0x3da559c9	0.08073766
139	0x3dc3ad2f	0.095545165
140	0x3e24efd0	0.16107106
141	0x3d47b219	0.04875383
142	0x3e13d054	0.1443494
143	0x3d617417	0.055042353
144	0x3db740eb	0.08947929
145	0x3d58a4c0	0.052891493
146	0xbd03cdab	-0.032178562
147	0x3dc7ccfc	0.097558945
148	0x3df335e1	0.11875511
149	0xbdb24852	-0.087052
150	0x3b80f88f	0.0039358805
151	0xbb3762ce	-0.0027982476
152	0x3db33bd3	0.08751645
153	0x3e0c9f86	0.13732728
154	0x3e14a030	0.14514232
155	0x3ce25d60	0.027632415
156	0xbd641227	-0.055681374
157	0xbdc33cac	-0.095330566
158	0x3c8cb809	0.017177599
159	0x3dcff76d	0.101546146
160	0x3dbc401a	0.09191914
161	0x3e005e63	0.12536006
162	0x3d509e8e	0.05093246
163	0xbda4bfd5	-0.080444016
164	0xbdbcba9d	-0.09215281
165	0xbcc2e6da	-0.02379172
166	0x3dbfe0f1	0.09369076
167	0x3e210194	0.15723258
168	0x3dbbb4cf	0.09165346
169	0xbc92d5ba	-0.017924178
170	0x3ccd2c26	0.025045466
171	0xbdbe6731	-0.09297026
172	0x3d90609f	0.07049679
173	0x3cd1557d	0.02555346
174	0x3dd233ec	0.102638096
175	0x3e10f9c7	0.14157782
176	0xbdbc4a57	-0.09193867
177	0x3db95d51	0.09051002
178	0x3e1fdc7e	0.15611455
179	0xbc0af30e	-0.0084808
180	0xbd3e9766	-0.046531104
181	0x3dba841e	0.091072306
182	0xbdb03ad3	-0.0860497
183	0x3d867062	0.06564404
184	0xbd39ccf0	-0.04536146
185	0x3d290cc9	0.04127196
186	0x3c7b5f94	0.015342612
187	0xbb24e3ac	-0.0025160117
188	0x3bf27474	0.007399136
189	0x3dba3478	0.09092039
190	0x3dec8618	0.11549014
191	0xbd99ffb3	-0.07519474
192	0x3d5d9cf0	0.054104745
193	0xbd3a13d4	-0.045429066
194	0x3de6e8f2	0.112748995
195	0x3c514595	0.012772937
196	0xbd72150c	-0.059102103
197	0x3bcd3d18	0.0062633865
198	0x3d9b269e	0.07575725
199	0x3db790fc	0.089632004
200	0xbd76d8e1	-0.060265426
201	0xbd7cc3bc	-0.061710104
202	0x3a8d6c7e	0.001078978
203	0x3d974122	0.0738547
204	0xbd6c2f43	-0.05766226
205	0x3d647623	0.055776726
206	0xbc8ec53d	-0.017428035
207	0x3d60cb9a	0.05488167
208	0x3d905465	0.07047347
209	0xbd8648a9	-0.065568276
210	0xbdb77db9	-0.089595266
211	0xbdaaea92	-0.08345522
212	0x3ce02e32	0.027365778
213	0x3cf7eac3	0.03026331
214	0xbdc71341	-0.09720469
215	0x3dd83f11	0.10558904
216	0xbc397ffd	-0.011322019
217	0xbd71f6b8	-0.05907318
218	0x3d812b06	0.06307034
219	0xbdf6d8a4	-0.1205304
220	0xbd877a8e	-0.06615172
221	0x3de9cdbe	0.11416195
222	0xbdd0cc59	-0.10195226
223	0xbd5be692	-0.053686686
224	0xbdf35802	-0.118820205
225	0xbdae903f	-0.085236065
226	0x3d2536f5	0.040335614
227	0x3dbdd2eb	0.09268745
228	0xbb09b4c4	-0.0021012286
229	0x3e0479cd	0.12937088
230	0xbdb64cd5	-0.08901373
231	0x3d5b2492	0.053501673
232	0x3dbbf5d9	0.09177751
233	0x3e09abbe	0.1344442
234	0xbd8c8182	-0.06860639
235	0xbda95258	-0.08267659
236	0x3c7f8407	0.015595443
237	0x3d05e574	0.032689527
238	0x3e0dde40	0.13854313
239	0x3dd83b3a	0.105581716
240	0x3dca37df	0.09873938
241	0x3dbe8ec9	0.09304578
242	0xbaf8aa0b	-0.0018971575
243	0x3d221e56	0.03957971
244	0x3d5ffb62	0.054683097
245	0xbda5ffa4	-0.081054
246	0x3cad35b3	0.02114377
247	0x3e0363e3	0.12831073
248	0x3dd7d5c4	0.105388194
249	0x3d7d39fb	0.061822873
250	0xbcd52ea0	-0.02602321
251	0xbba6f0f6	-0.0050946428
252	0xbcc2bb8d	-0.023771072
253	0x3d56e11f	0.052460786
254	0x3c80863b	0.015689006
255	0xbd3febd7	-0.046855774

fc2.bias f4 [64]
0	0xbda7930e	-0.08182345
1	0xbda11ca9	-0.078667946
2	0xbc28963b	-0.010289724
3	0xbb42147e	-0.0029614265
4	0xbd00cef0	-0.03144735
5	0x3c1aac2a	0.009440461
6	0x3e1992c1	0.14997388
7	0x3df1abfe	0.11800383
8	0xbdadae8c	-0.08480558
9	0xbdb9a09f	-0.09063839
10	0x3d9667fa	0.07344051
11	0x3d80e2d3	0.06293263
12	0xbd227546	-0.039662622
13	0xbdb9d32e	-0.090734825
14	0xbdad2186	-0.0845366
15	0xbc0cb48e	-0.0085879695
16	0x3d8063a0	0.06269002
17	0xbd6ab8bc	-0.057305083
18	0xbe01bb3a	-0.12669078
19	0x3c34e8f4	0.0110418685
20	0xbd9508f1	-0.07277096
21	0x3d7fd31a	0.06245718
22	0xbd4bc0af	-0.049744304
23	0xbdbddc7f	-0.09270572
24	0x3de96a4e	0.11397229
25	0xbc27e1b9	-0.010246688
26	0xbcb92205	-0.02259923
27	0x3c9ac4f9	0.018892752
28	0x3e0dc51e	0.13844725
29	0x3e14afc0	0.14520168
30	0x3d349632	0.04408855
31	0x3d2591fa	0.040422417
32	0xbde8efd4	-0.113738686
33	0x3dea959f	0.11454319
34	0x3c98b9b1	0.018643232
35	0x3bc35cdf	0.005961999
36	0xb8e6fc63	-0.00011014265
37	0xbc1a9628	-0.009435214
38	0xbcbccb64	-0.023046203
39	0x3be4d900	0.006983876
40	0xbc0841f4	-0.008316506
41	0x3d206f57	0.039168682
42	0x3e0e9702	0.13924792
43	0x3d429112	0.04750163
44	0xbc83b5d6	-0.016077917
45	0x3d04630b	0.032321017
46	0x3cf467fb	0.029834738
47	0x3df27ff0	0.118408084
48	0xbdd9c3c2	-0.10633041
49	0x3d8fae53	0.070156716
50	0x3bb91def	0.0056493203
51	0x3d8a9fbd	0.06768749
52	0x3dbbd122	0.09170748
53	0x3dcbdf4d	0.099547006
54	0x3d3dbe24	0.04632391
55	0x3d24ab73	0.04020257
56	0x3d721d77	0.05911013
57	0xbdb39e4f	-0.08770429
58	0xbdc4b8f3	-0.09605589
59	0x3db7d573	0.08976259
60	0x3d9baec5	0.07601694
61	0x3b7a2b15	0.0038172652
62	0xbd1f8e73	-0.03895421
63	0x3d0292cc	0.031878278

fc3.weight f4 [8, 64]
0	0x3dd99459	0.10623998
1	0xbd436f3e	-0.04771351
2	0xbd811d04	-0.063043624
3	0xbc6fe7ba	-0.01464265
4	0x3c627bd2	0.013823466
5	0xbd3b9f6f	-0.045806345
6	0x3e25ac72	0.16179064
7	0xbc57acd8	-0.013163768
8	0x3d8eb809	0.06968696
9	0xbce705c3	-0.02820099
10	0x3d1a554c	0.037679
11	0xbcad1223	-0.021126812
12	0xbd87cbbf	-0.06630658
13	0xbd80d6e4	-0.06290987
14	0xbd0db2e4	-0.03459443
15	0x3d10d46b	0.035358828
16	0xbd064451	-0.032779995
17	0x3d86bc28	0.06578857
18	0xbd6f3b49	-0.058406148
19	0x3e1ac1c5	0.1511298
20	0x3b8140c9	0.0039444906
21	0x3d1d2f40	0.03837514
22	0xbd74ca7b	-0.059763413
23	0xbda6e835	-0.08149759
24	0x3c825ee3	0.015914386
25	0x3c663549	0.01405079
26	0x3db8fb56	0.090323135
27	0xbd82d0f7	-0.06387513
28	0x3d9786b5	0.0739874
29	0x3d99a0f9	0.07501406
30	0x3d5a4994	0.053292826
31	0x3e2da02f	0.16955636
32	0x3e1c6299	0.15271987
33	0x3e07c89f	0.13260125
34	0xbd6a1c24	-0.057155743
35	0xbd623ada	-0.055231906
36	0xbcdda9ca	-0.0270585
37	0x3e174071	0.14770676
38	0xbbe97b84	-0.00712532
39	0x3d8f9986	0.07011704
40	0x3d64f39c	0.055896387
41	0x3ce26c2f	0.027639477
42	0xbd89323d	-0.06699035
43	0x3d2d7100	0.042344093
44	0xbd1104ef	-0.035405096
45	0x3b89f782	0.0042104134
46	0xbdcc1d80	-0.09966564
47	0x3e1d0fa6	0.15338
48	0x3df4caad	0.1195272
49	0x3d840a18	0.06447238
50	0x3c92418d	0.017853523
51	0xbdb22f26	-0.08700399
52	0x3dec6c66	0.11544113
53	0x3db2577c	0.087080926
54	0xbe120ae1	-0.14261962
55	0x38bc360e	8.974607e-05
56	0x3d4ca26c	0.049959585
57	0xbdeb5c69	-0.11492235
58	0x3d3c0ab7	0.045908656
59	0x3ddf79ad	0.1091188
60	0x3d57ed3e	0.052716486
61	0x3cacb4b9	0.021082269
62	0x3e08480e	0.13308737
63	0xbc9b612c	-0.018967234
64	0xbdcbad5c	-0.09945175
65	0x3d367a28	0.04455009
66	0x3e233c50	0.15940976
67	0x3d81d8ac	0.06340155
68	0xbd6fdc77	-0.05855986
69	0x3e1480ab	0.14502208
70	0x3d4b21a0	0.049592614
71	0x3e261fcd	0.16223069
72	0xbd8ee975	-0.06978122
73	0x3e05a2e3	0.13050418
74	0x3de51132	0.1118492
75	0x3da13d14	0.07872978
76	0x39ff62eb	0.0004871109
77	0x3d89ecf0	0.06734645
78	0x3d284450	0.041080773
79	0xbc7bc598	-0.015366934
80	0x3c00a566	0.007851934
81	0x3e1e1827	0.15438901
82	0x3db9f25b	0.09079429
83	0x3ded8a9b	0.115987025
84	0x39b22b5c	0.0003398311
85	0x3d84d493	0.06485858
86	0x3c148dd5	0.0090670185
87	0x3c47b78f	0.01218976
88	0xbd574e2c	-0.052564785
89	0xbd559c6c	-0.05215113
90	0x3d081ae1	0.03322876
91	0x3db38ce4	0.08767107
92	0xbd356b97	-0.04429206
93	0x3de34bb9	0.11098427
94	0xbd05674c	-0.032569215
95	0xbd220747	-0.03955772
96	0xbd9b0cb9	-0.07570786
97	0x3e0d18c8	0.13778985
98	0x3d6df193	0.05809171
99	0xbd001064	-0.03126563
100	0x3dda8aa4	0.10670975
101	0xbdc1eeb5	-0.09469358
102	0x3df8a23c	0.12140319
103	0xbd80b009	-0.06283576
104	0x3bec4444	0.0072102863
105	0x3e0f3ffe	0.13989255
106	0x3d903d99	0.07042999
107	0x3cb4dea8	0.022078827
108	0xbdad5168	-0.08462793
109	0x3dccdd15	0.100031056
110	0x3d717d95	0.058957655
111	0xbd30ddab	-0.04318015
112	0x3da032f0	0.078222156
113	0x3c6a1ea7	0.014289535
114	0xbc90e0c2	-0.017685298
115	0x3dddc491	0.10828508
116	0x3d9849bb	0.07435938
117	0xbcba84f0	-0.022768468
118	0xbde6373f	-0.11241006
119	0xbdd38500	-0.10328102
120	0xbc710086	-0.014709597
121	0xbd185708	-0.037192374
122	0xbdd2f1ff	-0.10300063
123	0xbdc8ec60	-0.0981071
124	0xbd8383eb	-0.06421646
125	0x3e1d40e8	0.15356791
126	0xbd478f60	-0.048720717
127	0x3e0fa476	0.1402758
128	0x3de9a534	0.11408463
129	0x3e26cdcf	0.16289447
130	0x3e0a4d3a	0.13506022
131	0xbda4a969	-0.08040125
132	0x3caaaccf	0.020834355
133	0xbce47565	-0.02788801
134	0x3d375db7	0.044767108
135	0x3e1e6ecb	0.15471952
136	0x3e1257cc	0.14291304
137	0x3d3998b4	0.045311645
138	0x3d4d53eb	0.05012886
139	0x3d99067f	0.07471942
140	0x3d6d4b58	0.05793318
141	0x3e18595f	0.14877842
142	0xbcd26410	-0.02568248
143	0x3e1c157c	0.1524257
144	0xbd9e38ac	-0.07725653
145	0x3c628f9d	0.013828185
146	0x3c718c17	0.014742873
147	0xbda47efd	-0.080320336
148	0xbd0d0b07	-0.034434345
149	0xbd2380d3	-0.03991778
150	0xbd8971db	-0.06711169
151	0xbd95612e	-0.07293926
152	0xbd44c18a	-0.048036136
153	0x3da07c41	0.078361996
154	0x3d1a209c	0.037628755
155	0xbc8cc9af	-0.017186014
156	0x3d56d653	0.05245049
157	0x3d9a8d7d	0.07546518
158	0xbd78aea8	-0.06071344
159	0xbd26b92b	-0.040703934
160	0xbd12f0c1	-0.035874132
161	0xbc8ccc9f	-0.017187415
162	0xbd70cd86	-0.058789752
163	0x3bc7f622	0.0061023394
164	0xbdc97d4e	-0.09838353
165	0x3dbaf1d3	0.091281556
166	0x3de88c94	0.11354938
167	0xbc476755	-0.012170632
168	0x3e1aabb3	0.1510456
169	0x3dafd55c	0.08585617
170	0xbd324ba0	-0.043529153
171	0x3e1bbb07	0.15208064
172	0x3d793cfe	0.060849182
173	0x3ddbd558	0.107340515
174	0xbcd6efb9	-0.026237356
175	0x3de71072	0.112824336
176	0xbcd1e8e1	-0.02562374
177	0x3d9b8005	0.07592777
178	0x3e02b4d9	0.127643
179	0xbc0fecec	-0.008784514
180	0xbd5cbe6c	-0.053892538
181	0x3e1bfeff	0.15233992
182	0xbe1bca8b	-0.15213983
183	0xbd9afcac	-0.075677246
184	0x3d006b1f	0.03135216
185	0xbd9b38ba	-0.07579179
186	0xbd431f0d	-0.047637034
187	0xbdb56c0f	-0.08858501
188	0xbc4a3fd2	-0.0123443175
189	0xbd6c917b	-0.05775593
190	0x3e246cb3	0.1605709
191	0xbcb60f29	-0.022224026
192	0x3d0a215a	0.033723213
193	0x3daa67c8	0.08320576
194	0x3d9ef861	0.07762218
195	0xbdc636f4	-0.0967845
196	0x3df06406	0.11737828
197	0xbb9069a5	-0.004407125
198	0xbce4f201	-0.027947428
199	0x3d9e9ec7	0.07745128
200	0x3b94b689	0.0045383614
201	0xbdab9029	-0.08377106
202	0x3dda3619	0.106548496
203	0x3e2934cf	0.16524051
204	0x3c32fadb	0.010924066
205	0xbd990063	-0.07470777
206	0x3d3f6b6e	0.046733312
207	0x3b903fc9	0.004402135
208	0xbd24e764	-0.040259734
209	0x3da592c3	0.08084633
210	0xbdbb692a	-0.09150918
211	0xbd739c76	-0.059475385
212	0x3ca1e792	0.019763742
213	0x3e1a37ac	0.150603
214	0x3cd54de1	0.026038112
215	0x3d879c46	0.06621604
216	0x3dc16549	0.09443147
217	0x3dd575b8	0.10422844
218	0x3d149b96	0.03628119
219	0x3cb0a833	0.021564579
220	0x3c65fd04	0.014037374
221	0x3e2cc960	0.16873693
222	0xbdce4a84	-0.100728065
223	0x3c6db87d	0.014509317
224	0xbd9be2ca	-0.07611616
225	0xbccd60cc	-0.02507057
226	0xbdca0eb6	-0.09866087
227	0xbdab72cf	-0.083715074
228	0xbd4d0ddd	-0.05006205
229	0x3d080989	0.03321222
230	0x3d3413a6	0.04396405
231	0xbd7fffdc	-0.062499866
232	0x3e307b6e	0.17234585
233	0x3d889b0f	0.066702
234	0xbdeaab80	-0.11458492
235	0x3d67c06a	0.056579985
236	0xbd2cba49	-0.042169843
237	0xbd65cad5	-0.05610164
238	0xbb53fbd1	-0.003234614
239	0x3d20b880	0.039238453
240	0xbc42843f	-0.01187235
241	0xbd88434a	-0.06653459
242	0x3d21ff74	0.03955026
243	0x3c0ecdcd	0.008716059
244	0xbc3ca587	-0.011514074
245	0x3cc74d65	0.024328897
246	0x3db64b68	0.08901101
247	0xbd637f2d	-0.055541206
248	0xbd3f9bb7	-0.04677936
249	0x3e18de4f	0.14928554
250	0x3dc3c877	0.0955972
251	0x3d0f9a45	0.035059232
252	0x3d630f62	0.055434592
253	0x3dcbcc56	0.09951083
254	0x3deb4107	0.11487012
255	0xbd59688e	-0.053078227

fc3.bias f4 [8]
0	0x3da30c57	0.07961338
1	0x3d6f8477	0.058475938
2	0xbdb38436	-0.087654516
3	0x3c63628b	0.013878475
4	0x3e00d45e	0.12581012
5	0x3dda375a	0.10655089
6	0x3df9b1b6	0.12192099
7	0x3d86ce2c	0.06582293
