Backend/matchmaking_model.pth (torch, 29095 bytes, 6 tensors)

fc1.weight f4 [64, 31]
000000 8e af 18 bc 6a 71 09 bd a2 73 94 bc 3e 15 31 3d
       -0.009319199 -0.033555426 -0.018121544 0.04323315
000010 a5 14 73 3c ba d2 5a 3d 36 f8 75 3d ca 01 8e bd
       0.014836465 0.05342362 0.060051166 -0.06933935
000020 38 52 3e 3d ce 4f 51 3e 54 f5 d4 3c fc 64 41 3e
       0.04646513 0.204406 0.025995888 0.18886179
000030 4d 7e 05 be 84 57 07 3e 54 66 4b 3a 91 b2 a2 3a
       -0.13036461 0.13216978 0.00077590835 0.0012412836
000040 65 cc 12 be 5e 26 bd bb 37 97 04 3e ed b5 ff bc
       -0.14335783 -0.005772396 0.12948309 -0.031214679
000050 8f 53 03 bd 88 17 2c 3d 5a 27 ed bd 52 7c cb bd
       -0.03206211 0.04201463 -0.11579771 -0.099358216
000060 f6 5a 43 bd 97 4c 2c 3e d7 ae 81 bd b1 1a cb bd
       -0.04769417 0.16826092 -0.06332176 -0.099172
000070 6d ef 0d be 27 5b 4c 3e 59 7c 81 3d bf b4 6a bc
       -0.13860865 0.19956647 0.063225456 -0.01432532
000080 7c 71 f3 bc 35 98 62 3d e4 f1 d3 bd 12 5a ec bc
       -0.0297172 0.055320937 -0.10348871 -0.028851543
000090 28 d1 57 3d 5d 88 e8 bc 7b 54 10 3e 37 0b 9f bd
       0.0526897 -0.028385336 0.14094727 -0.07765811
0000a0 25 0e a4 3d cf 6f 75 3c bd 5e d3 bd dd 10 e4 3d
       0.0801051 0.0149802705 -0.10320804 0.11136029
0000b0 aa fc bd 3d ab 71 51 3e e3 1e 81 bd a5 3b d1 3d
       0.092767075 0.20453517 -0.06304719 0.102164544
0000c0 27 31 13 bd b5 81 a3 3b 22 db 59 3e 67 34 01 3e
       -0.035935547 0.0049898275 0.21274999 0.12617646
0000d0 1b d8 e0 3d 1b d0 f5 3d 51 0d ff bc 75 f8 1c 3e
       0.10978719 0.120025836 -0.03113428 0.15329154
0000e0 b6 f7 28 3e 87 9d 0a bd d6 18 20 3d 09 70 31 3e
       0.16500744 -0.033841636 0.039086185 0.17327894
0000f0 1d 87 dc bd 0a 8f a7 3d 39 26 dd bd 6a 2c e4 3d
       -0.10767958 0.081815794 -0.10798306 0.11141284
000100 d2 05 38 be 1d 19 81 bd 4f 80 43 3b 31 63 54 3d
       -0.1797097 -0.06303618 0.0029831117 0.05185241
000110 14 cb da 3d e8 ff 15 be 0d b6 05 be 10 57 a1 3d
       0.10683265 -0.14648402 -0.13057728 0.07877934
000120 d9 64 0a bd c7 d8 21 3d 5b cb 01 3d 4c bb 65 3c
       -0.033787582 0.039513376 0.031688076 0.014021706
000130 6d b9 09 3d 74 f4 c5 3c e3 8c 9f 3d 85 2a 2b be
       0.0336241 0.024164416 0.07790544 -0.16715439
000140 0a 09 60 3c 10 b2 ca 3d 1d cc 40 bc 9a dd ce 3d
       0.01367403 0.09897244 -0.011767414 0.10100861
000150 2c 7e b3 3d f4 17 06 3e 2c de 00 be 00 a8 85 3d
       0.087643 0.13095075 -0.12584752 0.06526184
000160 96 5b 0b be 5c 28 11 3e 3b 6f d2 bd 39 86 c9 3d
       -0.13609156 0.14175552 -0.10275122 0.09840054
000170 4f 05 08 3e 0c c8 09 3e 51 2d b5 3c 21 7e ec 3d
       0.13283275 0.13455218 0.022116335 0.11547495
000180 e7 12 c7 3d 3a e2 fb bc 87 b1 13 be c1 03 23 be
       0.09720402 -0.030747522 -0.1442319 -0.15919401
000190 84 84 80 3d 8b 10 09 3e 3c 42 1b be 67 6e 2e be
       0.06275275 0.13385217 -0.15161985 -0.17034303
0001a0 b7 b0 99 3d cc 7a cc 3d cf 0a f7 3d 39 52 d3 bd
       0.07504409 0.09984359 0.120626085 -0.10318417
0001b0 51 01 cc bd 90 66 0d 3d e0 d9 16 3e 08 b5 4b 3d
       -0.099611886 0.03452164 0.1473155 0.04973319
0001c0 06 56 3e 3e 40 e4 47 3e 9d 2c 59 3d 4d 96 32 be
       0.18587503 0.19520664 0.053021062 -0.17440148
0001d0 c0 fd ef bd 9d 14 18 be cb 67 ac 3d 3e 27 de 3d
       -0.11718321 -0.14851613 0.084182344 0.108473286
0001e0 15 83 6f 3d b3 dc 10 be 46 fa 3e 3e 0e 1f 8a bd
       0.05847462 -0.1414669 0.18650159 -0.067442045
0001f0 e4 64 db bc 54 74 ad 3c aa ed e4 bd 29 05 aa bc
       -0.026781507 0.021173634 -0.11178143 -0.020754414
000200 da 52 34 3c 05 24 25 3c 8a cf ad bd 3b b2 cb bd
       0.0110060815 0.0100793885 -0.084868506 -0.09946104
000210 ef dc 23 3d de 42 48 3e bc 8d 01 3e 59 95 c1 3d
       0.04000562 0.19556758 0.12651724 0.09452314
000220 03 b2 c7 bc 23 6e fe 3d bc 81 89 3d 44 f2 55 3e
       -0.024376875 0.12423351 0.06714198 0.20893198
000230 58 bf bd bc 6d f9 cc 3d fc 71 b9 bd 63 25 5c 3e
       -0.023162529 0.10008512 -0.09054944 0.21498637
000240 a1 1d 3c 3c 17 a5 c2 bd 04 f5 96 3d e4 0c 0b 3e
       0.011481673 -0.09504145 0.07370952 0.13579136
000250 71 c2 22 3d 68 cf 02 be 39 9c f5 3b cc 75 e9 bc
       0.039736215 -0.12774432 0.00749543 -0.028498553
000260 04 dd 1e bd 7d 1d 37 3e 0f a1 e3 bd b7 d9 d9 3d
       -0.038784996 0.17882343 -0.11114704 0.10637229
000270 d5 d0 07 be b6 66 91 3b b2 47 94 bc b2 66 13 3e
       -0.13263257 0.004437293 -0.018100593 0.14394644
000280 e4 00 a9 bd 69 c5 0a be c5 65 a0 3d a1 90 ee bd
       -0.08252123 -0.13551868 0.07831911 -0.116486795
000290 5c 71 b7 3d 5e e3 33 bb ff e8 86 3d 87 96 08 3d
       0.089571685 -0.0027448754 0.06587409 0.03334668
0002a0 44 0a e9 bd c3 11 3c 3e 95 6c b5 bd 3a 09 63 3b
       -0.11378911 0.1836615 -0.08858601 0.003464295
0002b0 18 4c 45 bd 35 b2 ce 3d ce 49 0c be b2 9b 7a bd
       -0.04816827 0.10092584 -0.13700029 -0.06118364
0002c0 ab bb b6 bd ea d1 15 3e 57 ee da bd bf 9c 6a 3b
       -0.089225136 0.14630857 -0.10689991 0.0035798994
0002d0 ab 83 ab bd 2c d8 2b bc 87 4a 17 3e 5d 8a 6a 3b
       -0.08374723 -0.010488551 0.14774524 0.0035788037
0002e0 24 5d 09 3e 89 ee 03 3e aa 7a 03 3e 0d 0d e7 bd
       0.13414437 0.12883963 0.12839761 -0.11281786
0002f0 ce 77 43 3e 48 f3 07 3e ef c1 0c 3e 41 14 32 3e
       0.1908867 0.13276398 0.13745855 0.17390539
000300 cd 9b bd bd 38 33 41 3e dd 29 8b 3d 77 06 ab 3d
       -0.09258232 0.18867195 0.06795094 0.083508424
000310 f8 24 eb 3c 16 7c f0 bd aa 6a 94 3d 4f e9 43 3e
       0.028704152 -0.117424175 0.07246907 0.19131969
000320 bc 0f e8 bd 9d 58 a5 bd d2 b8 5d 3e df 22 12 3e
       -0.11331126 -0.08073542 0.21652535 0.14271115
000330 09 4d 7b 3d 6f 29 7d 3d 76 3e 24 3d 7d 6a 8a 3d
       0.061352763 0.061807092 0.04009863 0.06758592
000340 22 bc df 3d a8 07 54 3e f7 1b 0f 3e d0 ad de bd
       0.10924555 0.20706046 0.13975511 -0.10872996
000350 1e 3b 2e 3e 9c ba 45 3e 79 b4 5a 3d 47 91 2c bd
       0.17014739 0.19309467 0.05339477 -0.042130735
000360 70 ec 51 bd d4 8e 8f 3c 05 27 26 3e 28 86 cb bd
       -0.051250875 0.01752416 0.16225822 -0.09937698
000370 de 82 29 be 3d 77 06 bd 51 d1 f2 3d 76 b2 00 be
       -0.16553828 -0.03282856 0.1185633 -0.12568077
000380 a1 18 14 3e ca c1 f0 3d d1 67 c7 3d 7c 21 7c 3d
       0.1446252 0.11755712 0.09736598 0.06155537
000390 24 ce 58 bc 53 32 2a be 03 06 c6 3d 69 8a b4 3d
       -0.0132327415 -0.1662076 0.096691154 0.08815462
0003a0 3b 7e 34 3e ea b5 13 3c 76 10 de 3c 01 dc 10 3e
       0.17626278 0.00901554 0.027107459 0.14146425
0003b0 e8 0d a6 bd 2c 34 1a 3e 32 e7 da bd 4f 95 a5 3c
       -0.08108121 0.15058964 -0.10688628 0.020212797
0003c0 fc 02 a2 bd 34 1c 08 be 7c 1d ad 3d 76 00 e6 bc
       -0.079107255 -0.13292009 0.08452889 -0.028076392
0003d0 21 22 d7 3d 82 f3 53 3d 1b ee d1 3d b0 86 df bd
       0.105045564 0.0517459 0.10250493 -0.109143615
0003e0 83 1f 30 3c 5a d8 88 bd 27 04 b5 3c b4 3c d3 3c
       0.0107497005 -0.06681891 0.022096707 0.025785781
0003f0 73 85 9a 3d a5 ec 35 3e 90 b6 f4 3d 77 a5 00 bd
       0.07544985 0.17766054 0.119488835 -0.0314078

fc1.bias f4 [64]
000000 19 c9 e8 bd 37 ac 7b 3c a3 b3 b9 bb e1 b1 d8 bd
       -0.11366481 0.015360883 -0.0056671663 -0.10580803
000010 7e ec cb bd 36 de ca 3d 70 37 11 be 6c ac 25 3d
       -0.09957217 0.099056646 -0.14181304 0.040447637
000020 28 0c c6 3d d6 a8 ff 3d 48 4f dc bd 85 69 06 3e
       0.09670287 0.12483375 -0.10757309 0.1312619
000030 85 c1 fc 3d 9f b1 b2 bc 51 c5 32 3e 62 97 08 3d
       0.123415984 -0.021813212 0.17458083 0.033347495
000040 46 3b 1a be 03 7d 76 3d 53 b1 75 3d 89 87 da bd
       -0.15061674 0.060177814 0.059983563 -0.106703825
000050 81 f6 27 3d 90 10 28 3d 16 aa 0f be d0 c2 07 be
       0.04100657 0.04103142 -0.14029726 -0.13257909
000060 32 56 27 3d ab 7c 99 3c 71 13 54 3b 1f da c7 bd
       0.040853687 0.018736204 0.003236022 -0.097584
000070 c4 d2 a9 3d 8e 65 78 3d f0 76 fa bd 1c 4a d4 3d
       0.082921535 0.060643725 -0.12229717 0.10365698
000080 30 9a 0b 3e 44 c2 14 3e 4b c5 ca bc ec 8d fa bd
       0.13633037 0.14527231 -0.02475228 -0.12234101
000090 60 0e 7e 3d a0 5c 3f 3d f4 14 2e 3e 14 f6 cf bd
       0.062025428 0.046719193 0.1700018 -0.101543576
0000a0 07 e3 0c bb 97 bb 02 be 61 be 0d be 5a 31 a4 3c
       -0.0021497624 -0.12766872 -0.13842155 0.020043064
0000b0 c7 cc ad 3d e8 7e a5 bd 4b 6e ba bc f4 1c 41 bb
       0.08486324 -0.08080846 -0.02275767 -0.002946672
0000c0 bd c6 be 3c 68 12 e1 bd f0 ff 15 3e 00 1d 27 3e
       0.023288125 -0.10989839 0.14648414 0.16319656
0000d0 eb 4a 27 3e 9c bd 89 3c 15 02 e8 bd 2f b1 d1 3d
       0.16337173 0.016814046 -0.11328522 0.10238873
0000e0 f0 72 87 bd 05 72 b6 bc 92 ad 6f 3d bd a8 19 3d
       -0.066137195 -0.022271166 0.05851514 0.037514437
0000f0 46 69 a9 3d cd 73 12 bd 7c 80 e3 bc 80 b6 bc 3d
       0.082720324 -0.035754967 -0.027771227 0.092144966

fc2.weight f4 [64, 64]
000000 b0 e0 e6 3d 73 3d b4 bb d7 38 01 be 79 ae 9b 3d
       0.112733245 -0.0055004894 -0.12619339 0.076016374
000010 99 ec 1f 3d a3 5e 61 3c f1 14 a6 3b a7 6d 75 bc
       0.039043996 0.013755473 0.0050684144 -0.014979756
000020 fd 58 7f 3d a5 a4 11 3c 01 e8 5b bc da 3c 02 be
       0.062340725 0.008889352 -0.013422013 -0.12718526
000030 19 72 4b 3c 75 c3 ff 3d 9f e0 bd 3d 9f 04 10 3e
       0.01241734 0.12488452 0.09271359 0.14064263
000040 1b a4 d8 3d 54 98 f1 3d fb c6 81 bc fc fa b1 3d
       0.10578176 0.117966324 -0.015841952 0.086904496
000050 9d ae d3 bd 62 fa 09 be a2 e2 25 3d e1 a7 5c 3d
       -0.10336039 -0.1347442 0.040499337 0.05387104
000060 e0 cf 98 3d 92 b0 11 3d ef ef 82 3d b7 2d 1a bd
       0.07461524 0.03556878 0.0639342 -0.037641253
000070 47 57 0e 3d 5d d4 c3 bd 3c 38 9c bd 2d c4 69 bd
       0.034751203 -0.095619895 -0.07627913 -0.057071853
000080 aa 56 79 bc e2 b8 9c bd a8 d6 1b 3e 80 03 7e bd
       -0.015218416 -0.07652451 0.15218604 -0.062015057
000090 03 20 80 3d de ad b0 3d 21 8b 02 3d 5d 8c 02 3e
       0.06256106 0.086269125 0.031870965 0.12748857
0000a0 5d 77 25 bd 26 66 80 bc d6 9d 81 bd b1 45 b1 3d
       -0.040397037 -0.015673708 -0.06328933 0.08655871
0000b0 5d a6 38 3e 92 79 82 3d 5a f5 24 bd b7 3a 96 bd
       0.18032213 0.06370844 -0.040273048 -0.07335418
0000c0 b5 d3 14 bc 06 1e 8a bc 0a f0 b3 3d f8 b4 15 bd
       -0.009083678 -0.01686002 0.08786018 -0.03654954
0000d0 47 a5 de bd b9 98 87 bc d0 9a 4b bd 9d 43 f9 bd
       -0.10871368 -0.016552316 -0.049708188 -0.12171099
0000e0 9a 0c b8 bd a8 cf 31 bc 6a 83 76 3d c3 39 58 3d
       -0.089867786 -0.010852732 0.06018392 0.05278946
0000f0 a1 50 9a bd dd e6 c6 bd 76 06 9a bd cb 58 e6 3c
       -0.0753491 -0.097120024 -0.075207636 0.028118512
000100 49 2b 03 be 1d 9c 60 3d 49 91 0a 3c 2f 83 81 3d
       -0.1280948 0.05483638 0.00845749 0.063238494
000110 09 11 64 bb 66 fc 82 3b d9 30 61 3d c6 f3 6f bd
       -0.0034800193 0.0039973734 0.054978225 -0.05858209
000120 09 81 04 3e e4 c2 56 bd c5 33 68 3d d2 27 ae bd
       0.12939848 -0.052431956 0.056689996 -0.08503689
000130 67 dd c1 3d 53 c6 0a be cf 83 07 be 40 f3 0e b9
       0.09466057 -0.13552217 -0.13233875 -0.00013632793
000140 27 8a 8d bc 4f 25 25 3e fb 7d 60 3d bb a9 2b 3d
       -0.01727779 0.16127513 0.054807644 0.041909914
000150 e1 74 28 be 21 8e 82 bd 2f d5 cd 3d 1a 1d ce 3d
       -0.16450836 -0.06374765 0.10050427 0.100641444
000160 c4 4a c1 3c 42 76 05 3d 05 a7 dc 3d 36 1b 87 3a
       0.023595221 0.032583483 0.10774044 0.0010307792
000170 00 ff 9c 3a 8a c2 54 bc 46 5b 80 3c 48 3a 92 3d
       0.0011977851 -0.012985835 0.015668523 0.071400225
000180 3f c1 03 be f7 f1 25 bd ec 68 4b bd 84 60 73 bd
       -0.12866686 -0.04051396 -0.04966061 -0.059418216
000190 e7 ac 88 3c b3 aa 51 bc 57 fb dc 3d b1 0e d3 3d
       0.016684009 -0.0127970455 0.10790127 0.103055365
0001a0 33 91 79 bc 47 be 29 3c d2 cd be bd 49 6f 66 bd
       -0.015232372 0.010360307 -0.09316601 -0.056258474
0001b0 eb 7f d3 bc 67 53 61 3c 60 94 96 bd 67 0a fb bd
       -0.025817832 0.013752795 -0.07352519 -0.122578435
0001c0 3f 28 cf bc 14 88 1a 3d ce 01 46 3d 16 93 cf 3d
       -0.025287746 0.03772743 0.048341565 0.10135476
0001d0 7f 72 d8 3d a0 90 93 3d eb a3 19 3e d2 f7 c5 bd
       0.105687134 0.072053194 0.15003936 -0.096664086
0001e0 89 d0 93 3d 5e 67 2b 3b 3d 68 d1 3d c7 1c 62 bc
       0.07217509 0.002615414 0.1022496 -0.013800806
0001f0 47 95 83 3d 8c aa ca 3d 27 57 85 bd 13 ee 33 3d
       0.06424957 0.098958105 -0.065107636 0.043928217
000200 85 8b d0 bd 4c e8 c9 3b a5 2e 9f 3d de ba d6 3b
       -0.10182861 0.006161725 0.077725686 0.006553038
000210 17 f6 d2 3d e4 bb bd bc d9 39 a7 bd 5f 89 a4 bc
       0.10300844 -0.023160882 -0.081653304 -0.020085035
000220 79 71 f4 bb 00 1e ab bd 60 b3 cd bd 16 f7 d3 bd
       -0.007459816 -0.083553314 -0.10043979 -0.10349862
000230 a8 62 62 bd bf cc 69 3d 86 9c 0b be ba de 08 be
       -0.055269867 0.057080027 -0.13633928 -0.13366213
000240 c6 e6 2c 3d 40 31 b4 3d 91 ac 81 bd 6d f0 1e 3c
       0.04221227 0.08798456 -0.063317426 0.009700877
000250 6c 04 0e bd 88 e7 cc bd 53 06 a0 3d 08 a9 a7 bc
       -0.034672186 -0.100050986 0.07813706 -0.020466343
000260 38 c6 19 3d b0 de 94 3a cf aa 06 be 6e 2c ad 3c
       0.03754255 0.001135787 -0.13151096 0.02113935
000270 d2 6d 66 3d 41 1f ba 3c f5 64 bc bb 73 19 d7 3b
       0.056257077 0.022719981 -0.0057493397 0.006564313
000280 43 d1 aa bc 78 b3 6f 3c 1f 0a af bd 68 08 99 bd
       -0.020851737 0.014630191 -0.08546852 -0.074723065
000290 3b fe 09 be d7 08 f4 b9 58 14 36 bd 65 8a bc 3d
       -0.13475887 -0.00046545893 -0.044452995 0.09206084
0002a0 10 cf af bd cf 57 f9 bc 75 9e 41 3c 5f 9f 8a bd
       -0.08584416 -0.030437378 0.011817564 -0.06768679
0002b0 cd 82 f1 bd 37 0f 3a 3d 88 5c 2e 3d 67 5e 25 bd
       -0.117925264 0.045424666 0.042568713 -0.040373232
0002c0 2d 7c 15 bd 48 f2 af 3c 00 46 15 be ba 9e 46 bd
       -0.036495376 0.021477833 -0.14577484 -0.048491217
0002d0 b8 e9 00 be 62 6a b8 3b 79 df ab bb ef ff 2b bd
       -0.12589157 0.005627916 -0.005245146 -0.041992124
0002e0 71 f6 be 3c bc 8b f0 3b 73 57 f1 bd 22 f3 ef bc
       0.023310872 0.0073408764 -0.11784258 -0.02929074
0002f0 00 41 c7 3d a3 01 b0 bd 97 40 74 3d 97 d3 36 bd
       0.09729195 -0.08594062 0.05963191 -0.04463538
000300 b9 cb ba 3d 34 57 2d 3d 74 42 88 3d d2 cb ec 3d
       0.09120888 0.04231949 0.066533 0.11562313
000310 4a 9d 31 3e df 11 19 bd b7 c3 bb bc e7 eb 19 3e
       0.17345157 -0.03737056 -0.022920473 0.15031396
000320 ad 02 ec 3c 27 f3 43 3b ad 0d 31 3e bf a0 2b 3d
       0.02880987 0.0029899569 0.17290373 0.041901346
000330 cc 22 02 3e f5 13 2e 3e 2a 22 19 bb 4b ea 54 bd
       0.12708586 0.169998 -0.002336631 -0.05198125
000340 4d cf ea bd da 0b 04 bc 60 68 cd bd df 61 f7 3d
       -0.11465321 -0.008059466 -0.100296736 0.12079214
000350 8f 1e 0b 3e 6e fd 12 bc 9e 38 21 bc 01 c9 27 3d
       0.13585876 -0.008971555 -0.009840159 0.040963177
000360 d0 82 2a 3c 66 97 18 3e 00 d9 03 bd 85 67 6e 3b
       0.010407165 0.14901504 -0.03218937 0.003637762
000370 a2 00 18 3e 25 17 21 3d 9b 09 27 3c e7 e3 f9 3d
       0.14843991 0.039328713 0.010195161 0.12201672
000380 d9 d0 a1 bd 8a 43 c7 bd c8 a1 b2 3d 84 bd 90 3d
       -0.07901163 -0.09729679 0.087222636 0.07067397
000390 a9 0b cf bd bf 4f 17 bd b0 65 7d bd 2d e3 3a 3d
       -0.10109646 -0.036941286 -0.061864555 0.045626808
0003a0 f1 66 50 3d 40 cc 51 3d 48 29 06 be a9 61 1b 3d
       0.050879423 0.05122018 -0.13101685 0.037934933
0003b0 84 c4 a3 bd e8 b2 7c bd 2b 56 1d 3e 58 4d 03 be
       -0.07996467 -0.061694056 0.15364902 -0.12822473
0003c0 79 4f 26 3e 87 06 39 bd 79 36 96 bd 92 f2 ea 3d
       0.16241254 -0.04517224 -0.073346086 0.11472048
0003d0 30 28 aa bd 6f 54 cf 3d e6 5d f8 bc 79 0e 52 bd
       -0.083084464 0.10123526 -0.030318212 -0.051283333
0003e0 3b fb 81 bd 29 0e f6 bb c8 65 18 bd ac d1 08 3d
       -0.063467465 -0.0075090122 -0.03720644 0.033403084
0003f0 8c 4b 74 3a a4 fd f1 3c 22 8a ab bd f5 7b 2a 3d
       0.00093191187 0.02953989 -0.08375956 0.04162212

fc2.bias f4 [64]
000000 9f 91 48 3d 98 31 a8 bd 40 d7 b5 3d 5b 5d be 3d
       0.048967 -0.08212584 0.08878946 0.0929515
000010 ae a0 f2 3b d4 74 a1 bc 0e b4 8c 3d 0c f3 cc 3d
       0.0074044084 -0.019709028 0.0687028 0.10007295
000020 a6 34 46 3d 5f 5b 9b bd 21 49 bf bd c8 d3 63 3d
       0.048390053 -0.07585787 -0.0934012 0.055621892
000030 2d e3 8c bd 19 60 6f 3d ce cf bb 3d 7d f5 02 be
       -0.06879268 0.058441255 0.09170495 -0.12788959
000040 34 ca 80 bd 44 06 bb 3d cc 56 13 be 32 14 1c 3e
       -0.06288567 0.091320544 -0.14388579 0.15242079
000050 3e 61 00 3e cd 92 c4 bd f2 2d 09 be d1 44 a4 3c
       0.12537095 -0.095983125 -0.13396433 0.020052345
000060 3f 37 09 bd f6 b6 57 3d ee ab ab bd 19 8c 61 bd
       -0.033499952 0.05266472 -0.08382402 -0.05506525
000070 2d 30 cc 3d b5 65 0c 3e 37 5f 93 bd 68 4f 56 3d
       0.09970126 0.13710673 -0.07195895 0.05232182
000080 4c bc 90 3d 72 df 9a 3d 8c d9 55 bd 27 2f 06 3e
       0.07067165 0.0756215 -0.052209422 0.13103925
000090 02 bb 78 3d b8 3a 20 bd 90 2b bd 3d 71 f5 eb 3c
       0.06072522 -0.0391185 0.092368245 0.028803559
0000a0 2c 64 8b 3b 40 f6 9e bd 40 dc 49 3d 8d 0f 44 bd
       0.004253885 -0.07761812 0.049282312 -0.047866393
0000b0 53 ee 80 3d 41 c9 91 bd 3b 62 c6 3d 38 87 03 3d
       0.06295457 -0.07118464 0.09686705 0.032111377
0000c0 99 a8 34 3d c7 d3 ee 3d ac aa a4 bd f2 17 1a 3d
       0.0441061 0.11661487 -0.080403656 0.037620492
0000d0 82 33 20 3e 26 92 2a 3d aa 0b 55 bd 59 7c 3d bd
       0.15644649 0.041643284 -0.052013077 -0.046261165
0000e0 17 25 80 3d 22 d9 02 bc 3a 44 c0 3c 50 f4 f9 3d
       0.06257074 -0.007986339 0.023470033 0.12204802
0000f0 43 d1 42 bd b9 19 a0 bd b3 87 0b 3e 33 6f 6b 3d
       -0.04756285 -0.07817406 0.13625984 0.057479095

fc3.weight f4 [8, 64]
000000 64 4a 02 be 03 00 05 3e 85 cc 17 3d 29 81 d3 bc
       -0.1272369 0.12988286 0.03706028 -0.025818424
000010 42 83 21 3e 36 9a 45 bd ba 38 8a 3d 16 4c 2b bd
       0.15772727 -0.04824277 0.06749101 -0.041820608
000020 88 ca 9d bd f9 bd a8 bd b2 85 eb 3d f8 f6 ab bb
       -0.077046454 -0.082393594 0.1150011 -0.005247947
000030 c3 fa cc 3d af 38 79 bd aa 9f 68 3b 75 01 47 bd
       0.100087665 -0.060845073 0.0035495558 -0.048585374
000040 de f7 d9 bb ec eb f3 bc 61 2a 08 3d 5a 7a 05 3e
       -0.0066518625 -0.029775582 0.03324354 0.13034955
000050 e2 a8 86 bd 9a 9e 3b bd b0 75 a9 3d 9c 78 ce bd
       -0.065751806 -0.04580555 0.082744 -0.10081598
000060 b4 d0 e6 3d c5 73 0d bd 6b e4 bd bc 83 fa 25 bd
       0.11270276 -0.034534235 -0.023180207 -0.04052211
000070 4d c3 30 3e a1 13 d3 bc c5 f4 6c 3d de 09 1b 3e
       0.17262001 -0.025766196 0.057850618 0.15140483
000080 aa 70 ca bd 39 28 a2 bd 89 54 41 bd 14 7a 01 3c
       -0.0988477 -0.07917828 -0.04719976 0.007902641
000090 37 b9 09 3e 31 05 c5 bb 90 90 ca 3d 74 9d b9 bd
       0.1344956 -0.0060125818 0.09890854 -0.09063235
0000a0 eb 4b a7 3d c4 dc 75 bd 40 9d 17 3e 92 2e 82 bc
       0.08168777 -0.06002499 0.1480608 -0.015891347
0000b0 94 40 03 3e 99 79 a2 3d 2f b5 43 bd 33 af 21 3d
       0.12817603 0.07933349 -0.047780212 0.039473724
0000c0 5e 2c c2 3c 35 76 09 3e 9c bd d6 3d 52 3d dd 3d
       0.023702797 0.13423999 0.10485384 0.108027115
0000d0 e9 56 10 3e ca f6 18 3d 89 6c 9c 3d 84 be a4 bc
       0.14095654 0.03734473 0.07637889 -0.020110376
0000e0 2e 19 ab 3d 96 9a 95 3c df d2 a7 bd df b3 1c bd
       0.08354412 0.018262189 -0.08194517 -0.038257476
0000f0 27 33 cd 3d 76 af 81 bb fb 84 09 bb 07 d4 08 bd
       0.10019522 -0.003957684 -0.0020983804 -0.03340533
000100 2c 34 59 bd ef 28 01 3e 7a db 38 3c 23 d9 19 3c
       -0.05302827 0.12613271 0.011282796 0.009390148
000110 13 0e dc 3d 0d eb 01 bd d9 45 00 bd ad d4 2b bd
       0.10744872 -0.031718303 -0.031316612 -0.04195087
000120 46 c3 9f 3d cd fb 4d bd b9 9f e0 3d c7 47 d2 3d
       0.07800917 -0.050288964 0.10967965 0.10267597
000130 fa 62 ac 3d b3 bf b4 3d fd f2 dc 3d f9 b1 aa bd
       0.08417316 0.08825626 0.10788534 -0.08334727
000140 90 4c 10 3e d5 28 19 3e 00 a5 c8 bd b0 37 e5 3d
       0.14091706 0.14956982 -0.09797096 0.11192262
000150 bc af 09 3b d5 63 00 3e 54 58 3a bd e9 07 fc 3d
       0.0021009287 0.12538083 -0.045494393 0.12306196
000160 7e b7 87 3d d2 3c cd bc 79 94 25 bd a2 35 13 3e
       0.06626795 -0.025053415 -0.040424798 0.14375928
000170 1c b1 64 bd 3b 35 b6 3c c0 d0 eb 3d 91 e2 b7 3d
       -0.055832967 0.02224218 0.11514425 0.08978761
000180 c2 66 f5 3c 34 7d aa bc 85 3a bc bd 7b 09 72 3d
       0.029956225 -0.020811655 -0.09190849 0.059091073
000190 9a 50 c9 bd 47 d0 d8 3d f2 02 96 3d d1 0c 16 bd
       -0.09829827 0.10586601 0.073247805 -0.036633316
0001a0 43 69 1f 3e 08 ce 0e 3e 96 e0 e9 bd 1b 71 aa bd
       0.15567498 0.13945782 -0.114197895 -0.083223544
0001b0 47 8d 1f 3e dc 0a 16 3e 23 30 9c bd 93 3c f4 3d
       0.15581237 0.1465258 -0.07626369 0.11925616
0001c0 1f 0d 3b bd 4b 84 33 3d 1f e4 d2 3c 95 9e 1c bd
       -0.04566681 0.043827336 0.025743542 -0.038237173
0001d0 7d 50 1a 3e f8 b1 b9 3d 8b c6 b5 3d f9 39 33 bd
       0.15069766 0.09067148 0.0887576 -0.04375646
0001e0 f2 e0 3e 3d b5 0b ca 3d 0e be 9d 3d b6 9f 05 bc
       0.046601243 0.09865514 0.07702266 -0.008155754
0001f0 ec 84 b3 bd df 60 25 3e bf d2 ab bd 43 21 36 3d
       -0.08765587 0.16150235 -0.08389806 0.044465315
000200 9e d6 04 bd f7 c5 4a bd 17 25 ca bd c5 7b 6e bd
       -0.032431237 -0.0495052 -0.098703556 -0.058223505
000210 a5 da bc 3d ad bf 11 3e eb 73 86 bd da 17 8e 3d
       0.09221391 0.14233275 -0.06565078 0.06938143
000220 87 43 ed 3d 8b 5b d3 bc 1b 0a 02 3e 60 cf ca ba
       0.115851454 -0.025800487 0.12699167 -0.001547318
000230 86 c2 0d 3e 15 e0 76 3c 96 6e d3 bd 35 7b c1 bd
       0.13843736 0.015068074 -0.10323827 -0.09447328
000240 df c2 b6 3d 9c 2a a6 3d 6d f1 a6 3d f1 74 70 bd
       0.089238875 0.08113596 0.08151517 -0.058705274
000250 be 72 e9 3d 94 ff e6 3d 9a 9a bd 3d 3d 1d 6b bd
       0.113988385 0.112792164 0.092580035 -0.05740093
000260 32 b7 53 bd 76 33 2f 3d 24 5a 97 bd 88 ee 15 3e
       -0.05168838 0.042773686 -0.0739024 0.14641774
000270 40 e9 9d 3d a1 3b 3c bd 40 79 57 3d c3 ab 09 3e
       0.077105045 -0.045955304 0.052605867 0.13444428
000280 7d e0 ca 3b 46 ca ba bc fb d5 6e bd 75 79 a8 3d
       0.006191312 -0.02280153 -0.058309536 0.08226291
000290 43 e5 3d 3d 03 09 2e 3d 9d 9a e6 bb bd e2 8a bd
       0.04636122 0.042489063 -0.0070374743 -0.06781528
0002a0 14 bc 88 bd 74 bf 0d 3e f2 73 b0 bc c7 51 ee 3d
       -0.06676498 0.13842565 -0.021539662 0.116366915
0002b0 cf aa f8 3c ca 98 51 3d ce f7 0b bd 3a 29 eb 3d
       0.030354885 0.0511711 -0.03417187 0.11482473
0002c0 27 72 18 3e 65 21 0c 3e e1 3e c7 3c ad 5b b9 bd
       0.14887296 0.13684614 0.024321975 -0.09050689
0002d0 43 84 1b 3e 21 c1 d1 bd 99 f6 d5 3d 7a e3 6f 3c
       0.15187173 -0.102419145 0.104474254 0.014641637
0002e0 97 05 a6 3d 7c ab 87 bd 6e ed e2 bc 0f 4e 88 bd
       0.08106535 -0.06624505 -0.027701106 -0.066555135
0002f0 89 8d 34 bd a6 c9 0f be 61 81 d6 3b f7 17 09 3e
       -0.04408029 -0.14041767 0.006546185 0.13388048
000300 c9 7b 41 3d 23 ac 52 3d 96 81 73 bd b4 de 08 3e
       0.04723719 0.051433694 -0.059449755 0.13366205
000310 58 b6 3f bd c0 97 bc bc 8a ca 58 3d 9f 38 b2 3d
       -0.046804756 -0.023021579 0.05292753 0.08702206
000320 76 81 95 3d 09 a5 b5 3c f6 89 cc 3d 57 98 71 3d
       0.07300083 0.022173421 0.099872515 0.058983173
000330 f8 09 e4 3d ed 15 ba 3d 3b a8 a8 bd ac 7f 2a bd
       0.11134714 0.09086213 -0.082352124 -0.041625664
000340 43 f2 26 bd 36 87 0f 3e 50 97 db bd 02 3a 13 3e
       -0.040758383 0.14016423 -0.1072222 0.14377597
000350 22 03 0f 3e 3a 26 3c bd fc c1 93 bd 93 3e 20 3d
       0.13966039 -0.045934893 -0.07214734 0.039122175
000360 61 f4 fe bc 2f bc 9a bd d4 bc bc bd 1d 31 05 bd
       -0.031122388 -0.075554244 -0.092157036 -0.03251754
000370 fc 6a eb 3b 67 2a c0 3d 69 ac c4 3c e5 b8 b0 3d
       0.0071843844 0.093830876 0.024007993 0.08629016
000380 46 57 1c ba e5 5e 37 bc 13 ce 0e 3e be e6 02 3e
       -0.00059639325 -0.011192058 0.13945799 0.12783334
000390 8e 14 7c bd d4 3c 1e 3a e6 e9 1f 3e 2a a3 b8 bc
       -0.06154304 0.0006036286 0.15616569 -0.02253874
0003a0 95 f8 12 3e 72 8e 74 bd fa e9 4b 3d ec eb f8 3c
       0.14352639 -0.05970616 0.049783684 0.030385934
0003b0 3d 0b a8 3c 84 72 30 bc 59 e1 a9 3d d8 01 84 3d
       0.020513171 -0.01076949 0.08294935 0.06445664
0003c0 06 48 15 3e 45 5f 85 3c 81 a5 dc 3d 4a ca 29 3d
       0.14578256 0.01628078 0.10773755 0.041452684
0003d0 3c 55 34 3d df b1 a4 bd 9a a9 80 bd df bc a1 bc
       0.0440266 -0.08041739 -0.06282349 -0.019743381
0003e0 07 48 51 3d 31 cd 09 3c 4f 35 39 bd d4 90 ec 3d
       0.05109408 0.008410738 -0.045216855 0.11551061
0003f0 16 2b 8d bd 88 2c 1d bd 4d 5e fa 3d 81 96 08 3e
       -0.068929836 -0.038372546 0.12225018 0.13338663

fc3.bias f4 [8]
000000 7a 74 f4 3d 25 c8 8a bd 88 ba 65 3c 95 9f ea 3c
       0.11936279 -0.06776456 0.014021523 0.028640548
000010 e2 81 76 3d 22 a1 b8 bd cf 82 09 3e dc 37 7e 39
       0.06018246 -0.09015109 0.13428806 0.00024244137
